saved_models/model.pth (torch, 106513 bytes, 28 tensors)

transforms.0.coupling_network.input.weight f4 [16, 8, 3, 3]
-0.024963126 -0.10532154 -0.015408171 -0.08887637 -0.012797165 0.16797738 -0.058031056 -0.28033358
-0.07317938 -0.06582594 0.02852878 -0.11922793 -0.08003754 -0.016495826 0.08536895 -0.26742837
-0.071515284 -0.064835176 0.07691152 0.109836504 -0.042041812 -0.19765615 0.07539262 -0.028450536
-0.17519288 0.108216844 0.102948636 0.007984231 0.07984255 0.090745434 -0.13681984 0.010555243
-0.059775982 -0.17330308 0.0026685314 -0.1063734 0.06447115 0.0012013629 0.045204848 -0.20455019
-0.11103875 0.15542783 -0.041525997 -0.11099385 -0.08758384 0.046346325 -0.016104532 -0.08320806
-0.14066656 -0.028190779 0.12274278 -0.1819038 0.017992409 0.025541136 0.099807724 0.02542234
0.039794516 -0.31854236 0.16440514 0.06375022 -0.10888912 0.034538444 -0.089240484 0.019893909
0.055438645 -0.076380394 -0.25720835 0.07300345 -0.024624333 -0.10005544 -0.0022901865 0.028351547
-0.051899564 0.046623502 -0.012756555 -0.01413416 0.08096232 0.02353406 0.009058932 -0.050860897
0.042097732 -0.008099595 0.03297994 -0.078357294 0.06945294 0.15258998 -0.015501219 0.019642947
-0.09933023 -0.0024906695 0.08841097 0.02631378 0.02558779 0.058990464 0.09302422 0.1008603
0.003003185 0.04146692 -0.061205175 -0.14646474 0.0103855515 0.10538697 0.028990807 0.05860985
-0.043449465 -1.3309228e-05 -0.1337957 -0.06686575 0.048617844 0.0939075 0.03997764 -0.064580336
0.1601607 0.06790085 0.0013534547 -0.07952784 -0.012261724 -0.05445827 -0.071733765 -0.013755607
-0.0644371 0.12230442 -0.05663141 -0.0068113897 -0.09326561 0.024849635 -0.030739289 -0.10858477
-0.04719661 0.104185514 0.1660094 -0.03325919 0.02318685 -0.09100276 0.029460011 0.03326329
0.0085880775 -0.059393696 0.097197935 0.15015143 -0.049584404 -0.1257296 -0.05234047 -0.04066379
0.013046965 0.02706418 -0.040296603 -0.06817483 -0.018373769 -0.12005004 0.11399629 0.14427434
-0.023417506 0.08775901 0.0923238 0.09198254 0.021511035 0.016767882 0.108785816 -0.0041769324
0.084455915 0.024758937 0.11449535 -0.09094634 -0.043881964 0.13111588 0.037836917 0.04290448
0.13718526 0.11695429 0.10573481 -0.09795914 -0.040612374 -0.08825829 -0.11489367 -0.058553375
0.04287287 -0.02272015 0.042954165 -0.031388037 0.08004933 -0.010267315 0.058727294 0.037554424
0.071380585 -0.038461417 0.055556193 -0.054420456 0.047144774 -0.07310408 -0.0029600866 -0.08857943
0.048021168 0.13518958 0.10004314 0.043577448 0.05939963 0.10230282 -0.036476165 0.076234095
0.11853705 0.14040075 -0.042897727 0.13692383 0.0816705 0.0827937 0.058981452 -0.038540266
-0.038959987 0.1267838 0.0798758 -0.035383053 0.0086090695 -0.066619195 -0.1139608 -0.081812926
-0.025776671 0.08818627 0.09335131 0.07275826 0.044171125 0.042726345 -0.0051199645 -0.03570679
-0.032725256 -0.08837844 0.12299784 -0.009726363 -0.020966362 0.029295918 0.040197067 0.0996674
0.11196364 0.04574298 0.058922995 0.11603998 -0.013956953 -0.055886094 0.08020189 0.042352043
-0.0030228198 0.07161155 -0.044419922 -0.022494804 0.09740209 -0.039513223 -0.08986009 0.11048989
0.09789531 0.076363936 0.15621777 0.062190227 -0.08037813 0.022354247 0.06818953 -0.023228534
00000000: 787f ccbc d2b2 d7bd 8e72 7cbc d004 b6bd
00000010: 33ab 51bc 4302 2c3e f9b1 6dbd e287 8fbe
00000020: 12df 95bd c0cf 86bd 30b5 e93c c62d f4bd
00000030: b9ea a3bd 4122 87bc ebd5 ae3d 5fec 88be
00000040: 9b76 92bd 4ec8 84bd c983 9d3d f6f1 e03d
00000050: 0934 2cbd 6066 4abe 7267 9a3d 1911 e9bc
00000060: c365 33be cba0 dd3d bcd6 d23d 4bd0 023c
00000070: 7e84 a33d bed8 b93d 801a 0cbe e6ef 2c3c
00000080: a9d7 74bd 5d76 31be 87e2 2e3b 4cda d9bd
00000090: 7309 843d 0d77 9d3a b828 393d 9b75 51be
000000a0: 4968 e3bd 7928 1f3e 2a17 2abd be50 e3bd
000000b0: 285f b3bd a5d5 3d3d a7ed 83bc fd68 aabd
000000c0: e50a 10be 59f0 e6bc 9160 fb3d fd44 3abe
000000d0: d164 933c a53b d13c fe67 cc3d 8342 d03c
000000e0: 93ff 223d fc17 a3be d259 283e 7a8f 823d
000000f0: 4201 dfbd 2f78 0d3d b7c3 b6bd 8df8 a23c
00000100: a213 633d 536d 9cbd d0b0 83be d582 953d
00000110: f8b8 c9bc dee9 ccbd f416 16bb 8141 e83c
00000120: a394 54bd 49f8 3e3d df00 51bc f792 67bc
00000130: 93cf a53d 80ca c03c ea6b 143c 8453 50bd
00000140: ac6e 2c3d 2ab4 04bc f915 073d ca79 a0bd
00000150: 583d 8e3d 8c40 1c3e d3f8 7dbc 3fea a03c
00000160: a66d cbbd 803a 23bb d010 b53d ff8f d73c
00000170: 7c9d d13c fc9f 713d 7b83 be3d d88f ce3d
00000180: 15d1 443b 38d9 293d 47b2 7abd dafa 15be
00000190: 2928 2a3c 20d5 d73d 217e ed3c e210 703d
000001a0: 11f8 31bd b34a 5fb7 bd01 09be e9f0 88bd
000001b0: 8123 473d 9352 c03d 98bf 233d b242 84bd
000001c0: 2b01 243e 9a0f 8b3d 6766 b13a 7edf a2bd
000001d0: 66e5 48bc a30f 5fbd 27e9 92bd 335f 61bc
000001e0: 99f7 83bd bd7a fa3d 56f6 67bd 1432 dfbb
000001f0: 0a02 bfbd 7691 cb3c f6d0 fbbc b161 debd
00000200: 3c51 41bd 375f d53d 5efe 293e ca3a 08bd
00000210: 59f2 bd3c a85f babd 1f56 f13c 163f 083d
00000220: 02b5 0c3c ce46 73bd b60f c73d 4cc1 193e
00000230: 0419 4bbd 43bf 00be f662 56bd 138f 26bd
00000240: f0c2 553c b3b5 dd3c 0d0e 25bd 3f9f 8bbd
00000250: 9684 96bc ccdc f5bd e376 e93d a7bc 133e
00000260: 12d6 bfbc ffba b33d 4314 bd3d 5861 bc3d
00000270: e937 b03c cc5c 893c 19cb de3d a6de 88bb
00000280: 39f7 ac3d 41d3 ca3c 8a7c ea3d 1342 babd
00000290: 93bd 33bd 3e43 063e e2fa 1a3d 9cbc 2f3d
000002a0: 4b7a 0c3e bb85 ef3d 7e8b d83d cd9e c8bd
000002b0: 2959 26bd c3c0 b4bd 5f4d ebbd aad5 6fbd
000002c0: 769b 2f3d 9c1f babc b5f0 2f3d be90 00bd
000002d0: e7f0 a33d 3e38 28bc 088c 703d abd2 193d
000002e0: fc2f 923d b889 1dbd e48e 633d fce7 5ebd
000002f0: e11a 413d 98b7 95bd 03fe 41bb 2269 b5bd
00000300: d8b1 443d 236f 0a3e 6be3 cc3d 447e 323d
00000310: 074d 733d 2484 d13d 0868 15bd 9f20 9c3d
00000320: 8ec3 f23d 37c5 0f3e 87b5 2fbd c335 0c3e
00000330: dd42 a73d be8f a93d 8996 713d 66dc 1dbd
00000340: 8294 1fbd 9dd3 013e ec95 a33d d2ed 10bd
00000350: 0e0d 0d3c a56f 88bd 4864 e9bd 898d a7bd
00000360: 9929 d3bc 019b b43d f92e bf3d 4802 953d
00000370: c8ec 343d d201 2f3d 60c5 a7bb 4841 12bd
00000380: eb0a 06bd c1ff b4bd 4be6 fb3d 535b 1fbc
00000390: a6c1 abbc fefd ef3c aea5 243d 6c1e cc3d
000003a0: 314d e53d fe5c 3b3d 3d59 713d 5ea6 ed3d
000003b0: b4ab 64bc d1e8 64bd e340 a43d 5679 2d3d
000003c0: 801a 46bb 14a9 923d aaf1 35bd 0647 b8bc
000003d0: bf7a c73d 9ed8 21bd 9108 b8bd 8648 e23d
000003e0: 567d c83d b264 9c3d 8df7 1f3e 2ebb 7e3d
000003f0: 4a9d a4bd 4120 b73c f4a6 8b3d c449 bebc

transforms.0.coupling_network.input.bias f4 [16]
-0.00459447 -0.008645317 -0.040779974 -0.007007723 -0.026034955 -0.07701741 0.007920387 0.0536924
-0.0011377509 0.09457191 0.084586516 -0.01980447 0.053245924 0.040360462 0.023727199 0.15815483
00000000: 358d 96bb 16a5 0dbc e708 27bd 0ba1 e5bb
00000010: 4247 d5bc 4ebb 9dbd 83c4 013c 90ec 5b3d
00000020: 9620 95ba ebae c13d b23b ad3d fc3c a2bc
00000030: 6618 5a3d 0351 253d 8b5f c23c 57f3 213e

transforms.0.coupling_network.hidden.0.weight f4 [16, 16, 3, 3]
-0.07405899 0.01830886 -0.025750086 -0.0014723184 0.11446923 -0.12158675 -0.049872935 -0.03559986
0.05067056 -0.022027042 0.012059582 -0.028554592 0.071425304 -0.08529061 -0.0057331827 0.01976531
0.01845238 -0.041082755 -0.013383209 0.086028256 0.04260083 -0.008555108 -0.007838056 -0.021990545
-0.06213272 0.033124596 0.01238001 -0.07719042 -0.024422841 -0.04093972 0.0056203236 0.047492
0.050499655 0.06611525 -0.045815855 0.06691904 0.083429776 -0.012618694 -0.018701117 -0.055920925
0.057481974 -0.053920805 -0.0050330004 0.06758527 0.06494385 -0.004086733 -0.0033292964 0.006422248
0.05654224 -0.007872216 -0.048806172 0.041130874 -0.03254832 -0.02187358 0.032506097 0.046558756
-0.027564198 -0.013836643 0.07303773 -0.091247834 0.01862962 0.028500555 -0.08608495 -0.037793744
-0.016573729 -0.0874765 -0.107615456 -0.052994076 0.08304731 -0.076332465 0.012695861 -0.10125535
-0.039441973 -0.019929005 -0.06278395 -0.029985035 -0.043635406 0.017010856 0.009225134 0.010694501
-0.033246737 -0.01234043 -0.116240844 -0.02469138 0.0019364376 0.1094114 -0.049124297 -0.047771282
0.033463273 -0.047730785 0.03084226 -0.029244617 0.051135458 0.098692164 0.073201716 0.024268825
0.05455395 0.09962994 0.023227546 -0.08103522 -0.06256637 -0.09032194 -0.045546483 0.09706774
-0.13111298 -0.00507155 -0.097612865 0.11893524 -0.03170991 0.074345775 0.04735319 -0.03435603
0.03921295 0.086730525 0.06205194 0.017662596 0.044940304 0.06920131 0.08410745 -0.045865748
0.06365364 0.037198015 0.0058759917 0.03122935 0.016462423 -0.02816078 0.053905122 -0.037677012
0.089433365 0.03797584 -0.07675125 0.03561797 0.021493373 0.009628318 0.04529791 -0.024754597
-0.008798254 -0.007230069 0.0058703837 -0.051018666 0.07404355 0.05001199 0.0442248 0.041795287
0.06756074 0.20028512 -0.009431817 -0.10835894 0.08104919 0.039637767 -0.15307587 0.009529504
-0.023397958 -0.055652987 0.09910478 0.13969971 -0.13769296 -0.024207907 0.05337188 -0.08793831
-0.14991874 0.07194745 -0.030814625 -0.07836329 -0.02306821 -0.076588124 -0.07372599 0.06078474
-0.103225894 0.071610115 0.022274118 -0.020024857 0.0058356756 0.016827311 -0.1251367 0.07548848
0.070291914 -0.17932367 -0.01346583 0.0106431 0.0266482 -0.03644507 0.019272827 0.02855329
-0.08926389 0.1683045 0.085250065 -0.03338374 0.08394542 0.075087816 0.00021202058 -0.091881
0.018608676 -0.2213905 0.036691215 -0.17813002 -0.17752822 0.007646361 -0.15132636 0.0026292882
-0.010485285 0.014763389 0.03918941 -0.062011637 -0.26060006 -0.06638983 0.024456726 -0.024712296
-0.030962367 0.068403795 0.10061821 0.13641499 0.00015968636 0.17198701 0.036535203 0.07811353
-0.052278046 0.076963626 -0.00488475 -0.17902113 0.07916838 0.0019152442 -0.008024092 0.036997817
0.014084754 0.113231964 -0.04993202 0.059614297 -0.008774029 -0.0016631603 0.070681944 0.08799745
0.05037759 0.036197305 0.06518009 0.0670995 -0.015655402 -0.08524115 0.06798916 0.000654483
-0.07567661 -0.00542902 -0.11064818 0.20152359 -0.046682306 -0.024513446 0.20540428 -0.2765447
0.10588475 0.22729377 -0.22656661 -0.09595337 -0.007758308 0.009649524 0.016870787 -0.07230069
00000000: 3dac 97bd 76fc 953c d8f1 d2bc cffa c0ba
00000010: d86e ea3d 7902 f9bd 9047 4cbd 29d1 11bd
00000020: ef8b 4f3d 0e72 b4bc 8e95 453c 52eb e9bc
00000030: 6e47 923d d8ac aebd 6cdd bbbb dcea a13c
00000040: 7229 973c 6446 28bd 3f45 5bbc 952f b03d
00000050: 357e 2e3d b92a 0cbc 316b 00bc 8425 b4bc
00000060: e17e 7ebd a8ad 073d 87d5 4a3c 0316 9ebd
00000070: 6912 c8bc 68b0 27bd b12a b83b f986 423d
00000080: bad8 4e3d 6f67 873d 68a9 3bbd da0c 893d
00000090: 3bdd aa3d a4be 4ebc 1633 99bc 570d 65bd
000000a0: 3872 6b3d 10dc 5cbd deeb a4bb 256a 8a3d
000000b0: 4801 853d 00ea 85bb 5330 5abb b971 d23b
000000c0: d698 673d 78fa 00bc fbe8 47bd d978 283d
000000d0: 6351 05bd 3930 b3bc 1d25 053d 65b4 3e3d
000000e0: 50ce e1bc 16b3 62bc ce94 953d 25e0 babd
000000f0: 259d 983c ff79 e93c 4e4d b0bd 9dcd 1abd
00000100: a1c5 87bc e126 b3bd 7e65 dcbd 5110 59bd
00000110: b514 aa3d 3254 9cbd 4d02 503c f75e cfbd
00000120: e88d 21bd 2742 a3bc df94 80bd 2da3 f5bc
00000130: 0abb 32bd 5a5a 8b3c 0425 173c fd37 2f3c
00000140: bb2d 08bd 842f 4abc ae0f eebd 9445 cabc
00000150: 10d0 fd3a 1613 e03d 8f36 49bd d2ab 43bd
00000160: c910 093d 5b81 43bd e8a8 fc3c 6892 efbc
00000170: 6a73 513d 1e1f ca3d c8ea 953d 6acf c63c
00000180: f673 5f3d c80a cc3d b247 be3c cbf5 a5bd
00000190: cc22 80bd b6fa b8bd f38e 3abd 74cb c63d
000001a0: 7b42 06be 3f2f a6bb 41e9 c7bd 5294 f33d
000001b0: 40e2 01bd 9942 983d 6bf5 413d e9b8 0cbd
000001c0: c29d 203d c69f b13d 2d2a 7e3d 26b1 903c
000001d0: 5313 383d 6bb9 8d3d 8740 ac3d b9dd 3bbd
000001e0: d75c 823d f25c 183d 648b c03b b2d4 ff3c
000001f0: 34dc 863c 70b1 e6bc 9ecb 5c3d 3653 1abd
00000200: d728 b73d 8e8c 1b3d c22f 9dbd 26e4 113d
00000210: df12 b03c 18c0 1d3c 4d8a 393d 27ca cabc
00000220: 8d26 10bc 37ea ecbb 595c c03b f3f8 50bd
00000230: 25a4 973d 5fd9 4c3d 1025 353d 8931 2b3d
00000240: 495d 8a3d 8b17 4d3e e887 1abc 4beb ddbd
00000250: 1efd a53d 365b 223d ecbf 1cbe a321 1c3c
00000260: 13ad bfbc 63f4 63bd 72f7 ca3d 710d 0f3e
00000270: 62ff 0cbe a94f c6bc 799c 5a3d 0019 b4bd
00000280: 4c84 19be 2f59 933d f46e fcbc ef7c a0bd
00000290: 8bf9 bcbc 3cda 9cbd a7fd 96bd 6bf9 783d
000002a0: 1968 d3bd 53a8 923d 3678 b63c 2b0b a4bc
000002b0: 3239 bf3b 6ed9 893c d623 00be b499 9a3d
000002c0: 35f5 8f3d a0a0 37be c99f 5cbc 6660 2e3c
000002d0: 534d da3c 6d47 15bd 0ce2 9d3c 97e8 e93c
000002e0: fdcf b6bd 0458 2c3e 9697 ae3d 63bd 08bd
000002f0: 94eb ab3d a4c7 993d d751 5e39 1b2c bcbd
00000300: 3971 983c 31b4 62be 8749 163d b767 36be
00000310: f5c9 35be 538e fa3b 4cf5 1abe 2350 2c3b
00000320: 79ca 2bbc 24e2 713c 1385 203d eaff 7dbd
00000330: 5f6d 85be 64f7 87bd 7959 c83c 7171 cabc
00000340: caa4 fdbc 4a17 8c3d ec10 ce3d 5fb0 0b3e
00000350: 7b71 2739 5d1d 303e f0a5 153d fdf9 9f3d
00000360: 8121 56bd 1b9f 9d3d 4110 a0bb 5151 37be
00000370: 0823 a23d ee08 fb3a 7b77 03bc 068b 173d
00000380: bdc3 663c 29e6 e73d 8585 4cbd 1f2e 743d
00000390: f2c0 0fbc 66fe d9ba b2c1 903d 0238 b43d
000003a0: bb58 4e3d a043 143d 247d 853d 766b 893d
000003b0: c23f 80bc e992 aebd e73d 8b3d 9c91 2b3a
000003c0: 57fc 9abd ece5 b1bb 839b e2bd 335c 4e3e
000003d0: f235 3fbd 6cd0 c8bc 8055 523e 4497 8dbe
000003e0: 1bda d83d b3bf 683e 1401 68be 3383 c4bd
000003f0: 6839 febb 0a19 1e3c 9b34 8a3c 6212 94bd

transforms.0.coupling_network.hidden.0.bias f4 [16]
0.03627797 0.041599143 0.03210647 -0.03344198 -0.01744404 -0.015406627 -0.012887712 0.040675398
0.13833109 -0.043185275 0.041948915 0.03259307 -0.0070071057 0.04138061 0.03927732 0.08900801
00000000: 3598 143d dd63 2a3d 1382 033d 75fa 08bd
00000010: cee6 8ebc 146c 7cbc fb26 53bc 3f9b 263d
00000020: aaa6 0d3e 0be3 30bd a0d2 2b3d 5080 053d
00000030: dd9b e5bb b77e 293d 41e1 203d d549 b63d

transforms.0.coupling_network.output.weight f4 [16, 16, 3, 3]
-0.024699535 -0.044515703 -0.057678603 0.09198403 -0.051080324 0.082865864 0.0005392639 0.041129336
-0.0472623 -0.008079219 0.23275383 0.40210176 -0.05396357 0.32684916 0.3021685 -0.089408174
0.0067562014 0.14609088 -0.0631435 0.034043375 -0.01611031 0.07611901 -0.10926747 -0.042006016
-0.1691939 -0.17842463 -0.038303655 0.020754516 -0.0658814 0.07932048 0.06607774 -0.021018762
0.033045504 -0.05033793 0.0626249 -0.04576348 0.033082757 -0.010929571 -0.013081538 0.0315739
0.018315872 -0.05911834 -0.0760934 -0.050506435 -0.06137815 -0.004737836 0.02364392 0.008790595
0.049349204 -0.0103504965 -0.013584241 -0.066447005 -0.048090488 0.03094448 0.023264254 -0.034184165
0.008994805 0.022805808 -0.030287512 -0.03417001 -0.034899842 -0.0316088 -0.00820928 -0.08432828
-0.10906039 0.03486227 0.063598536 0.18814369 0.16299272 -0.028706616 0.026541395 -0.030323751
0.37739626 0.40550613 -0.05032044 -0.02843694 -0.0026614536 -0.07402011 0.052735053 0.07454448
-0.044055324 0.08385131 0.043380335 0.0146573605 0.06264898 -0.05552669 -0.068934746 0.074112825
0.0008468708 -0.00017421998 0.013031074 0.103218146 0.0379084 0.002304509 0.05128478 0.08322677
-0.06385409 -0.013324223 0.04743853 -0.069491096 0.024065604 -0.028342342 -0.021446053 0.07343679
0.037439268 0.07903382 0.070979886 -0.04454194 0.0060311393 0.0042274594 0.07118591 0.025780076
0.023047335 0.00322835 -0.019945867 0.05767301 -0.038304057 0.36608812 0.02432538 0.067655794
0.351941 -0.036247145 0.032118928 -0.018189419 -0.036898006 0.035433702 -0.00669102 -0.040152274
-0.002571615 -0.062290225 0.02554629 -0.043308306 0.03743584 0.028744707 -0.0054849987 -0.041415907
-0.00663237 0.04783707 -0.08126995 0.050446134 0.07292901 -0.077516705 0.024997994 -0.046872407
0.072743095 -0.008223756 -0.051342644 -0.050810274 0.050821804 -0.051745858 0.04925503 0.010306149
0.09846637 0.036103677 -0.055501513 0.37992793 0.0011686299 0.03939618 0.3786459 -0.105759464
-0.089118965 0.22993499 -0.10670803 0.027553318 0.039708734 0.013973263 0.003341406 0.023079425
-0.035003986 -0.020762542 0.029094445 0.06525235 -0.085588925 -0.0031923694 -0.08164648 0.014251099
0.032204166 0.041768663 0.03674848 0.044889383 -0.05148573 -0.014809864 0.052084196 -0.044152852
-0.049387995 -0.07799554 0.017747672 -0.08034275 -0.023147995 0.04491342 -0.04913521 0.026240306
0.043946236 0.03813463 0.045684155 -0.06948675 -0.0067083603 -0.05696115 0.04699387 0.020741904
-0.060407013 0.047969982 0.012019004 0.041015692 0.021600887 -0.047880474 -0.082915336 -0.0025931422
-0.20461373 0.03784649 0.0042343084 -0.012920113 0.03192861 -0.055667583 -0.06050197 -0.055520613
0.3351598 0.41805127 0.12864959 0.03948357 -0.09352175 0.07997257 0.0131197525 0.053449366
0.017283233 -0.010768743 -0.038406562 0.04876172 0.05995665 -0.048509896 0.042439368 -0.0026601588
-0.020231744 -0.01046832 0.05975588 -0.0018180182 0.07825186 0.07512308 0.014510255 -0.00032456178
0.05349652 0.045835473 -0.008217031 -0.012979005 -0.029799439 0.048399854 -0.030179033 0.04841722
-0.03633583 0.10241542 0.061541565 -0.037692513 -0.039409112 -0.07114819 0.0005311744 0.012897503
00000000: ae56 cabc 1956 36bd 6640 6cbd 2062 bc3d
00000010: 9a39 51bd 94b5 a93d 635d 0d3a 3c77 283d
00000020: 1d96 41bd b35e 04bc 0557 6e3e 48e0 cd3e
00000030: e808 5dbd c658 a73e d4b5 9a3e a21b b7bd
00000040: 2063 dd3b d998 153e 6151 81bd 1171 0b3d
00000050: c5f9 83bc 49e4 9b3d a0c7 dfbd 800e 2cbd
00000060: 2a41 2dbe f2b4 36be 4be4 1cbd 6005 aa3c
00000070: d4ec 86bd c772 a23d c453 873d 8a2f acbc
00000080: b95a 073d 252f 4ebd 7c41 803d 7d72 3bbd
00000090: c981 073d f211 33bc f253 56bc a253 013d
000000a0: 2b0b 963c 1326 72bd dbd6 9bbd d6df 4ebd
000000b0: a867 7bbd d93f 9bbb e5b0 c13c 6e06 103c
000000c0: 6422 4a3d 2195 29bc 7090 5ebc 5e15 88bd
000000d0: 88fa 44bd 477f fd3c ad94 be3c b204 0cbd
000000e0: f25e 133c 3fd3 ba3c 841d f8bc daf5 0bbd
000000f0: 23f3 0ebd 3b78 01bd 3780 06bc 4eb4 acbd
00000100: 0e5b dfbd bdcb 0e3d f33f 823d bda8 403e
00000110: 90e7 263e 232a ebbc 576d d93c 8469 f8bc
00000120: 153a c13e 809e cf3e ce1c 4ebd 96f4 e8bc
00000130: c86b 2ebb db97 97bd b600 583d c7aa 983d
00000140: 5b73 34bd 3cba ab3d 94af 313d 6d25 703c
00000150: 1c4e 803d f46f 63bd a92d 8dbd 77c8 973d
00000160: 8a00 5e3a d2ae 36b9 4980 553c 0964 d33d
00000170: d745 1b3d 3f07 173b fd0f 523d cc72 aa3d
00000180: efc5 82bd d84d 5abc e74e 423d 5951 8ebd
00000190: 3b25 c53c 332e e8bc a2af afbc 0766 963d
000001a0: eb59 193d 7cdc a13d e75d 913d 9c71 36bd
000001b0: dda0 c53b 8086 8a3b ebc9 913d bd30 d33c
000001c0: c4cd bc3c ba92 533b 8465 a3bc 893a 6c3d
000001d0: b7e4 1cbd e76f bb3e 0546 c73c 1f8f 8a3d
000001e0: 9c31 b43e e377 14bd 238f 033d fa01 95bc
000001f0: 5d22 17bd ee22 113d 5840 dbbb b676 24bd
00000200: 8a88 28bb 0924 7fbd 7446 d13c 0d64 31bd
00000210: 5356 193d 057a eb3c 81bb b3bb baa3 29bd
00000220: 5a54 d9bb cef0 433d dc70 a6bd 9ba0 4e3d
00000230: ce5b 953d 14c1 9ebd 98c8 cc3c 48fd 3fbd
00000240: 55fa 943d efbc 06bc aa4c 52bd 6f1e 50bd
00000250: 862a 503d 77f3 53bd a4bf 493d 1fdb 283c
00000260: bca8 c93d 73e1 133d 8e55 63bd ea85 c23e
00000270: b62c 993a e45d 213d e0dd c13e 6b98 d8bd
00000280: 0184 b6bd 1474 6b3e bd89 dabd 7fb7 e13c
00000290: a0a5 223d 1df0 643c 7dfb 5a3b 1011 bd3c
000002a0: 5760 0fbd 3516 aabc 7957 ee3c 06a3 853d
000002b0: 3f49 afbd 1237 51bb 4536 a7bd 717d 693c
000002c0: 84e8 033d 9e15 2b3d 9385 163d eedd 373d
000002d0: b3e2 52bd 12a5 72bc 3d56 553d 9fd9 34bd
000002e0: 114b 4abd 20bc 9fbd 9163 913c bd8a a4bd
000002f0: dda0 bdbc 22f7 373d 0142 49bd e9f5 d63c
00000300: f800 343d 0f33 1c3d 4f1f 3b3d 124f 8ebd
00000310: ced1 dbbb 1850 69bd a57c 403d edea a93c
00000320: 586d 77bd 2c7c 443d 5beb 443c 1200 283d
00000330: 58f4 b03c 511e 44bd 84cf a9bd b5f1 29bb
00000340: 4386 51be ec04 1b3d f4bf 8a3b e2ae 53bc
00000350: 93c7 023d b103 64bd ead0 77bd 9569 63bd
00000360: 119a ab3e d10a d63e b8bc 033e 86b9 213d
00000370: 5588 bfbd a9c8 a33d 3bf4 563c b9ed 5a3d
00000380: 9195 8d3c 626f 30bc 3350 1dbd 5fba 473d
00000390: 1b95 753d 50b2 46bd e7d4 2d3d 0f56 2ebb
000003a0: 0bbd a5bc 5183 2bbc 95c2 743d 914a eeba
000003b0: 8342 a03d 21da 993d 6cbc 6d3c f229 aab9
000003c0: 2b1f 5b3d fabd 3b3d baa0 06bc e5a5 54bc
000003d0: f41d f4bc ed3e 463d 053a f7bc 2351 463d
000003e0: e1d4 14bd 2dbf d13d 0213 7c3d 7763 1abd
000003f0: 736b 21bd 24b6 91bd 833e 0b3a 0c50 533c

transforms.0.coupling_network.output.bias f4 [16]
-0.007894147 0.002814813 0.016500985 0.12977867 0.016738424 0.045575693 0.111914895 0.030146241
-0.02695816 -0.000757639 0.044821773 0.06701406 -0.007928544 0.05421965 -0.015433062 -0.013498963
00000000: 7456 01bc ba78 383b 132d 873c b3e4 043e
00000010: 051f 893c 94ad 3a3d a333 e53d 40f5 f63c
00000020: 5cd7 dcbc 4b9c 46ba 0997 373d ab3e 893d
00000030: b9e6 01bc 6c15 5e3d f4da 7cbc c12a 5dbc

transforms.1.weight f4 [16, 16]
-0.21754135 0.35510758 0.15380366 0.30278566 -0.274135 0.13530931 -0.098918684 0.43331236
0.05166732 -0.023980038 0.117515884 -0.023157157 0.04006499 -0.15633425 0.09919003 0.5392007
-0.18668982 0.052260313 -0.5016115 -0.34851983 -0.17579894 -0.088764906 0.0584477 0.22885929
0.0966223 -0.005729891 -0.38200808 -0.39338806 0.018990802 0.03950519 0.37482888 0.12027841
-0.37052312 0.41503507 -0.22378199 0.18588227 -0.0057613254 0.19369817 0.08016635 -0.4305075
-0.33411694 0.18165936 0.37910375 0.10528215 0.071592405 0.0954739 0.23277067 0.013152348
0.18980406 0.0011903059 0.3873715 -0.39797324 -0.21236065 0.05585743 0.026697725 -0.370649
-0.28647056 -0.108254835 -0.15235424 -0.4671787 -0.07243021 -0.16980861 -0.09184796 0.30806947
0.3882503 0.1156495 -0.037798505 0.0022945905 -0.100479536 0.016250044 -0.13214225 -0.03651086
0.42336813 -0.3167801 0.46202707 0.02801625 -0.4006722 0.006228433 0.45066488 -0.04000766
0.23681238 -0.2390044 0.0011683167 -0.07805613 -0.15831552 -0.07317703 0.0614041 0.10963948
-0.0059056804 0.8046281 0.36237356 0.062411644 0.025470318 -0.33500585 0.17890237 0.12599032
-0.050989382 0.100135304 -0.029495563 -0.06828931 -0.34973484 -0.17559212 -0.19000283 -0.17663734
0.36009842 -0.15245746 0.21406673 -0.23140182 0.62978107 -0.17188355 -0.25885114 -0.24645402
-0.16886994 -0.10178735 0.4402611 -0.026594156 0.10953767 -0.2042009 0.6015279 0.035299834
0.25164133 0.09826042 0.31336933 -0.07944176 0.109314166 0.49177513 0.23589095 0.14010845
0.13894069 0.12354597 0.24906416 -0.2629122 -0.46112666 0.5329431 -0.013292095 0.25977698
-0.008290478 0.15514258 -0.12213312 0.26582018 0.12852405 0.33124253 0.22256084 -0.38101903
0.07038657 0.18835403 0.21989211 0.0016119196 0.070542015 -0.541476 -0.49946302 0.19994825
-0.39160788 0.14628407 0.067819394 -0.12257902 -0.062435918 0.34207007 0.10712699 -0.20282637
0.3965832 -0.056066543 -0.11008329 0.14465286 -0.21723177 -0.33286932 0.22975962 -0.18364765
-0.27942082 -0.23105131 -0.21709242 0.36352208 0.36992684 -0.035217393 0.21540608 0.12981488
-0.18987563 0.10642403 0.13994971 0.35451326 -0.33727428 -0.23411077 0.035948202 -0.36371168
0.31864214 0.23028834 -0.46493015 0.051625874 -0.3077345 -0.14003497 0.11656303 -0.20403513
-0.37164596 -0.061382957 0.3191446 -0.23618384 0.22838517 -0.10798516 -0.049202036 0.044856038
-0.12737732 -0.2438655 0.022934915 0.15653105 0.12980378 -0.5477944 0.39468753 -0.2645893
-0.07464062 0.2010298 -0.2074972 -0.2407189 -0.32074803 -0.29684493 0.38370752 0.12833622
-0.20370069 -0.18012403 0.20145525 0.07337746 -0.32158142 -0.07096658 -0.44506633 -0.22777951
-0.28322804 -0.5596853 0.065259114 -0.12768249 -0.30313975 0.08887539 -0.37675303 -0.23939554
-0.13135591 -0.293818 0.077405974 0.21845672 -0.1540635 0.22190434 -0.14365152 0.19997782
0.10693465 -0.42478654 -0.1427425 0.43006578 -0.13000415 0.19276851 0.07496005 0.017817607
-0.2905197 -0.19322214 0.091096014 -0.5432858 0.03632721 -0.07850312 0.18047388 -0.3315324
00000000: 29c3 5ebe a9d0 b53e b57e 1d3e b906 9b3e
00000010: 6c5b 8cbe 868e 0a3e e195 cabd 1edb dd3e
00000020: 1da1 533d c971 c4bc 2bac f03d 14b4 bdbc
00000030: 301b 243d 1616 20be 2424 cb3d 0f09 0a3f
00000040: 9e2b 3fbe e90e 563d 9c69 00bf 3171 b2be
00000050: a304 34be 60ca b5bd db66 6f3d 175a 6a3e
00000060: eae1 c53d cfc1 bbbb 9096 c3be 296a c9be
00000070: 9992 9b3c 32d0 213d 92e9 bf3e 8754 f63d
00000080: 35b5 bdbe 7a7f d43e 1b27 65be ec57 3e3e
00000090: 80c9 bcbb d058 463e 412e a43d 7b6b dcbe
000000a0: 6011 abbe e904 3a3e e319 c23e 2b9e d73d
000000b0: 0a9f 923d d287 c33d 6f5b 6e3e f27c 573c
000000c0: ff5b 423e 0a04 9c3a 8f55 c63e 26c3 cbbe
000000d0: 1275 59be c3ca 643d 30b5 da3c b5c5 bdbe
000000e0: 45ac 92be b6b4 ddbd c002 1cbe 0c32 efbe
000000f0: 4a56 94bd 4fe2 2dbe c91a bcbd 48bb 9d3e
00000100: bec8 c63e a5d9 ec3d 9bd2 1abd d760 163b
00000110: 37c8 cdbd d01e 853c 4c50 07be 698c 15bd
00000120: b5c3 d83e 0031 a2be d08e ec3e 5682 e53c
00000130: e824 cdbe e217 cc3b 8cbd e63e 12df 23bd
00000140: f27e 723e 92bd 74be 3422 993a e4db 9fbd
00000150: 771d 22be d7dd 95bd de82 7b3d aa8a e03d
00000160: 7084 c1bb 1bfc 4d3f 0789 b93e 5aa3 7f3d
00000170: 21a7 d03c e385 abbe 2f32 373e 9b03 013e
00000180: 3eda 50bd bd13 cd3d aea0 f1bc 44db 8bbd
00000190: 7210 b3be 6cce 33be 1a90 42be 6be0 34be
000001a0: d25e b83e cf1d 1cbe 4f34 5b3e 99f4 6cbe
000001b0: 5539 213f 3e02 30be 2388 84be 715e 7cbe
000001c0: 3eec 2cbe e375 d0bd e769 e13e fddb d9bc
000001d0: 4955 e03d 0a1a 51be bcfd 193f 8f96 103d
000001e0: 22d7 803e c23c c93d f271 a03e 5db2 a2bd
000001f0: 1be0 df3d f3c9 fb3e 668d 713e 9778 0f3e
00000200: 7846 0e3e ab05 fd3d ad0a 7f3e 6e9c 86be
00000210: cb18 ecbe f66e 083f 16c7 59bc 7d01 853e
00000220: c9d4 07bc b2dd 1e3e ee20 fabd 9519 883e
00000230: cf9b 033e 9f98 a93e fde6 633e ed14 c3be
00000240: d626 903d e1df 403e 662b 613e 0c47 d33a
00000250: 5578 903d 2c9e 0abf 9eb9 ffbe 3cbf 4c3e
00000260: d480 c8be 7ecb 153e e5e4 8a3d b60a fbbd
00000270: cebc 7fbd cf23 af3e 6565 db3d b7b1 4fbe
00000280: f40c cb3e 08a6 65bd 5973 e1bd e11f 143e
00000290: 0172 5ebe d96d aabe 1b46 6b3e 210e 3cbe
000002a0: 3f10 8fbe b798 6cbe 7a4d 5ebe 911f ba3e
000002b0: 0d67 bd3e 1d40 10bd 6993 5c3e 31ee 043e
000002c0: c26e 42be d8f4 d93d fa4e 0f3e c382 b53e
000002d0: 37af acbe bcba 6fbe 6c3e 133d 6b38 babe
000002e0: 1025 a33e b5d0 6b3e 530b eebe a775 533d
000002f0: 608f 9dbe 5465 0fbe 99b8 ee3d 96ee 50be
00000300: 6148 bebe b26c 7bbd ec66 a33e 2dda 71be
00000310: cddd 693e 5327 ddbd 1388 49bd f7ba 373d
00000320: 336f 02be e1b7 79be 01e2 bb3c ad49 203e
00000330: 48eb 043e 413c 0cbf 7c14 ca3e 4078 87be
00000340: 2edd 98bd c2da 4d3e 257a 54be 047f 76be
00000350: 1639 a4be 0ffc 97be 5075 c43e 926a 033e
00000360: ea96 50be 6f72 38be 494a 4e3e ec46 963d
00000370: 52a6 a4be ed56 91bd bcdf e3be 083f 69be
00000380: 4403 91be 8947 0fbf 92a6 853d 33bf 02be
00000390: 2235 9bbe 4d04 b63d c6e5 c0be 1b24 75be
000003a0: 2a82 06be 506f 96be 0687 9e3d 1eb3 5f3e
000003b0: d2c2 1dbe e43a 633e 6219 13be fcc6 4c3e
000003c0: 8e00 db3d 9f7d d9be 172b 12be 9531 dc3e
000003d0: cf1f 05be 1c65 453e a884 993d 3bf6 913c
000003e0: 00bf 94be 06dc 45be 8c90 ba3d c714 0bbf
000003f0: d7cb 143d 3ec6 a0bd 25ce 383e 9dbe a9be

transforms.2.coupling_network.input.weight f4 [16, 8, 3, 3]
0.084652156 0.0107391905 -0.09699938 -0.020590173 -0.07629315 0.05283592 -0.0043823384 0.072155766
0.08563893 -0.12926115 0.054099463 0.02134442 0.03863553 -0.05964799 -0.051655438 -0.011356056
0.027040424 0.049813304 -0.0476608 -0.049011797 -0.07614119 0.08843532 0.094223246 -0.037606556
0.08382827 0.01781868 0.07704304 0.08292337 -0.059009388 0.059961107 -0.079686336 -0.03403592
0.07725335 -0.08416228 -0.055832632 -0.015199434 -0.021973155 0.006239912 0.02637217 -0.0624534
0.049175214 0.017962322 0.11404464 -0.0037521548 -0.109890915 -0.010040519 0.05476494 0.009728887
-0.16000676 -0.02417732 0.022630244 0.03349196 -0.063035876 -0.027677396 0.0860136 -0.11129851
-0.10813616 -0.101988144 -0.06933068 0.01565622 -0.045909613 0.033691008 0.0086184135 0.12626015
0.01893069 -0.035181105 -0.000941669 0.109312996 0.11202956 -0.03458893 -0.04641313 -0.02687099
-0.072012424 -0.08139133 -0.06900758 0.11464221 0.09336441 0.050212845 0.043887246 0.09133014
0.024513124 0.05033641 -0.09823332 -0.10107565 -0.050372586 0.048636958 -0.029883143 -0.046763048
0.072435424 0.04523863 -0.067367196 0.08396732 -0.008137663 -0.013950952 0.050306376 0.07176952
0.009886024 -0.0559899 -0.05429596 -0.10929202 -0.07951205 -0.056218233 0.048849538 -0.05103173
-0.06468117 0.05728396 -0.030019468 -0.028799966 0.0021616463 -0.1053876 -0.003032153 0.07838365
-0.022010269 -0.053835485 0.07077309 -0.017928144 -0.0059433277 0.09290812 0.015889084 -0.025142767
0.07270993 0.08754252 0.054510064 0.021106564 0.08361655 -0.058476463 0.016459351 0.06304268
0.0116111925 -0.10543698 0.057901863 0.01881653 0.09960901 -0.047930013 -0.05709538 0.07429252
0.03373656 0.044278424 0.035496432 -0.03318566 0.115389295 -0.045682218 0.090259135 -0.108864084
0.05981478 -0.08029949 -0.06896478 -0.031627774 0.03120581 0.0068155904 0.027799398 0.02887856
0.0851818 -0.050237767 -0.049297005 0.05911564 -0.054184917 -0.09766291 0.050140064 -0.01586839
-0.07545285 -0.0765496 -0.061364762 0.031635176 -0.006913303 0.087414294 0.013578525 -0.04198296
-0.021752236 0.014714452 -0.01698997 0.08774211 -0.023048282 0.06921163 0.09544487 -0.01852536
0.0697991 -0.013724701 -0.03852471 0.0800491 -0.028673904 -0.05986522 -0.049078822 -0.10045197
0.06428402 0.036691967 -0.041115336 -0.02499442 -0.05460849 0.023356711 -0.107228324 0.032761194
0.041041806 0.14946134 -0.07849452 0.03622319 -0.1108295 -0.053399883 0.15121934 0.0406859
-0.09170392 -0.053700473 -0.049310103 -0.0033225794 0.05156762 -0.12058752 0.056999374 0.07639262
0.009132862 0.06822718 -0.07707522 0.11140924 0.077752806 -0.006136054 0.08316538 0.02203875
-0.032111578 0.054023195 0.0021941958 0.059690896 0.064904585 0.047181666 0.05359813 -0.057343584
-0.078518294 0.05959926 0.109142706 -0.10307778 0.09241797 0.11258715 0.011759837 -0.12899329
-0.0014819563 0.12878053 0.10401971 -0.045878578 0.06802346 -0.055686656 -0.0878569 -0.1381529
0.04974651 0.06809142 0.08899989 -0.0014818186 -0.05711887 0.1263448 -0.11195129 0.06631559
0.12730215 0.029001681 0.091648676 0.1510671 0.1575135 -0.03119595 0.0045673633 0.087290674
00000000: 1c5e ad3d 6ef3 2f3c 9ca7 c6bd b9ac a8bc
00000010: 953f 9cbd 7a6a 583d b899 8fbb 67c6 933d
00000020: 7763 af3d 095d 04be 6697 5d3d 7eda ae3c
00000030: 4a40 1e3d 7351 74bd a794 53bd c00e 3abc
00000040: e183 dd3c 0909 4c3d f937 43bd 98c0 48bd
00000050: eaef 9bbd 941d b53d 1ef8 c03d 5509 1abd
00000060: 28ae ab3d 7bf8 913c bec8 9d3d bad3 a93d
00000070: d4b3 71bd c799 753d 9732 a3bd 4069 0bbd
00000080: 0137 9e3d 465d acbd c2b0 64bd 0c07 79bc
00000090: 0c01 b4bc 2d78 cc3b 730a d83c 23cf 7fbd
000000a0: f36b 493d b825 933c 3c90 e93d b6e6 75bb
000000b0: 7d0e e1bd fd80 24bc 3451 603d e965 1f3c
000000c0: d0d8 23be 840f c6bc 1063 b93c de2e 093d
000000d0: f418 81bd b5bb e2bc e627 b03d 79f0 e3bd
000000e0: 7e76 ddbd 29df d0bd 3efd 8dbd 7941 803c
000000f0: b80b 3cbd 95ff 093d 3f34 0d3c 574a 013e
00000100: 8914 9b3c 101a 10bd 56da 76ba 7edf df3d
00000110: c16f e53d 1fad 0dbd b21b 3ebd 8d20 dcbc
00000120: 407b 93bd 7fb0 a6bd d953 8dbd 89c9 ea3d
00000130: d735 bf3d fcab 4d3d 1dc3 333d 4c0b bb3d
00000140: bfcf c83c 8d2d 4e3d 8d2e c9bd c000 cfbd
00000150: 7c53 4ebd 8c37 473d 7ecd f4bc 9c8a 3fbd
00000160: 0659 943d 244c 393d d0f7 89bd 0ff7 ab3d
00000170: d553 05bc 8992 64bc 0f0e 4e3d e6fb 923d
00000180: fdf8 213c aa55 65bd 7165 5ebd 7fd4 dfbd
00000190: 37d7 a2bd 1745 66bd 7416 483d a606 51bd
000001a0: 9077 84bd 96a2 6a3d 63eb f5bc e8ed ebbc
000001b0: 68aa 0d3b 74d5 d7bd 16b7 46bb 9b87 a03d
000001c0: e14e b4bc 9982 5cbd 7bf1 903d 0bde 92bc
000001d0: 3fc0 c2bb 9d46 be3d d329 823c 34f8 cdbc
000001e0: f2e8 943d 7e49 b33d f245 5f3d ace7 ac3c
000001f0: 273f ab3d 0485 6fbd c3d5 863c 851c 813d
00000200: df3c 3e3c 58ef d7bd 812a 6d3d 2025 9a3c
00000210: cfff cb3d 4352 44bd d8dc 69bd ad26 983d
00000220: 592f 0a3d 4b5d 353d b564 113d b0ed 07bd
00000230: 3951 ec3d 471d 3bbd c8d9 b83d 22f4 debd
00000240: 5800 753d 0f74 a4bd 683d 8dbd 208c 01bd
00000250: 54a3 ff3c 5155 df3b 90bb e33c bb92 ec3c
00000260: cc73 ae3d 1ec6 4dbd a8eb 49bd 3e23 723d
00000270: 01f1 5dbd 7e03 c8bd ab5f 4d3d 6dfe 81bc
00000280: 0687 9abd 09c6 9cbd 9e59 7bbd e393 013d
00000290: fd88 e2bb 4406 b33d 7678 5e3c 53f6 2bbd
000002a0: bf31 b2bc e314 713c 8d2e 8bbc 23b2 b33d
000002b0: c0cf bcbc d4be 8d3d 9a78 c33d 7fc2 97bc
000002c0: d5f2 8e3d 91dd 60bc 16cc 1dbd c8f0 a33d
000002d0: 89e5 eabc 3c35 75bd e006 49bd c3b9 cdbd
000002e0: 57a7 833d 514a 163d 8e68 28bd 19c1 ccbc
000002f0: 27ad 5fbd 9356 bf3c 869a dbbd 9a30 063d
00000300: 741b 283d 650c 193e bcc1 a0bd c55e 143d
00000310: 94fa e2bd d6b9 5abd 3ed9 1a3e 42a6 263d
00000320: 44cf bbbd 07f5 5bbd 64f9 49bd a2bf 59bb
00000330: 9238 533d 97f6 f6bd 2d78 693d bc73 9c3d
00000340: 00a2 153c b1ba 8b3d 9dd9 9dbd 872a e43d
00000350: dd3c 9f3d f410 c9bb 9c52 aa3d 9c8a b43c
00000360: 6e87 03bd 6d47 5d3d 7fcc 0f3b 717e 743d
00000370: b2ec 843d 9041 413d b689 5b3d 1be1 6abd
00000380: 33ce a0bd 5b1e 743d 3686 df3d 711a d3bd
00000390: a245 bd3d 1794 e63d 55ac 403c d116 04be
000003a0: 343e c2ba 0bdf 033e 4908 d53d 2deb 3bbd
000003b0: e24f 8b3d b117 64bd 52ee b3bd f477 0dbe
000003c0: ffc2 4b3d 8473 8b3d 9345 b63d 9539 c2ba
000003d0: 7af5 69bd 8860 013e b846 e5bd 78d0 873d
000003e0: 7f5b 023e ef94 ed3c 4db2 bb3d 55b1 1a3e
000003f0: 384b 213e a68e ffbc d2a9 953b 74c5 b23d

transforms.2.coupling_network.input.bias f4 [16]
0.003661105 0.10349428 0.05075596 -0.05625098 0.016483303 0.035887953 0.029538803 -0.00066558225
-0.0117206415 0.05457319 -0.057447817 0.11181165 -0.021008452 0.049358156 0.09551607 0.1484453
00000000: 26ef 6f3b cff4 d33d 7be5 4f3d 6d67 66bd
00000010: fe07 873c 3fff 123d 5cfb f13c 787a 2eba
00000020: ef07 40bc 2388 5f3d 674e 6bbd 82fd e43d
00000030: eb19 acbc c72b 4a3d ee9d c33d 0b02 183e

transforms.2.coupling_network.hidden.0.weight f4 [16, 16, 3, 3]
0.04357218 0.07136691 0.046800066 -0.047125723 0.025394931 0.05709215 -0.026713435 0.06752129
-0.0704087 0.043171078 0.010673023 -0.058600012 -0.022557119 0.049296744 0.023995377 0.044379625
0.078618236 -0.06029806 -0.046731554 -0.0008723608 0.037354 0.051061902 0.01545159 -0.10497873
-0.07392969 -0.12668422 -0.1407943 0.022115752 0.0023328313 -0.026910922 -0.05731961 -0.034345068
-0.03504975 -0.06421589 0.12627019 -0.016887136 0.018878877 -0.0039986833 0.010945009 -0.0719206
0.001826934 0.06697518 0.034778412 0.08280176 0.06972416 0.10665726 -0.044275258 -0.039374374
0.012456052 -0.042476125 -0.082579136 0.08090627 0.059825182 0.0099523915 0.06365929 -0.02067803
-0.011961538 -0.01738204 0.016718237 -0.022913828 -0.010511022 0.021285685 -0.050282422 -0.01418975
-0.0055844905 -0.076939896 -0.0021222492 -0.10255109 -0.051800936 0.07138255 0.093830116 0.07033363
-0.09308471 -0.07154788 -0.029382579 -0.02223006 0.0026961134 0.10467432 -0.023513384 0.008649887
0.02690372 0.0061782394 0.018195942 -0.051320843 0.00524884 0.039509352 -0.07709237 0.014500503
-0.063432276 -0.004021802 -0.048282124 -0.0324681 0.06365703 -0.035671156 0.031777296 -0.007131311
-0.041161146 0.01930693 0.0753794 -0.011019284 -0.03361157 -0.052343372 0.14310308 0.028434027
-0.013009624 -0.024061799 0.08246134 -0.01660191 0.07167407 0.03598571 0.08087346 0.06953916
0.0065541333 0.050660253 -0.082181625 0.0040197647 -0.018800562 0.08304539 -0.04677395 0.020190565
-0.06226984 -0.024913253 0.029007189 -0.021104814 0.003982074 -0.004780346 -0.03873591 -0.05632985
0.111732386 -0.06804528 -0.14020176 -0.0692234 0.041065976 -0.001419776 -0.029951937 -0.004384271
-0.04123785 -0.087686524 0.099632934 0.118762694 0.09717673 -0.043370154 0.08133136 -0.05705067
-0.054648805 -0.011359397 -0.042903885 -0.02864248 -0.027583769 -0.055894792 0.005202177 0.054275855
0.08646872 -0.011877105 0.043966103 -0.06265796 -0.03830085 0.04911804 0.06548497 0.0063758157
0.016080284 0.08610241 0.028342763 -0.010852692 -0.070678346 -0.095664226 0.06104787 0.0051078796
0.056914322 0.04649694 -0.08539752 -0.04208279 -0.008846164 -0.028791115 0.01783225 0.024438227
-0.0016848063 0.030855844 0.022676377 -0.0026157247 0.046540044 0.060030125 -0.037071396 0.08665112
0.011363133 0.057875246 0.007252863 0.042403694 0.041165862 -0.032610316 -0.056992777 0.03755213
-0.015714936 0.028797338 -0.08317372 0.06358845 0.09263285 -0.010734427 0.0073373346 -0.0028002714
-0.053164434 0.017074492 0.061389893 -0.015122501 0.005200782 -0.05585147 -0.011174313 0.053383093
0.010461074 0.04166193 -0.082969636 -0.0026746078 0.013136646 0.068588346 0.08412732 -0.0474325
0.05087619 -0.00095188577 -0.029973954 0.020540265 0.07079902 -0.10571307 0.053984825 0.06929402
-0.05120068 0.08444524 -0.040042404 0.03724984 -0.014876455 0.07227753 0.08163477 0.036201153
-0.06914832 -0.038334213 0.06855149 -0.052923314 -0.03286055 -0.06113419 0.07966938 0.033958405
0.019249396 0.025853092 -0.02286832 -0.0691202 0.12430172 -0.0997129 -0.06487147 -0.052695256
0.00844672 -0.020758096 -0.051656924 0.028410323 -0.017233286 0.08504323 0.036125585 -0.06899387
00000000: be78 323d d128 923d 6db1 3f3d e706 41bd
00000010: 0809 d03c 75d9 693d 22d6 dabc 9a48 8a3d
00000020: 7032 90bd 28d4 303d e7dd 2e3c 9106 70bd
00000030: b5c9 b8bc 62eb 493d f491 c43c 69c7 353d
00000040: 9902 a13d 19fb 76bd 9669 3fbd 24af 64ba
00000050: 8200 193d 4926 513d aa28 7d3c 17ff d6bd
00000060: 7368 97bd 82b9 01be 622c 10be 182c b53c
00000070: 6ae2 183b 4b74 dcbc f8c7 6abd 6aad 0cbd
00000080: 5490 0fbd 9f83 83bd f94c 013e e456 8abc
00000090: e0a7 9a3c 6307 83bb b252 333c 1c4b 93bd
000000a0: bc75 ef3a 482a 893d cf73 0e3d f893 a93d
000000b0: 8acb 8e3d 1f6f da3d f959 35bd 0647 21bd
000000c0: 7814 4c3c 72fb 2dbd 401f a9bd 30b2 a53d
000000d0: 400b 753d 5b0f 233c cd5f 823d f964 a9bc
000000e0: 54fa 43bc c864 8ebc aff4 883c c8b5 bbbc
000000f0: 6c36 2cbc 515f ae3c f1f4 4dbd 207c 68bc
00000100: 1afe b6bb aa92 9dbd 6f15 0bbb 4e06 d2bd
00000110: 382d 54bd 0431 923d 012a c03d 140b 903d
00000120: 32a3 bebd b287 92bd bcb3 f0bc d11b b6bc
00000130: 47b1 303b 7d5f d63d 249f c0bc 41b8 0d3c
00000140: 3165 dc3c d472 ca3b a80f 953c ce35 52bd
00000150: 76fe ab3b 8fd4 213d 9be2 9dbd 8593 6d3c
00000160: c8e8 81bd 52c9 83bb 7ac3 45bd 45fd 04bd
00000170: 9e5e 823d eb1b 12bd e928 023d c6ad e9bb
00000180: 9798 28bd 9129 9e3c 8460 9a3d 3a8a 34bc
00000190: 49ac 09bd 0166 56bd 9d89 123e 7aee e83c
000001a0: 5126 55bc 401d c5bc 7ee1 a83d bb00 88bc
000001b0: dbc9 923d c065 133d fca0 a53d 8c6a 8e3d
000001c0: 0ec4 d63b 2081 4f3d d74e a8bd 3bb8 833b
000001d0: a303 9abc b413 aa3d 0b96 3fbd af66 a53c
000001e0: a90e 7fbd e116 ccbc 7ca0 ed3c 01e4 acbc
000001f0: 0f7c 823b 73a4 9cbb 8ca9 1ebd 21ba 66bd
00000200: f3d3 e43d 535b 8bbd 0d91 0fbe ffc4 8dbd
00000210: cc34 283d c717 baba c45d f5bc eea9 8fbb
00000220: 05e9 28bd fe94 b3bd 5a0c cc3d db39 f33d
00000230: 9804 c73d e7a4 31bd 0e91 a63d f7ad 69bd
00000240: 6dd7 5fbd c41c 3abc fcbb 2fbd a2a3 eabc
00000250: 5bf7 e1bc f0f1 64bd 0677 aa3b 5c50 5e3d
00000260: 8316 b13d 3098 42bc cd15 343d d152 80bd
00000270: 5ae1 1cbd ff2f 493d fc1c 863d 38ec d03b
00000280: cdba 833c 7656 b03d 152f e83c 7dcf 31bc
00000290: cfbf 90bd 9beb c3bd 550d 7a3d 0060 a73b
000002a0: fe1e 693d 9373 3e3d e5e4 aebd 015f 2cbd
000002b0: 80ef 10bc 58db ebbc f014 923c ad32 c83c
000002c0: b8d4 dcba 65c5 fc3c cfc3 b93c 946c 2bbb
000002d0: c6a0 3e3d 26e2 753d 2dd8 17bd 2476 b13d
000002e0: 6f2c 3a3c 980e 6d3d 6da9 ed3b 7faf 2d3d
000002f0: 899d 283d 6592 05bd 4271 69bd 43d0 193d
00000300: 9cbc 80bc 65e8 eb3c fc56 aabd a93a 823d
00000310: 4bb6 bd3d 73df 2fbc 066e f03b c284 37bb
00000320: f3c2 59bd cedf 8b3c f873 7b3d 5ec4 77bc
00000330: 526b aa3b 83c4 64bd 7714 37bc 3ba8 5a3d
00000340: ed64 2b3c b3a5 2a3d fceb a9bd 7948 2fbb
00000350: 163b 573c 0c78 8c3d f24a ac3d 9548 42bd
00000360: 8d63 503d f987 79ba f08b f5bc 0f44 a83c
00000370: 14ff 903d 1880 d8bd 311f 5d3d 06ea 8d3d
00000380: ceb7 51bd a0f1 ac3d 8103 24bd 4a93 183d
00000390: 60bc 73bc 3e06 943d 2130 a73d a947 143d
000003a0: a29d 8dbd 5604 1dbd b964 8c3d 1ec6 58bd
000003b0: c998 06bd d867 7abd b329 a33d f817 0b3d
000003c0: e9b0 9d3c ddc9 d33c 5856 bbbc e48e 8dbd
000003d0: e691 fe3d 4736 ccbd 55db 84bd fbd6 57bd
000003e0: 1d64 0a3c e20c aabc 3696 53bd c4bc e83c
000003f0: d22c 8dbc 252b ae3d 6cf8 133d a84c 8dbd

transforms.2.coupling_network.hidden.0.bias f4 [16]
0.017294053 -0.04336119 0.06571331 -0.00568079 -0.004561381 0.07860581 -0.0031096053 -0.007307821
0.04353128 0.051217604 -0.04450181 -0.029409755 -0.027133197 -0.05516629 -0.026367482 -0.053103946
00000000: 42ac 8d3c 819b 31bd b394 863d ec25 babb
00000010: a377 95bb 15fc a03d 85ca 4bbb 7276 efbb
00000020: db4d 323d 8dc9 513d 8847 36bd baec f0bc
00000030: 7046 debc 0cf6 61bd 9e00 d8bc 8683 59bd

transforms.2.coupling_network.output.weight f4 [16, 16, 3, 3]
-0.011362747 -0.0038265663 -0.049332775 -0.010542822 -0.05618499 0.07475277 -0.012917887 0.010971478
-0.067234494 -0.018527512 -0.06150342 0.02395672 -0.08407869 0.056694012 -0.0019246921 -0.011235883
-0.031761818 0.0044113817 0.03207625 -0.013609407 -0.05922059 -0.018669156 -0.06315159 0.080730915
-0.04270264 0.07270312 -0.00067532173 0.054037906 -0.026383411 -0.021025132 0.057059374 -0.015273752
-0.08511239 0.022066692 -0.036981285 -0.02338167 -0.008669794 -0.04315392 0.051226787 -0.09075252
0.006431746 0.008316982 0.05914274 -0.011647788 -0.08470933 0.092173606 0.101008445 0.035890147
-0.026809406 -0.07155295 0.009308578 -0.052754648 -0.03487295 0.064228676 -0.059780177 0.081028
0.0286758 0.013410773 0.020697953 0.027142184 -0.069507726 0.06377663 0.07318793 0.071812235
0.061156213 0.009893386 0.014250798 -0.067074694 0.04112791 0.055441868 -0.0326842 -0.030792857
-0.01738513 0.06188414 -0.07988732 -0.048561282 0.060421653 -0.02931578 0.10800452 0.013576245
0.06751012 -0.053298116 0.084436074 0.06241456 0.047316547 0.040765315 0.0064567104 -0.02968696
0.057849042 -0.016639272 -0.08293524 0.14944418 -0.12118767 0.001587453 0.10269432 -0.08819515
-0.0714502 -0.1293711 0.08187915 -0.00092956575 -0.06661836 0.068310514 -0.038213283 -0.037498586
-0.012333342 0.009494003 -0.017835125 0.03628216 0.053460475 0.048686042 -0.020318141 0.017257107
0.018792909 -0.05508011 -0.0384269 0.035065338 -0.017850759 -0.075097606 0.070353806 -0.0301599
-0.03569521 -0.024290565 0.015436458 -0.030062998 -0.04358185 0.0077727074 -0.069184035 -0.04600863
-0.06275904 0.06551262 0.11288048 -0.089583635 -0.03205972 0.023554493 -0.035674725 -0.075245
0.05442826 -0.06729908 0.010248431 0.047450848 -0.031913687 -0.06811028 -0.021930002 0.07542126
-0.00089392654 -0.042439558 -0.0017488912 0.05692864 -0.04899 0.04463614 -0.11620985 -0.043277528
-0.08313661 -0.0635222 0.051028892 -0.00031923628 -0.041442707 -0.07826919 0.122718304 -0.062435653
-0.006875889 -0.04759606 -0.036689293 -0.08465431 -0.07094644 -0.016713198 0.08815598 0.10953742
0.07207433 -6.675595e-05 -0.04862736 -0.085968725 0.03801162 0.0063668145 0.013580129 -0.07252091
-0.08302453 -0.017809698 0.051271718 0.028996533 -0.058465723 0.008579023 0.05437099 0.036191337
-0.034534127 -0.022112744 -0.042642497 -0.09846919 0.0649237 0.041718267 -0.011030353 0.052684974
0.002320857 -0.095654316 0.13820688 -0.024936385 0.08546021 -0.04606041 0.051691893 -0.06682938
-0.03911167 -0.04548104 0.05566079 -0.018093443 0.07102154 -0.102440104 -0.032027442 0.018025054
0.09495026 0.04318645 0.073332615 -0.020626033 0.033935685 0.04170989 -0.06973914 -0.06964562
-0.034393992 0.019271825 0.06252846 -0.0897414 -0.09341059 -0.048285484 0.06085972 0.08633688
0.10455168 0.061476395 -0.046459466 0.072564825 -0.013290542 0.12807356 0.052566722 -0.06447164
-0.080936186 -0.033951607 -0.026375694 -0.0414491 -0.06757644 -0.012437808 0.03632853 -0.020557454
-0.12109479 -0.1624278 -0.17353964 0.006355055 -0.00472641 0.04509735 -0.027947813 -0.01648166
-0.10776721 0.07738422 0.033609997 0.021406833 -0.021645218 -0.0075861895 0.03330471 0.059742775
00000000: d12a 3abc 21c7 7abb 2a11 4abd cdbb 2cbc
00000010: 3b22 66bd fb17 993d 8ca5 53bc b7c1 333c
00000020: 3db2 89bd 02c7 97bc 03eb 7bbd e240 c43c
00000030: 7331 acbd fb37 683d f345 fcba b616 38bc
00000040: ae18 02bd 5a8d 903b 6362 033d fdf9 5ebc
00000050: 4a91 72bd 0ff0 98bc 9f55 81bd 4056 a53d
00000060: f7e8 2ebd 60e5 943d 1308 31ba da56 5d3d
00000070: 0622 d8bc e63c acbc 17b7 693d c23e 7abc
00000080: 684f aebd 35c5 b43c b079 17bd ea8a bfbc
00000090: c00b 0ebc 2ac2 30bd 2ed3 513d 75dc b9bd
000000a0: 65c1 d23b f343 083c a83f 723d 5dd6 3ebc
000000b0: 167c adbd 84c5 bc3d 84dd ce3d 8c01 133d
000000c0: 669f dbbc 5a8a 92bd 0283 183c 4215 58bd
000000d0: f0d6 0ebd 538a 833d 0fdc 74bd 02f2 a53d
000000e0: 83e9 ea3c dcb8 5b3c c18e a93c 4959 de3c
000000f0: 115a 8ebd 529d 823d 8ee3 953d 4b12 933d
00000100: f07e 7a3d de17 223c 2e7c 693c 755e 89bd
00000110: bd75 283d 0317 633d dedf 05bd 4d41 fcbc
00000120: 436b 8ebc 397a 7d3d f79b a3bd 32e8 46bd
00000130: b27c 773d a627 f0bc 7931 dd3d e66e 5e3c
00000140: bf42 8a3d 204f 5abd d2ec ac3d 69a6 7f3d
00000150: ffce 413d 88f9 263d d092 d33b 1132 f3bc
00000160: 1ef3 6c3d 154f 88bc f3d9 a9bd e507 193e
00000170: 3e31 f8bd 1512 d03a 6651 d23d a99f b4bd
00000180: 7c54 92bd dc79 04be 41b0 a73d 1aae 73ba
00000190: 356f 88bd 62e6 8b3d 8885 1cbd 1e98 19bd
000001a0: c911 4abc bc8c 1b3c f81a 92bc 9a9c 143d
000001b0: 5ff9 5a3d 046b 473d 3b72 a6bc c75e 8d3c
000001c0: 96f3 993c ae9b 61bd 8665 1dbd aca0 0f3d
000001d0: c13b 92bc c6cc 99bd a815 903d e511 f7bc
000001e0: 2435 12bd 02fd c6bc 33e9 7c3c ad46 f6bc
000001f0: e282 32bd 32b2 fe3b 5cb0 8dbd 8c73 3cbd
00000200: d087 80bd 7b2b 863d e22d e73d a077 b7bd
00000210: 0e51 03bd 5af5 c03c a91f 12bd 0d1a 9abd
00000220: 2bf0 5e3d 1ad4 89bd 09e9 273c d25b 423d
00000230: edb7 02bd 677d 8bbd 8ca6 b3bc 7676 9a3d
00000240: 6556 6aba 1ad5 2dbd 0d3b e5ba 012e 693d
00000250: bda9 48bd 63d4 363d 6eff edbd c743 31bd
00000260: 8743 aabd ed17 82bd ac03 513d 2b5f a7b9
00000270: d4bf 29bd 994b a0bd bc53 fb3d 87bc 7fbd
00000280: 234f e1bb 16f4 42bd 8347 16bd 3d5f adbd
00000290: 5e4c 91bd 1eea 88bc 1f8b b43d 2855 e03d
000002a0: b59b 933d 54ff 8bb8 7c2d 47bd 5f10 b0bd
000002b0: 13b2 1b3d b6a0 d03b 307f 5e3c d885 94bd
000002c0: c408 aabd a5e5 91bc 4b02 523d 238a ed3c
000002d0: c179 6fbd 088f 0c3c 1db4 5e3d 5e3d 143d
000002e0: a873 0dbd c925 b5bc e6a9 2ebd 37aa c9bd
000002f0: b8f6 843d c6e0 2a3d a7b8 34bc 33cc 573d
00000300: 8519 183b 69e6 c3bd 1b86 0d3e 6447 ccbc
00000310: c305 af3d d7a9 3cbd e1ba 533d d8dd 88bd
00000320: 8f33 20bd 544a 3abd 92fc 633d b338 94bc
00000330: be73 913d 1ecc d1bd 352f 03bd 47a9 933c
00000340: 4875 c23d 46e4 303d 692f 963d edf7 a8bc
00000350: 2500 0b3d fdd7 2a3d 65d3 8ebd 5da2 8ebd
00000360: b7e0 0cbd f2df 9d3c ec0e 803d 57ca b7bd
00000370: 0d4e bfbd 00c7 45bd 0b48 793d 64d1 b03d
00000380: 311f d63d acce 7b3d 484c 3ebd de9c 943d
00000390: 93c0 59bc b725 033e 3450 573d b509 84bd
000003a0: dfc1 a5bd d710 0bbd d711 d8bc 88c6 29bd
000003b0: 8465 8abd f3c7 4bbc 3acd 143d 1b68 a8bc
000003c0: 8c00 f8bd 7953 26be 60b4 31be 113e d03b
000003d0: 00e0 9abb 00b8 383d d0f2 e4bc 8c04 87bc
000003e0: 0eb5 dcbd 9e7b 9e3d a3aa 093d 625d af3c
000003f0: 5051 b1bc 9295 f8bb 856a 083d d7b4 743d

transforms.2.coupling_network.output.bias f4 [16]
0.0393691 0.08156192 0.035693362 0.017160296 -0.0016221963 0.003590949 0.019606581 0.0024596292
0.040031075 0.043663833 -0.04375805 0.034075227 -0.05858366 0.023892684 0.010035432 -0.036132395
00000000: 7e41 213d f009 a73d 3433 123d c093 8c3c
00000010: e09f d4ba 2156 6b3b fb9d a03c bb31 213b
00000020: a0f7 233d d9d8 323d a43b 33bd 7792 0b3d
00000030: 6bf5 6fbd 97ba c33c a76b 243c 90ff 13bd
