saved_models/model.pth (torch, 106513 bytes, 28 tensors)

transforms.0.coupling_network.input.weight f4 [16, 8, 3, 3]
0	0xbcc281b6	-0.023743492
1	0xbdc5e9a5	-0.09663705
2	0xbc128879	-0.00894367
3	0xbdd399e1	-0.103320844
4	0x3cd22358	0.025651619
5	0x3e1fb86e	0.15597698
6	0xbd1d2f46	-0.03837516
7	0xbe731626	-0.23738918
8	0xbd963c47	-0.07335716
9	0xbd849f80	-0.06475735
10	0x3cedadfa	0.029013623
11	0xbdf04499	-0.11731834
12	0xbdbac3ab	-0.09119352
13	0xbc9f0fc2	-0.019416694
14	0x3dadf9eb	0.08494934
15	0xbe87beee	-0.26512855
16	0xbd954978	-0.07289404
17	0xbd58ff3f	-0.052977797
18	0x3d9b8315	0.07593361
19	0x3de80f02	0.113309875
20	0xbd2387b9	-0.039924357
21	0xbe484fb2	-0.19561651
22	0x3d3c22c8	0.045931607
23	0xbcb6fda3	-0.02233774
24	0xbe0f7ff1	-0.1401365
25	0x3dbff639	0.09373135
26	0x3df175b5	0.11790029
27	0x3bb4384f	0.0054998766
28	0x3dae6b2a	0.08516534
29	0x3db25cbc	0.08709094
30	0xbde1d851	-0.11027587
31	0xbc32fc55	-0.010924418
32	0xbd51b2ba	-0.051195838
33	0xbdd70e67	-0.10500794
34	0xbc04c01b	-0.008102442
35	0xbdb96f6f	-0.090544574
36	0x3d60af1d	0.0548545
37	0x3c1eed2c	0.009700101
38	0x3d211e5c	0.039335594
39	0xbe2d1de2	-0.1690593
40	0xbd4e74a7	-0.050404217
41	0x3e0f6f03	0.14007191
42	0xbd4aaeb7	-0.049483027
43	0xbdaae662	-0.08344723
44	0xbdaf94e6	-0.08573322
45	0x3cf6c779	0.030124413
46	0xbca89860	-0.02058047
47	0xbdb523b8	-0.088447034
48	0xbde7362b	-0.112896286
49	0xbd2404c2	-0.0400436
50	0x3df9d4a3	0.1219876
51	0xbe037530	-0.12837672
52	0x3bfd6607	0.00773311
53	0x3d2ba6fe	0.041907303
54	0x3da4928d	0.08035765
55	0x3c99de9e	0.01878291
56	0x3d09840d	0.0335732
57	0xbe868eef	-0.26280925
58	0x3e09e39a	0.1346573
59	0x3d8fcc31	0.07021368
60	0xbd570bcd	-0.05250149
61	0x3cda5d36	0.026655775
62	0xbd93ce6d	-0.07217107
63	0x3c8f69b8	0.017506465
64	0x3d462563	0.0483755
65	0xbdaf22b4	-0.08551541
66	0xbe50def2	-0.20397547
67	0x3d4bf9f4	0.04979892
68	0xbc889ae0	-0.016675413
69	0xbdfc78b4	-0.1232771
70	0xbbd2dc7c	-0.006434975
71	0x3d3e8d9c	0.046521768
72	0xbd7347b0	-0.05939454
73	0x3d4a5bfa	0.049404122
74	0xbca8cdbb	-0.020605912
75	0xbc48e3d2	-0.012261348
76	0x3d8e5608	0.06950003
77	0x3cdd1975	0.026989678
78	0x3c88b490	0.016687661
79	0xbd5b19f3	-0.053491544
80	0x3d6a079d	0.057136167
81	0xbbbf065c	-0.0058296155
82	0x3d142fa7	0.036178257
83	0xbdbab3a4	-0.09116295
84	0x3d8a73f9	0.06760401
85	0x3e0c7265	0.13715513
86	0xbc4b54ac	-0.012410324
87	0x3ccc4159	0.024933504
88	0xbdcab57e	-0.09897898
89	0x3c41d194	0.0118297525
90	0x3dc1c4a1	0.09461332
91	0x3cf293b8	0.029611453
92	0x3c13a363	0.009011122
93	0x3d4e6a41	0.0503943
94	0x3dab76fd	0.083723046
95	0x3dd5e087	0.10443216
96	0x3b98c351	0.0046619554
97	0x3d487dc0	0.04894805
98	0xbd67c84e	-0.05658751
99	0xbe13fb3d	-0.14451309
100	0x3c37a462	0.0112086255
101	0x3dae54c0	0.085122585
102	0x3c7f6d8c	0.015590083
103	0x3d5ff0bf	0.054672953
104	0xbd623620	-0.0552274
105	0xbb39fc22	-0.0028379043
106	0xbe019e1f	-0.12657975
107	0xbd965cf3	-0.073419474
108	0x3d3d043e	0.046146624
109	0x3dcc3412	0.09970869
110	0x3d3a6c5a	0.04551349
111	0xbd89d6c6	-0.06730418
112	0x3e0fef90	0.1405623
113	0x3d79c6ad	0.060980488
114	0x3be7a0af	0.0070687155
115	0xbdaec9a3	-0.08534553
116	0xbb002a50	-0.001955647
117	0xbd4cda85	-0.050013084
118	0xbd8a4f18	-0.06753367
119	0xbc407398	-0.01174631
120	0xbd9b19c4	-0.07573274
121	0x3dc8c455	0.09803072
122	0xbd7f816e	-0.062379293
123	0xbb3d456f	-0.0028880497
124	0xbdc0638c	-0.09393987
125	0x3d1cb4db	0.038258415
126	0xbc94d8b7	-0.018169744
127	0xbdd2f1fc	-0.10300061
128	0xbd3a1704	-0.045432106
129	0x3db31866	0.08744888
130	0x3e116fb0	0.14202762
131	0xbd35098c	-0.044198558
132	0x3cdd807b	0.027038803
133	0xbdbc3c15	-0.09191147
134	0x3d109420	0.035297513
135	0x3d27ab97	0.040935125
136	0x3c7949d5	0.015215357
137	0xbd819139	-0.06326527
138	0x3d9bc35a	0.0760562
139	0x3e0b3dd4	0.13597804
140	0xbd94bf22	-0.07263018
141	0xbe0288b5	-0.12747462
142	0xbd4a063c	-0.04932235
143	0xbd2a5b47	-0.041590955
144	0x3cc59df6	0.024123173
145	0x3c057f19	0.008147978
146	0xbd196036	-0.03744527
147	0xbda03b01	-0.07823754
148	0xbce59e40	-0.028029561
149	0xbdda1f69	-0.10650522
150	0x3de6d31c	0.11270735
151	0x3e02622f	0.12732767
152	0xbc8e065c	-0.017337017
153	0x3db438bb	0.08799883
154	0x3da8cd3c	0.0824227
155	0x3dc93312	0.09824194
156	0x3c157afa	0.009123558
157	0x3cb493c6	0.02204312
158	0x3de5f430	0.11228216
159	0xbc873b05	-0.016507635
160	0x3da7bcde	0.081903204
161	0x3ca8d4a7	0.020609213
162	0x3dd8e7aa	0.105910614
163	0xbdbfe532	-0.093698874
164	0xbd2ffb7d	-0.042964447
165	0x3dea3bba	0.11437173
166	0x3d5af668	0.053457648
167	0x3cb3d44b	0.021951815
168	0x3df13fdb	0.117797576
169	0x3df28be9	0.11843092
170	0x3dbe2286	0.092839286
171	0xbdc8eb9b	-0.09810563
172	0xbd453d74	-0.04815431
173	0xbd9710cf	-0.07376253
174	0xbde7c3a9	-0.11316616
175	0xbd345b7a	-0.04403255
176	0x3ce2181b	0.027599385
177	0xbd13b2a8	-0.03605905
178	0x3d2c97e4	0.04213704
179	0xbd091a93	-0.03347261
180	0x3db81ac1	0.08989478
181	0xbce18859	-0.027530836
182	0x3d813b96	0.06310193
183	0x3ce3b1f9	0.027794825
184	0x3d4a1258	0.0493339
185	0xbcacbf59	-0.021087335
186	0x3d7cb8b2	0.061699577
187	0xbd7f9f52	-0.0624078
188	0x3d8bfe19	0.06835575
189	0xbd99927d	-0.074986435
190	0xbc66c75c	-0.014085617
191	0xbdbcd3d4	-0.092200905
192	0x3cf4c2fb	0.02987813
193	0x3e000b8f	0.12504409
194	0x3dc42f8d	0.09579382
195	0x3d203e38	0.039121836
196	0x3d8312d5	0.06400076
197	0x3dda492b	0.10658487
198	0xbd43fe49	-0.047849927
199	0x3d9f3587	0.077738814
200	0x3de66dac	0.11251387
201	0x3e009c1a	0.12559548
202	0xbd15f848	-0.036613733
203	0x3df2a7bf	0.11848401
204	0x3da52c22	0.08065058
205	0x3dc2f636	0.09519617
206	0x3d7f2c1a	0.062297918
207	0xbd3016fc	-0.04299067
208	0xbd33927f	-0.04384088
209	0x3e05986e	0.13046429
210	0x3d93046b	0.07178577
211	0xbcf7eebb	-0.030265203
212	0xbbe7f538	-0.007078793
213	0xbd870b2a	-0.06593926
214	0xbdd7e345	-0.10541395
215	0xbd8d243d	-0.068916775
216	0xbcd9bf98	-0.026580617
217	0x3dca5cf4	0.09881011
218	0x3dc577ca	0.096419886
219	0x3d8acc39	0.06777234
220	0x3d41c99e	0.047311418
221	0x3d027c11	0.0318566
222	0xbb5c18a2	-0.0033584018
223	0xbccb3fd6	-0.024810713
224	0xbd0c7ba0	-0.034297585
225	0xbdb3e9dc	-0.087848395
226	0x3e023666	0.12716064
227	0xbbcbb49f	-0.0062166
228	0xbcdf5d30	-0.027266115
229	0x3cb23e0a	0.021758098
230	0x3d1e6264	0.03866805
231	0x3dd934cd	0.10605774
232	0x3dde59ef	0.10856997
233	0x3d712229	0.05887047
234	0x3d6fa741	0.058509115
235	0x3de808e4	0.11329821
236	0xbbf84f1c	-0.00757779
237	0xbd6d271e	-0.057898633
238	0x3d6a729f	0.057238217
239	0x3d246445	0.040134687
240	0x3ad17b02	0.0015982094
241	0x3d5b83bf	0.05359244
242	0xbd11dc0d	-0.035610247
243	0xbcad5130	-0.021156877
244	0x3dcaef6f	0.099089496
245	0xbd2dbd50	-0.04241687
246	0xbdb5b317	-0.08872049
247	0x3dba8523	0.09107425
248	0x3db29811	0.087204106
249	0x3dae2de4	0.08504847
250	0x3e15c6cb	0.14626615
251	0x3d6841bf	0.056703325
252	0xbda5fef4	-0.08105269
253	0x3ce81bf9	0.02833365
254	0x3d6b873b	0.057502013
255	0xbcc422f9	-0.023942458

transforms.0.coupling_network.input.bias f4 [16]
0	0xbacfd5a7	-0.001585652
1	0xbc0b147a	-0.008488769
2	0xbd58f103	-0.05296422
3	0xbbac023b	-0.0052492893
4	0xbceff988	-0.02929379
5	0xbda17d4d	-0.07885227
6	0x39ff035a	0.00048639887
7	0x3d3b816b	0.04577772
8	0xbbadb649	-0.005301271
9	0x3db20428	0.08692199
10	0x3d947fa9	0.07250912
11	0xbcba8c97	-0.022772117
12	0x3d4400f3	0.047852468
13	0x3d497d7b	0.049191933
14	0x3c76a543	0.01505405
15	0x3e0b3fae	0.1359851

transforms.0.coupling_network.hidden.0.weight f4 [16, 16, 3, 3]
0	0xbda57c94	-0.08080402
1	0x3c9f82fa	0.019471634
2	0x3cb2beab	0.021819433
3	0xbc548426	-0.01297096
4	0x3dd79bac	0.10527739
5	0xbdd0b006	-0.10189824
6	0xbd960ae3	-0.07326295
7	0xbd010d8c	-0.03150706
8	0x3d670c28	0.056408077
9	0xbcd191e8	-0.025582269
10	0x3c8821de	0.016617712
11	0xbca79bef	-0.020460097
12	0x3d7f7fa4	0.062377587
13	0xbda954a8	-0.082681
14	0xbabbc12b	-0.0014324536
15	0x3c921e48	0.017836705
16	0x3d203aab	0.03911845
17	0xbcfddb77	-0.030988438
18	0xbc658892	-0.014009612
19	0x3db7d98b	0.0897704
20	0x3d1ca239	0.038240645
21	0xbbdc6637	-0.006726052
22	0xba42b8c0	-0.00074280426
23	0xbc8e7b85	-0.017392883
24	0xbd6f606e	-0.058441572
25	0x3ce63804	0.028102882
26	0x3cb40361	0.021974267
27	0xbd924047	-0.07141166
28	0xbcc22b17	-0.023702187
29	0xbd268280	-0.0406518
30	0x3b6a6f8a	0.003577205
31	0x3d4c697c	0.049905285
32	0x3d5ba9e4	0.053628817
33	0x3d8d5259	0.06900472
34	0xbd427f9b	-0.047484975
35	0x3d81e005	0.063415565
36	0x3daff48f	0.08591568
37	0xbc1a9007	-0.009433753
38	0xbcb4b983	-0.022061115
39	0xbd84736d	-0.06467328
40	0x3d896d01	0.06710244
41	0xbd797bbb	-0.060909014
42	0x3bcce3f8	0.006252762
43	0x3d5ab5b4	0.05339594
44	0x3db57abd	0.08861301
45	0xbb4e5575	-0.0031484042
46	0x3b0750d6	0.0020647547
47	0x3b949eee	0.0045355475
48	0x3d5e917d	0.054337967
49	0xbba6df5c	-0.0050925445
50	0xbd4afd63	-0.049558055
51	0x3d388fba	0.045058943
52	0xbd08b17b	-0.033372384
53	0xbcb73e62	-0.022368614
54	0x3ceb6978	0.028736815
55	0x3d17550a	0.036946334
56	0xbd030ae1	-0.031992797
57	0xbc46d230	-0.012135074
58	0x3d9b8e70	0.07595527
59	0xbdb872cf	-0.09006273
60	0x3c5adff2	0.013359057
61	0x3cf2dd6e	0.029646602
62	0xbdc1c7b8	-0.094619215
63	0xbd26479d	-0.04059564
64	0xbbcbcaff	-0.0062192674
65	0xbd9c41c3	-0.076297306
66	0xbdf393e4	-0.11893442
67	0xbd3e8437	-0.04651281
68	0x3dcea79e	0.10090564
69	0xbd5d71e1	-0.05406368
70	0x3bf87901	0.007582784
71	0xbdba1631	-0.09086264
72	0xbd0bfd83	-0.034177314
73	0xbc84599e	-0.016156014
74	0xbd80e64d	-0.062939264
75	0xbcf6460c	-0.030062698
76	0xbd3c32f1	-0.04594702
77	0x3c9cac96	0.019125264
78	0x3c10e6fa	0.008844132
79	0x3c0048dc	0.007829871
80	0xbd26bfd3	-0.04071028
81	0xbc31a84e	-0.01084335
82	0xbde05167	-0.10953026
83	0xbc9f1700	-0.019420147
84	0xbc1314f3	-0.008977163
85	0x3ddbddc8	0.10735661
86	0xbd053c7d	-0.03252839
87	0xbd40e0b8	-0.04708931
88	0x3d2cfe54	0.042234734
89	0xbd37bb46	-0.044856332
90	0x3d3f54e1	0.046711806
91	0xbc828106	-0.015930664
92	0x3d59695f	0.053079005
93	0x3dca16c6	0.09867625
94	0x3da017eb	0.07817062
95	0x3cf7f24e	0.030266907
96	0x3d60915f	0.054826137
97	0x3dbd3ae7	0.0923975
98	0x3c9e52ed	0.019326651
99	0xbdac3ab5	-0.08409635
100	0xbceabd07	-0.028654588
101	0xbde80929	-0.11329872
102	0xbd9ba6c5	-0.07600168
103	0x3d9e7a29	0.07738144
104	0xbdecf26f	-0.11569678
105	0x3ce118e6	0.027477693
106	0xbe0096c0	-0.12557507
107	0x3e0a87b0	0.13528323
108	0xbcfca61c	-0.030840926
109	0x3d9b79c4	0.07591584
110	0x3d26c801	0.040718082
111	0xbd00969f	-0.031393643
112	0x3d3d5e59	0.046232555
113	0x3da48597	0.08033293
114	0x3d645ee0	0.055754542
115	0x3c2ef51f	0.010678559
116	0x3d24c727	0.04022899
117	0x3d938b01	0.07204247
118	0x3dabbbb7	0.08385413
119	0xbd3417ef	-0.043968137
120	0x3d8222db	0.063543044
121	0x3d132577	0.0359244
122	0x3c6e68a3	0.0145513145
123	0x3ce46891	0.027881892
124	0x3cd668bc	0.026172988
125	0xbd0948c6	-0.033516668
126	0x3d8eab65	0.06966285
127	0xbd80e212	-0.062931195
128	0x3d9c3fcc	0.07629356
129	0x3d292c4d	0.041302014
130	0xbd920ca0	-0.07131314
131	0x3d2577f6	0.040397607
132	0x3c1c603a	0.009544427
133	0x3c815362	0.01578683
134	0x3d1338a1	0.035942677
135	0xbcc8a4ad	-0.024492586
136	0x3beaef36	0.0071696294
137	0xbb830431	-0.0039983024
138	0xbc3f7030	-0.011684462
139	0xbd9bbd0f	-0.076044194
140	0x3d2023fd	0.03909682
141	0x3cf985ef	0.030459372
142	0x3cc98f48	0.024604455
143	0x3c62db13	0.013846177
144	0x3d95fc97	0.07323568
145	0x3e1657cf	0.14681934
146	0xbd470f21	-0.048598412
147	0xbdd6d41b	-0.10489675
148	0x3d3cb8e5	0.046074767
149	0x3c3982cd	0.011322689
150	0xbdbf13d4	-0.09329954
151	0xbb97ed18	-0.004636418
152	0xbd77a045	-0.06045558
153	0xbcac18ec	-0.021007977
154	0x3dd5babe	0.10436009
155	0x3e035141	0.12823965
156	0xbdf97e9a	-0.121823505
157	0xbd879c39	-0.06621594
158	0x3ce30914	0.02771429
159	0xbcda97b5	-0.026683668
160	0xbdfc715a	-0.123263076
161	0x3da11ebf	0.078671925
162	0xbd33d114	-0.043900564
163	0xbd813862	-0.06309582
164	0xbcac816b	-0.021057805
165	0xbda96f2a	-0.08273156
166	0xbd89ff9c	-0.06738207
167	0x3d75d34d	0.060015965
168	0xbdcafd84	-0.099116355
169	0x3d997dd7	0.07494705
170	0x3c520b82	0.0128201265
171	0xbc536184	-0.0129016675
172	0x3bbc790c	0.0057517346
173	0x3c9202f4	0.017823674
174	0xbdb1fc24	-0.0869067
175	0x3d9c93cc	0.076453775
176	0x3d98c784	0.074599296
177	0xbe1af63a	-0.1513299
178	0xbcadce5c	-0.021216564
179	0x3c525cfb	0.012839551
180	0x3c3fc90c	0.011705648
181	0xbcd13b30	-0.025540918
182	0x3b83df4b	0.0040244213
183	0x3bfa542c	0.0076394286
184	0xbdc9a89e	-0.09846614
185	0x3dc1e44e	0.09467374
186	0x3dc6fc3b	0.09716078
187	0xbc69ce02	-0.0142703075
188	0x3d35253f	0.044224974
189	0x3d7c1e75	0.061552484
190	0x3c4a44d4	0.0123455115
191	0xbda85bde	-0.08220647
192	0x3cf30769	0.02966662
193	0xbe45d9e2	-0.19321397
194	0x3d166f5f	0.036727306
195	0xbdfd37e8	-0.12364179
196	0xbe27dfa4	-0.16393906
197	0x3a551b30	0.00081293564
198	0xbdffe8b2	-0.12495555
199	0xba812e1c	-0.0009855661
200	0xbc035275	-0.008015265
201	0x3cd9305a	0.026512314
202	0x3caff652	0.02147976
203	0xbd4ec814	-0.050483778
204	0xbe40fd1d	-0.18846555
205	0xbdb8d3da	-0.090247825
206	0x3ce66e52	0.028128777
207	0xbbc66903	-0.006054999
208	0xbd41e4d0	-0.047337353
209	0x3d2d4d6f	0.042310175
210	0x3d969ee2	0.07354523
211	0x3d91f9a3	0.071276926
212	0xbd203bc5	-0.0391195
213	0x3e212d98	0.15740049
214	0x3c84937a	0.016183604
215	0x3d732786	0.059363864
216	0xbceb306e	-0.028709617
217	0x3d912aae	0.07088219
218	0x3ae6d383	0.0017610643
219	0xbe09b7a9	-0.13448967
220	0x3da2fd79	0.07958502
221	0x3c02fb76	0.007994523
222	0x3c00b991	0.0078567425
223	0x3cef05ad	0.029177511
224	0x3c1032b7	0.008801154
225	0x3d92fd14	0.07177177
226	0xbd92998c	-0.07158193
227	0x3d45aa3a	0.048258044
228	0xbc962bd9	-0.018331455
229	0x3bfa17ba	0.007632223
230	0x3d7e8b70	0.062144697
231	0x3d9f2ab9	0.077718206
232	0x3d16d0f4	0.036820367
233	0x3c72f11e	0.014827995
234	0x3d3d941a	0.04628382
235	0x3d890edf	0.066922896
236	0xbce265ca	-0.027636427
237	0xbda5ee06	-0.0810204
238	0x3d93db7b	0.07219597
239	0x3b198051	0.002342243
240	0xbd89b0b6	-0.06723158
241	0x3bb1867a	0.005417642
242	0xbdd8fd77	-0.105952196
243	0x3e25ff07	0.16210566
244	0xbcd6cbb4	-0.02622018
245	0xbcc35c1e	-0.023847636
246	0x3e13e473	0.14442615
247	0xbe570e97	-0.2100166
248	0x3daced9a	0.084437564
249	0x3e1d4f60	0.1536231
250	0xbe327793	-0.17428426
251	0xbda09d17	-0.078424625
252	0x3b1c140b	0.0023815657
253	0x3c15023c	0.009094771
254	0x3cc95d3b	0.024580589
255	0xbd69eee0	-0.057112575

transforms.0.coupling_network.hidden.0.bias f4 [16]
0	0x3cfd7aa3	0.030942267
1	0x3cff5966	0.031170558
2	0x3d25b2ba	0.04045365
3	0xbce97805	-0.028499613
4	0xbc8dd98f	-0.017315654
5	0xbc73be12	-0.014876859
6	0xbc84ffe1	-0.016235294
7	0x3d1dd6c4	0.038534895
8	0x3dedf8e3	0.11619737
9	0xbd332b22	-0.043742307
10	0x3d069338	0.032855242
11	0x3d022c09	0.031780276
12	0xbbf6e2d7	-0.0075343656
13	0x3d27908f	0.040909346
14	0x3d15c534	0.03656502
15	0x3db1e63d	0.086864926

transforms.0.coupling_network.output.weight f4 [16, 16, 3, 3]
0	0xbcafcaaf	-0.021458952
1	0xbd70283e	-0.058632128
2	0xbd899739	-0.067182966
3	0x3dbaf09e	0.09127925
4	0xbd3cdaf6	-0.046107255
5	0x3da94351	0.08264793
6	0xbc36c8c3	-0.011156264
7	0x3d47d586	0.048787616
8	0xbd608b20	-0.05482018
9	0xbc5e7352	-0.013577299
10	0x3e1c4684	0.15261275
11	0x3e92db20	0.28682804
12	0xbd5974b8	-0.053089827
13	0x3e458e9c	0.19292682
14	0x3e4a4444	0.19752604
15	0xbdb31312	-0.08743872
16	0x3c422fd9	0.011852228
17	0x3e2016f3	0.15633754
18	0xbd52afeb	-0.0514373
19	0x3d55ca9a	0.05219517
20	0xbc021239	-0.007938915
21	0x3d516915	0.051125605
22	0xbd87ff70	-0.06640518
23	0xbd03294f	-0.032021817
24	0xbdfcce5b	-0.12344047
25	0xbe175f65	-0.14782484
26	0xbd20640f	-0.039157923
27	0x3cab038b	0.020875713
28	0xbd7c8ed5	-0.061659653
29	0x3da1faa4	0.07909134
30	0x3d70888d	0.058723975
31	0xbca36f49	-0.019950526
32	0x3d2bfdf5	0.04199024
33	0xbd5dbec4	-0.054137006
34	0x3d7ae5e2	0.06125439
35	0xbd30250f	-0.04300409
36	0x3d087cba	0.033322074
37	0xbc3ea771	-0.011636601
38	0xbc9d463e	-0.019198533
39	0x3d084149	0.033265386
40	0x3ca6011e	0.020264205
41	0xbd83e3f7	-0.06439965
42	0xbd8f9de7	-0.07012539
43	0xbd5eeb42	-0.054423578
44	0xbd7687af	-0.06018799
45	0xbbdea340	-0.0067943633
46	0x3c9093f8	0.017648682
47	0x3c447552	0.011990862
48	0x3d489f55	0.048980076
49	0xbbe15710	-0.0068768337
50	0xbc1bff3e	-0.009521304
51	0xbd808565	-0.06275443
52	0xbd39f962	-0.045403846
53	0x3c967059	0.018364118
54	0x3cb85461	0.022501172
55	0xbd1cf893	-0.038322996
56	0x3829ac5e	4.045327e-05
57	0x3cc8b1c8	0.024498835
58	0xbcf52b13	-0.029927766
59	0xbd2b01d6	-0.041749798
60	0xbcc1163f	-0.023570178
61	0xbce2d060	-0.027687252
62	0xbc30b029	-0.010784187
63	0xbd99b2df	-0.0750482
64	0xbda52e39	-0.08065457
65	0x3d4cae49	0.0499709
66	0x3dd8a7a5	0.10578851
67	0x3ddda9c5	0.108233966
68	0x3e0361ed	0.12830324
69	0x3c4f5423	0.012654337
70	0x3cacd147	0.021095885
71	0xbd5663fa	-0.05234144
72	0x3e881adb	0.2658299
73	0x3e8a8b92	0.2705961
74	0xbb503bc7	-0.0031773911
75	0xbcf039aa	-0.029324371
76	0xbc8f400c	-0.017486595
77	0xbd8f541b	-0.06998464
78	0x3d445ef6	0.047942124
79	0x3d956e4c	0.07296428
80	0xbd18c3be	-0.03729605
81	0x3db20a2f	0.086933486
82	0x3d34ac29	0.044109497
83	0x3c8b9bbd	0.017042035
84	0x3d88e622	0.06684519
85	0xbd68b8ec	-0.05681698
86	0xbd889bd3	-0.06670346
87	0x3d9def3f	0.07711648
88	0x3b8ea16f	0.0043527405
89	0x398bd66e	0.0002667191
90	0xbb8fd959	-0.0043899235
91	0x3dbab843	0.091171764
92	0x3d1df780	0.038566113
93	0xbc448937	-0.011995605
94	0x3d2d84af	0.042362865
95	0x3da976fb	0.08274647
96	0xbd9a3b4a	-0.0753084
97	0xbc939933	-0.018017387
98	0x3d389111	0.04506022
99	0xbd8b9538	-0.068155706
100	0x3c9bf19e	0.01903611
101	0xbd22f7e7	-0.0397872
102	0xbc8d3cad	-0.017240847
103	0x3d92753f	0.07151269
104	0x3d4b272b	0.0495979
105	0x3da9b4bc	0.082864255
106	0x3d90711e	0.070528254
107	0xbd3db3a6	-0.046313904
108	0x3cb174aa	0.021662075
109	0x3c8e4ec1	0.017371537
110	0x3d889f32	0.06670989
111	0x3c871429	0.016489105
112	0x3cbe1f0d	0.023208166
113	0xbc30aaa2	-0.0107828695
114	0xbbae7916	-0.005324493
115	0x3d778384	0.060428157
116	0xbd5a593b	-0.053307753
117	0x3e706287	0.23475085
118	0x3b8df834	0.0043325666
119	0x3da963d1	0.082709916
120	0x3e608199	0.21924438
121	0xbd358ab0	-0.044321716
122	0x3d0479c9	0.032342706
123	0xbcf23f13	-0.029571092
124	0xbd2f1662	-0.042745955
125	0x3ccbedba	0.02489363
126	0x3c00ca9a	0.007860804
127	0xbd1f6f89	-0.038924728
128	0xbbfbd9d1	-0.007685878
129	0xbd6405e4	-0.05566968
130	0x3d055c75	0.032558877
131	0xbd627380	-0.05528593
132	0x3d077637	0.033071723
133	0x3d1371ba	0.03599713
134	0xbc756a91	-0.014979021
135	0xbd2046e7	-0.039130118
136	0xbc0d763c	-0.008634146
137	0x3d0bc8b9	0.03412697
138	0xbd9a1710	-0.0752393
139	0x3d44e9a5	0.048074383
140	0x3d8a704d	0.06759701
141	0xbd94a8c3	-0.07258751
142	0x3cc10b7f	0.023565052
143	0xbd3a6512	-0.045506544
144	0x3d980c70	0.07424247
145	0xbcc28942	-0.02374709
146	0xbd6089b5	-0.054818828
147	0xbd79ed7d	-0.061017502
148	0x3d35991e	0.044335477
149	0xbd7b2997	-0.06131896
150	0x3d4dd3a5	0.050250668
151	0x3bbe7963	0.0058128103
152	0x3dc45e03	0.09588244
153	0x3d3ec6d8	0.04657635
154	0xbb87e165	-0.004146742
155	0x3e826045	0.25464073
156	0x3c8907cf	0.016727356
157	0x3d79f934	0.061028674
158	0x3e84ddeb	0.2595056
159	0xbdd6024f	-0.10449659
160	0xbd5b6fcd	-0.05357342
161	0x3e17ce57	0.14824806
162	0xbdcb0574	-0.099131495
163	0x3ce1f1c0	0.027581096
164	0x3d2d9143	0.04237486
165	0xbba700d8	-0.005096536
166	0x3d30af67	0.043136027
167	0x3c833e8e	0.01602104
168	0xbcdf8b4d	-0.027288103
169	0xbc83b1f6	-0.01607607
170	0x3d255c7f	0.040371414
171	0x3d795008	0.06086734
172	0xbdafac9a	-0.08577843
173	0x3bb80aa4	0.005616503
174	0xbdacdc79	-0.08440489
175	0x3c5af8bc	0.013364967
176	0x3cf6378a	0.03005578
177	0x3d289004	0.04115297
178	0x3d0f00aa	0.034912743
179	0x3d364bd8	0.044505924
180	0xbd68fb50	-0.056880295
181	0xbc8cf196	-0.01720504
182	0x3d3c5c1e	0.045986287
183	0xbd342981	-0.043984894
184	0xbd4996bb	-0.049216013
185	0xbd947487	-0.07248788
186	0x3c91380e	0.017726924
187	0xbda38869	-0.079850025
188	0xbc28e273	-0.010307896
189	0x3d3eedb3	0.046613406
190	0xbd4ff8c1	-0.05077434
191	0x3ce5fc21	0.028074326
192	0x3d2d6772	0.04233498
193	0x3d26c90b	0.040719073
194	0x3d2d6ddf	0.04234111
195	0xbd817be8	-0.06322461
196	0xb95ebd96	-0.00021242196
197	0xbd66593d	-0.056237448
198	0x3d29d45a	0.04146228
199	0x3c775a78	0.015097253
200	0xbd777f17	-0.060423937
201	0x3d34cae0	0.04413879
202	0x3c85a3ab	0.016313395
203	0x3d32bc61	0.043636683
204	0x3cc930a7	0.024559332
205	0xbd3545ce	-0.044256024
206	0xbd9cb2cb	-0.076512896
207	0xbc2f11f1	-0.01068543
208	0xbe0c8168	-0.1372124
209	0x3d697efe	0.057005875
210	0x3c5c27f8	0.013437264
211	0xbcd4ea74	-0.025990702
212	0x3d44833b	0.047976714
213	0xbd6fbdfe	-0.0585308
214	0xbd4a9694	-0.04946001
215	0xbd327dd5	-0.043577034
216	0x3e8007c8	0.25005937
217	0x3e8f398b	0.2797359
218	0x3decc765	0.11561469
219	0x3c9a6f71	0.018851968
220	0xbdcb4c43	-0.09926655
221	0x3d89149e	0.066933855
222	0xbbeae9b4	-0.007168973
223	0x3d4cab6c	0.04996817
224	0x3d00c13a	0.031434275
225	0xbc08b5b7	-0.008344105
226	0xbd30355f	-0.04301965
227	0x3d30a2da	0.043124057
228	0x3d859095	0.065217175
229	0xbd4dce78	-0.050245732
230	0x3cf861aa	0.030320007
231	0xbc192b02	-0.009348633
232	0xbc92f0fa	-0.017937172
233	0xbbdc9905	-0.0067321085
234	0x3d4addf5	0.04952808
235	0xbbedb0d4	-0.0072537456
236	0x3d9db0c1	0.07699729
237	0x3d9a98df	0.07548689
238	0x3be8b7a1	0.0071019684
239	0xbcb64965	-0.022251794
240	0x3d613824	0.05498518
241	0x3d4863e6	0.048923396
242	0xbc394859	-0.011308753
243	0xbcafbb5f	-0.02145165
244	0xbce0ac7b	-0.027425995
245	0x3d6b4e1b	0.057447534
246	0xbcfe64cd	-0.031053925
247	0x3d4a4479	0.049381707
248	0xbd17fd99	-0.037107084
249	0x3dc5d672	0.09660043
250	0x3d7934e7	0.060841467
251	0xbd331275	-0.043718774
252	0xbd31419b	-0.043275457
253	0xbd9885bc	-0.07447383
254	0x3b4556f3	0.003011164
255	0x3a771d10	0.0009426633

transforms.0.coupling_network.output.bias f4 [16]
0	0xbc7b31b1	-0.015331672
1	0xbba57b7b	-0.0050501204
2	0x3b816564	0.0039488543
3	0x3de89652	0.11356796
4	0x3c1d103d	0.009586391
5	0x3d30724a	0.043077745
6	0x3dc13b8f	0.09435188
7	0x3cc77338	0.024346933
8	0xbcd48f45	-0.025947222
9	0x3b00f629	0.0019677973
10	0x3d39d7e2	0.045371898
11	0x3d92c5a3	0.071666025
12	0xbc2c3fcd	-0.010513258
13	0x3d69ed27	0.05711093
14	0xbc4cf12f	-0.0125086745
15	0xbc426b83	-0.011866453

transforms.1.weight f4 [16, 16]
0	0xbe51b29d	-0.20478292
1	0x3eb11d88	0.34592843
2	0x3e1e186b	0.15439002
3	0x3e9b0fe3	0.30285558
4	0xbe8d210d	-0.27564278
5	0x3df427c3	0.119216464
6	0xbdc06694	-0.09394565
7	0x3ee2449b	0.44192967
8	0x3cf02f8e	0.02931955
9	0xbd593095	-0.053024847
10	0x3ddf5821	0.10905481
11	0xbc60c566	-0.013718938
12	0x3d7f1708	0.062277824
13	0xbe2004ab	-0.1562678
14	0x3dd27d3d	0.102777936
15	0x3f09a42f	0.5376615
16	0xbe42ac48	-0.19011033
17	0x3d455e06	0.04818537
18	0xbefc8020	-0.49316502
19	0xbeb07e87	-0.34471533
20	0xbe2fdcbc	-0.17174047
21	0xbdac636a	-0.08417399
22	0x3d64f67a	0.05589912
23	0x3e71137d	0.2354259
24	0x3dcbbec6	0.099484965
25	0xbacaa390	-0.0015460122
26	0xbebf77ce	-0.3739609
27	0xbec6a0bc	-0.38794506
28	0x3cb5969d	0.022166545
29	0x3d52b3e0	0.051441073
30	0x3ebdef88	0.3709681
31	0x3df3efa4	0.11910942
32	0xbeb9650b	-0.36209902
33	0x3eda76d8	0.42668796
34	0xbe53b734	-0.20675355
35	0x3e2bf37b	0.16792099
36	0xbc779e60	-0.015113443
37	0x3e58d482	0.21174815
38	0x3d8f2469	0.069893666
39	0xbee5e6ac	-0.4490255
40	0xbeb2473b	-0.3481997
41	0x3e3e08b5	0.18558009
42	0x3ebbfced	0.36716405
43	0x3dbae06e	0.09124838
44	0x3d8478c2	0.06468345
45	0x3df41394	0.11917797
46	0x3e726350	0.23670697
47	0x3bf062fa	0.0073360177
48	0x3e42c273	0.19019489
49	0x3c7b40c6	0.015335267
50	0x3ed0027d	0.40626898
51	0xbecade59	-0.39622763
52	0xbe67822f	-0.22608255
53	0x3d5d644d	0.054050732
54	0x3cb643d7	0.022249145
55	0xbec2341c	-0.3793038
56	0xbe9b2c3e	-0.30307192
57	0xbdc7d869	-0.09758074
58	0xbe144c18	-0.14482152
59	0xbeee5d0a	-0.46555358
60	0xbda03672	-0.078228846
61	0xbe1c360a	-0.1525499
62	0xbd993109	-0.07480056
63	0x3e9f25f3	0.3108364
64	0x3ec4dfcc	0.38451993
65	0x3de2fd98	0.110835254
66	0xbd2f3264	-0.042772666
67	0xbc1ffcb8	-0.009764843
68	0xbdd328c4	-0.1031051
69	0x3bd26d15	0.006421695
70	0xbe0e1d50	-0.1387837
71	0xbd4b1ad5	-0.049586136
72	0x3ed1f62f	0.41008136
73	0xbea4334c	-0.32070386
74	0x3eeb48ed	0.45954075
75	0x3ced9d08	0.029005542
76	0xbecc8d73	-0.39951667
77	0xbac17e5f	-0.0014762393
78	0x3ee65ab5	0.4499108
79	0xbcb85e2e	-0.022505846
80	0x3e63f4ac	0.22261304
81	0xbe803fb4	-0.25048602
82	0xbc58bd9f	-0.013228803
83	0xbda69e8c	-0.08135709
84	0xbe226056	-0.15857062
85	0xbd99d8c5	-0.07512049
86	0x3d70242b	0.058628242
87	0x3ddbffd1	0.107421525
88	0x3b1f2ae6	0.0024287044
89	0x3f4afbe5	0.7929061
90	0x3eb83f4c	0.35985792
91	0x3d774a9c	0.060373887
92	0x3c4a4dc9	0.012347647
93	0xbeb0c53e	-0.34525484
94	0x3e28091c	0.16409725
95	0x3df96572	0.12177552
96	0xbd49387d	-0.049126137
97	0x3dcdee3a	0.10055204
98	0xbc91ac25	-0.01778228
99	0xbd880ee5	-0.06643466
100	0xbeb7541d	-0.3580636
101	0xbe337f6d	-0.17529078
102	0xbe434084	-0.1906758
103	0xbe374cb7	-0.17900358
104	0x3eb5521e	0.35414213
105	0xbe107af4	-0.14109403
106	0x3e64d42f	0.22346567
107	0xbe6784b2	-0.22609213
108	0x3f1f8248	0.6230817
109	0xbe1fa55a	-0.1559042
110	0xbe7d3b4a	-0.24729648
111	0xbe76fc5b	-0.24119703
112	0xbe30207a	-0.17199889
113	0xbde40c51	-0.11135162
114	0x3ee32287	0.4436228
115	0xbc9287ac	-0.017886959
116	0x3dcbe193	0.09955134
117	0xbe541785	-0.20712097
118	0x3f19af98	0.6003356
119	0x3d0ee0a2	0.034882195
120	0x3e6cbc97	0.23118816
121	0x3d9d7963	0.07689168
122	0x3e9851ac	0.2974981
123	0xbda195cf	-0.07889902
124	0x3ddac778	0.10682577
125	0x3ef88d72	0.48545414
126	0x3e776fa6	0.24163684
127	0x3df7caf7	0.12099259
128	0x3e07b37e	0.13252065
129	0x3df15def	0.117854945
130	0x3e7e8600	0.24855804
131	0xbe831cf4	-0.25608027
132	0xbeea20ce	-0.45728153
133	0x3f061105	0.5236972
134	0xbb89b6de	-0.0042027077
135	0x3e8905ce	0.2676224
136	0xbc8bfb01	-0.017087461
137	0x3e1ad9a8	0.15122092
138	0xbdfb6dc8	-0.122767985
139	0x3e87f5a1	0.26554587
140	0x3e016917	0.12637745
141	0x3ea2bd11	0.3178487
142	0x3e57779f	0.21041726
143	0xbec6009f	-0.3867235
144	0x3d9134a2	0.07090117
145	0x3e38e396	0.18055567
146	0x3e5da92c	0.21646565
147	0xbb0434be	-0.0020173038
148	0x3d8a5155	0.06753794
149	0xbf0af4d8	-0.5427985
150	0xbf006760	-0.5015774
151	0x3e45abd9	0.19303836
152	0xbec6d195	-0.38831773
153	0x3e1651a1	0.14679576
154	0x3d8b7272	0.06808938
155	0xbdf54986	-0.11976914
156	0xbd53be87	-0.051695373
157	0x3eb31789	0.34978893
158	0x3deb731d	0.114965655
159	0xbe475eec	-0.19469804
160	0x3ec95c17	0.3932807
161	0xbd684a28	-0.056711346
162	0xbdd076c9	-0.101789065
163	0x3e1254f4	0.1429022
164	0xbe5c0a3b	-0.21488278
165	0xbead1ab4	-0.33809435
166	0x3e63412b	0.22192828
167	0xbe3b3d81	-0.1828518
168	0xbe8c66d7	-0.2742221
169	0xbe734f9c	-0.23760837
170	0xbe602a52	-0.21891144
171	0x3eb80659	0.35942343
172	0x3ebe8534	0.37211
173	0xbcee0640	-0.029055715
174	0x3e5ab268	0.21357119
175	0x3e086a45	0.13321789
176	0xbe4125b7	-0.18862043
177	0x3ddff101	0.1093464
178	0x3e1aaa51	0.15104033
179	0x3eb48cc4	0.35263646
180	0xbeafe59e	-0.34354872
181	0xbe718e8b	-0.23589532
182	0x3cda39b7	0.026638849
183	0xbebbc802	-0.3667603
184	0x3ea2d51d	0.31803218
185	0x3e71a765	0.23599012
186	0xbeecbfb6	-0.46240014
187	0x3d4c177e	0.04982709
188	0xbe99e2d8	-0.3005588
189	0xbdf28710	-0.118421674
190	0x3df7f20d	0.121067144
191	0xbe4de1b3	-0.20105629
192	0xbec247e4	-0.37945473
193	0xbd7c305e	-0.061569564
194	0x3e9ee134	0.3103119
195	0xbe7c147a	-0.24617186
196	0x3e666ece	0.22503206
197	0xbdc5fce9	-0.096673794
198	0xbcf88c26	-0.030340265
199	0x3d42fc51	0.04760391
200	0xbe03508f	-0.128237
201	0xbe76208d	-0.24035855
202	0x3d061d32	0.032742687
203	0x3e1aa9c6	0.15103826
204	0x3de99cf2	0.11406888
205	0xbf0dceec	-0.5539386
206	0x3ec4a052	0.38403565
207	0xbe8ea71a	-0.27861863
208	0xbd9c5700	-0.076337814
209	0x3e4bfd75	0.19920905
210	0xbe4eec85	-0.20207413
211	0xbe768d5c	-0.24077362
212	0xbea40c10	-0.32040453
213	0xbe94549d	-0.28970805
214	0x3ec75069	0.38928536
215	0x3e024599	0.12721862
216	0xbe5b3a50	-0.21408963
217	0xbe36f12f	-0.17865442
218	0x3e59160c	0.21199816
219	0x3d9e20d4	0.07721105
220	0xbeaa048b	-0.3320659
221	0xbd9d3df2	-0.07677831
222	0xbee1e6ab	-0.44121298
223	0xbe6d9f2d	-0.23205252
224	0xbe956114	-0.29175627
225	0xbf0e86f7	-0.5567469
226	0x3d75416b	0.05987684
227	0xbdf867d8	-0.121291816
228	0xbe95032f	-0.2910399
229	0x3db464e7	0.08808308
230	0xbebb31a8	-0.36561322
231	0xbe6642a4	-0.22486359
232	0xbde4009d	-0.111329295
233	0xbe8fb598	-0.28068233
234	0x3da7d70c	0.08195314
235	0x3e61fad0	0.22068334
236	0xbe1cc3a1	-0.15309002
237	0x3e575ed9	0.21032275
238	0xbe16b89c	-0.1471886
239	0x3e4adb77	0.19810282
240	0x3dc61be4	0.096732885
241	0xbedb1a36	-0.42793435
242	0xbe0ff41a	-0.14057961
243	0x3edd53ab	0.43227896
244	0xbe0972a7	-0.13422643
245	0x3e3c7f52	0.18407944
246	0x3da93df0	0.08263767
247	0x3cf3dc21	0.029768052
248	0xbe93affd	-0.28845206
249	0xbe4228e5	-0.18960913
250	0x3dc7d3f3	0.09757223
251	0xbf0a29fc	-0.53970313
252	0x3d0d29ae	0.034463577
253	0xbd947a9a	-0.07249947
254	0x3e3ada27	0.18247281
255	0xbeac7b4a	-0.33687812

transforms.2.coupling_network.input.weight f4 [16, 8, 3, 3]
0	0x3dbed90c	0.09318742
1	0x3c93261e	0.017962512
2	0xbdd41191	-0.10354913
3	0xbc4875e7	-0.012235141
4	0xbd9f0a51	-0.077656396
5	0x3d481017	0.04884347
6	0xbba32a73	-0.0049794256
7	0x3d8a6350	0.067572236
8	0x3db85035	0.08999673
9	0xbe044762	-0.12917855
10	0x3d3ff9f4	0.046869233
11	0x3cc813fb	0.02442359
12	0x3d120378	0.03564784
13	0xbd65baff	-0.056086536
14	0xbd362f0f	-0.044478472
15	0xbc353f95	-0.011062522
16	0x3d050e11	0.032484118
17	0x3d52a844	0.05143
18	0xbd512470	-0.05106014
19	0xbd148d1c	-0.036267385
20	0xbda9d495	-0.082925
21	0x3dbaaccc	0.0911499
22	0x3dd16d7c	0.102259606
23	0xbd0bb055	-0.03410371
24	0x3d9b028f	0.075688474
25	0x3cff2467	0.031145288
26	0x3daa63fc	0.08319852
27	0x3db1bf8b	0.08679112
28	0xbd74d9ab	-0.059777897
29	0x3d77e82a	0.060524143
30	0xbda9779d	-0.082747675
31	0xbd0615a3	-0.032735478
32	0x3da028a9	0.07820255
33	0xbdae20ed	-0.08502374
34	0xbd61b435	-0.0551035
35	0xbcbb715d	-0.022881204
36	0xbd01dced	-0.031704832
37	0x3c34baec	0.011030894
38	0x3cdaadbd	0.026694173
39	0xbd937ff1	-0.07202137
40	0x3d5c56d6	0.05379375
41	0x3ca35664	0.019938655
42	0x3dd9cd79	0.10634894
43	0xba4f94ac	-0.0007918577
44	0xbdd39a84	-0.10332206
45	0xbc966bc8	-0.018361941
46	0x3d5553fe	0.052082054
47	0x3bd1be3f	0.006400853
48	0xbe286cee	-0.16447803
49	0xbcdd0105	-0.026978025
50	0x3cb009dd	0.021489078
51	0x3cd9d049	0.026588576
52	0xbd6d0b75	-0.057872254
53	0xbc98b8e5	-0.018642852
54	0x3da80cee	0.08205591
55	0xbdf5308d	-0.11972151
56	0xbdcc11ee	-0.09964357
57	0xbddaf482	-0.106911674
58	0xbd90b4e6	-0.07065754
59	0x3cbf52ba	0.023354877
60	0xbd488491	-0.04895455
61	0x3d09d8c0	0.033653975
62	0x3bfb2236	0.0076639904
63	0x3dfbe105	0.122987784
64	0x3cbfa5e9	0.023394542
65	0xbd2d775b	-0.042350154
66	0xbaced8f9	-0.0015781216
67	0x3de44640	0.111462116
68	0x3de511e3	0.11185052
69	0xbd1d5183	-0.038407814
70	0xbd2dce83	-0.042433273
71	0xbcab7bc9	-0.020933049
72	0xbd96e1c6	-0.073672816
73	0xbda33da2	-0.0797074
74	0xbd90c5c9	-0.070689745
75	0x3dedb32e	0.116064414
76	0x3db4a658	0.0882079
77	0x3d5b3c11	0.05352408
78	0x3d329a91	0.043604437
79	0x3db48935	0.08815233
80	0x3d11eb8c	0.035625026
81	0x3d526837	0.05136892
82	0xbdcb0887	-0.09913736
83	0xbdce108e	-0.10061751
84	0xbd594077	-0.053039994
85	0x3d5b6ee4	0.05357255
86	0xbcd21fd4	-0.025649942
87	0xbd49a9ac	-0.049234077
88	0x3d9211f7	0.07132333
89	0x3d1e9156	0.038712822
90	0xbd9f1316	-0.07767312
91	0x3db50da4	0.08840492
92	0xbc646012	-0.013938921
93	0xbc439451	-0.011937217
94	0x3d7fd48f	0.06245857
95	0x3d9b5334	0.07584229
96	0x3c098048	0.008392401
97	0xbd7ea6f1	-0.062170926
98	0xbd6fe199	-0.058564756
99	0xbddcfa72	-0.10789956
100	0xbda5406c	-0.08068928
101	0xbd799901	-0.06093693
102	0x3d45a93c	0.048257098
103	0xbd45e0bd	-0.04831003
104	0xbd8be97a	-0.068316415
105	0x3d80c3d5	0.06287352
106	0xbca62185	-0.020279655
107	0xbd105299	-0.03523502
108	0x39d12ba6	0.00039896107
109	0xbdea1a6e	-0.11430822
110	0xbc206e84	-0.009791974
111	0x3da9604d	0.08270321
112	0xbc807571	-0.015681
113	0xbd8553fb	-0.06510159
114	0x3d94d255	0.0726668
115	0xbcaad2e5	-0.020852515
116	0xbc614664	-0.013749693
117	0x3db8f3f1	0.09030903
118	0x3c362a59	0.011118495
119	0xbcb9ec18	-0.022695586
120	0x3d97159b	0.07377168
121	0x3dc7884b	0.09742793
122	0x3d70ff72	0.05883736
123	0x3c38ae05	0.011271958
124	0x3d9b48f9	0.07582278
125	0xbd6b02d7	-0.057375755
126	0x3c8c3c24	0.017118521
127	0x3d6af6d4	0.0573643
128	0x3c21ba1b	0.009871031
129	0xbde73cf2	-0.11290921
130	0x3d5894ea	0.05287639
131	0x3c410fa2	0.011783512
132	0x3dcabed4	0.09899679
133	0xbd48e557	-0.04904684
134	0xbd8b466c	-0.06800541
135	0x3d95241a	0.072822765
136	0x3d101645	0.035177488
137	0x3d309d01	0.04311848
138	0x3d144cb1	0.03620595
139	0xbcf0d6d3	-0.029399311
140	0x3df352f2	0.11881055
141	0xbd455fa4	-0.048186913
142	0x3daf8cc4	0.08571771
143	0xbdd50087	-0.10400491
144	0x3d8147d8	0.06312531
145	0xbdad0f9c	-0.08450243
146	0xbd917ea4	-0.07104233
147	0xbce215f2	-0.027598355
148	0x3cea2635	0.028582672
149	0x3c13264f	0.008981301
150	0x3cd619ac	0.026135288
151	0x3cf98161	0.0304572
152	0x3dacf80c	0.08445749
153	0xbd508a8f	-0.05091339
154	0xbd3de5ca	-0.046361722
155	0x3d799d61	0.060941104
156	0xbd51a46a	-0.051182188
157	0xbdc5600f	-0.09637462
158	0x3d4af898	0.049553484
159	0xbc5101a6	-0.012756741
160	0xbd9b5f03	-0.075864814
161	0xbda69fe1	-0.08135963
162	0xbd7bd96a	-0.06148664
163	0x3ce108ff	0.02747011
164	0xbc19ee8c	-0.009395253
165	0x3dcda79b	0.10041734
166	0x3c47c6dc	0.012193408
167	0xbd1e39a1	-0.038629178
168	0xbccfc165	-0.025360772
169	0x3c4c923e	0.012486039
170	0xbcbc31d3	-0.022972977
171	0x3db74f97	0.089507274
172	0xbcb6e4ea	-0.022325952
173	0x3d972a59	0.07381124
174	0x3dc2bff6	0.0950927
175	0xbc90f442	-0.017694596
176	0x3d90d230	0.0707134
177	0xbc081664	-0.00830612
178	0xbd223de1	-0.039609794
179	0x3dab6bed	0.083701946
180	0xbcbc80ee	-0.023010697
181	0xbd6d4895	-0.057930548
182	0xbd44a948	-0.048013
183	0xbdca11c9	-0.098666735
184	0x3d86a14c	0.06573734
185	0x3d1b583e	0.03792595
186	0xbd3c4def	-0.04597276
187	0xbcd95aa2	-0.026532475
188	0xbd514825	-0.051094193
189	0x3cbdba3c	0.023160093
190	0xbddf824e	-0.109135255
191	0x3cf5a86f	0.029987542
192	0x3d42938f	0.047504004
193	0x3e17bc1c	0.14817852
194	0xbda1b6a8	-0.07896167
195	0x3d01b665	0.031668086
196	0xbdeb7923	-0.11497714
197	0xbd788cb2	-0.060681053
198	0x3e19ecbc	0.15031713
199	0x3d390a81	0.045176033
200	0xbdba9fe1	-0.09112526
201	0xbd5baa28	-0.05362907
202	0xbd33af02	-0.043868072
203	0xbb953dde	-0.0045544943
204	0x3d70ec99	0.058819387
205	0xbdf4948a	-0.11942394
206	0x3d72f659	0.059316967
207	0x3d9c06ec	0.07618508
208	0x3c027b96	0.0079640355
209	0x3d8af41a	0.0678484
210	0xbd944696	-0.07240026
211	0x3de2f723	0.11082294
212	0x3da328cc	0.07966766
213	0xbc2fe712	-0.010736244
214	0x3da5257e	0.08063792
215	0x3ca45d36	0.020063978
216	0xbd2ea604	-0.042638794
217	0x3d6f94b5	0.058491427
218	0xbafb2961	-0.0019162112
219	0x3d73ea9d	0.059549917
220	0x3d7611ae	0.060075454
221	0x3d21cae7	0.039500143
222	0x3d68242b	0.056675117
223	0xbd62939e	-0.05531656
224	0xbd303226	-0.043016575
225	0x3d88a467	0.06671982
226	0x3dd97091	0.106171735
227	0xbdd09e4c	-0.10186443
228	0x3da8dc41	0.08245135
229	0x3dea7863	0.11448743
230	0x3c5765de	0.013146846
231	0xbe0ad98c	-0.1355955
232	0xba40ee30	-0.00073597115
233	0x3da589c0	0.08082914
234	0x3dd70775	0.10499469
235	0xbd235a86	-0.03988125
236	0x3d617fa1	0.055053357
237	0xbd8dedf5	-0.06930152
238	0xbda6cf75	-0.08145038
239	0xbe244df3	-0.1604536
240	0x3d345f42	0.044036157
241	0x3d9facd7	0.077966385
242	0x3dca107f	0.09866428
243	0xbb13d275	-0.0022555862
244	0xbd4e5d81	-0.05038214
245	0x3e00e335	0.12586673
246	0xbdf39627	-0.11893874
247	0x3d8efbed	0.06981645
248	0x3e022e4e	0.12712976
249	0x3c591c8e	0.013251437
250	0x3dc0c209	0.09412009
251	0x3df0fafb	0.11766621
252	0x3e1bcf57	0.15215813
253	0xbd0100af	-0.031494793
254	0x3bff3a55	0.007788936
255	0x3db14a2a	0.08656724

transforms.2.coupling_network.input.bias f4 [16]
0	0x3bc64638	0.006050851
1	0x3de4b746	0.11167769
2	0x3d3eacbb	0.046551447
3	0xbd77397a	-0.06035755
4	0x3c8b1036	0.016975503
5	0x3cdf3112	0.027245078
6	0x3d288474	0.041141942
7	0xbae9b5d1	-0.0017830675
8	0xbd054f8a	-0.032546557
9	0x3d5b8f26	0.053603314
10	0xbd7b4032	-0.06134052
11	0x3ddcbbb1	0.10777987
12	0xbc86d770	-0.01646015
13	0x3d48343a	0.048877932
14	0x3da8376f	0.08213698
15	0x3e18db9a	0.14927521

transforms.2.coupling_network.hidden.0.weight f4 [16, 16, 3, 3]
0	0x3d36e067	0.0446476
1	0x3d9acaf6	0.07558243
2	0x3d4896c7	0.048971917
3	0xbd4b3b80	-0.04961729
4	0x3cda2bec	0.026632272
5	0x3d5b429b	0.053530317
6	0xbcc9788e	-0.024593618
7	0x3d9072e1	0.070531614
8	0xbd91f0fd	-0.07126043
9	0x3d32bb16	0.04363545
10	0x3c1e918c	0.009678256
11	0xbd7949f1	-0.06086153
12	0xbcb08ffd	-0.021553034
13	0x3d46a128	0.048493534
14	0x3ce73887	0.028225197
15	0x3d30d5ee	0.04317277
16	0x3d9a9d5f	0.075495474
17	0xbd6feee6	-0.05857744
18	0xbd500c22	-0.05079282
19	0xbb4baf78	-0.003107993
20	0x3ced41ae	0.028961983
21	0x3d55778e	0.05211597
22	0x3ca03837	0.019558055
23	0xbddb4760	-0.10706973
24	0xbd907020	-0.07052636
25	0xbe088f80	-0.13335991
26	0xbe1362ff	-0.14393233
27	0x3ca8c7e1	0.020603122
28	0xbba8aedc	-0.005147798
29	0xbd1f249d	-0.038853277
30	0xbd3a04ab	-0.045414608
31	0xbd4c4e9a	-0.049879648
32	0xbd1b39cd	-0.03789692
33	0xbd45b7dd	-0.04827105
34	0x3dfc788e	0.123276815
35	0xbc371076	-0.011173358
36	0x3cbfd63c	0.023417585
37	0x3ae294d9	0.0017286792
38	0x3ca1d8ea	0.019756753
39	0xbd938a4c	-0.072041124
40	0xba98a6db	-0.0011646406
41	0x3d8539f0	0.06505191
42	0x3d386fe9	0.0450286
43	0x3db59cdd	0.0886781
44	0x3d935d99	0.07195587
45	0x3dd5b113	0.10434165
46	0xbd28989c	-0.041161165
47	0xbd03c5eb	-0.03217117
48	0x3bbc0137	0.0057374495
49	0xbd49d992	-0.049279757
50	0xbda3c900	-0.07997322
51	0x3da199e7	0.07890683
52	0x3d7abeca	0.061217107
53	0x3b9a9d8c	0.004718488
54	0x3d772a9c	0.06034337
55	0xbcf6043e	-0.03003132
56	0xbc97c0a8	-0.018524483
57	0xbc924343	-0.017854339
58	0x3c804b2a	0.015660841
59	0xbcb1a5dd	-0.021685535
60	0xbc45753b	-0.012051876
61	0x3c8b1b69	0.016980844
62	0xbd400f84	-0.046889797
63	0xbc1496a4	-0.009069119
64	0xbb20fe7e	-0.0024565752
65	0xbda2a4ec	-0.079416126
66	0xbb0f8d38	-0.0021904241
67	0xbdd1d231	-0.10245169
68	0xbd5c0133	-0.05371208
69	0x3d998b65	0.074972905
70	0x3dc378df	0.09544539
71	0x3d90ea33	0.0707592
72	0xbda81d15	-0.08208672
73	0xbdb56c3a	-0.08858533
74	0xbcd47249	-0.025933402
75	0xbd0653f0	-0.032794893
76	0x3af1d913	0.0018451534
77	0x3dc5d8cf	0.096604936
78	0xbcf8d149	-0.030373232
79	0xbb106038	-0.0022030007
80	0x3cdd59a7	0.027020289
81	0x3bf770d6	0.007551293
82	0x3c96889a	0.018375684
83	0xbd5d12a7	-0.053972866
84	0x3b8099d0	0.003924586
85	0x3d178980	0.036996365
86	0xbd984d54	-0.07436624
87	0x3c184fc2	0.0092963595
88	0xbd74db9c	-0.05977975
89	0xbbceaeb3	-0.006307447
90	0xbd4383fc	-0.047733292
91	0xbd040ac8	-0.032236844
92	0x3d823d4e	0.06359349
93	0xbd32ed3d	-0.04368328
94	0x3cfc1e86	0.030776273
95	0xbc1b64d9	-0.009484493
96	0xbd3d3369	-0.046191607
97	0x3c9ded7a	0.019278277
98	0x3d9b655f	0.075876944
99	0x3b60d3cb	0.0034305926
100	0xbd201575	-0.039082963
101	0xbd8f8553	-0.070078515
102	0x3dfce48d	0.1234828
103	0x3c8ab7f6	0.016933423
104	0xbb7a6347	-0.0038206147
105	0xbb71bdfa	-0.0036886916
106	0x3db65be8	0.089042485
107	0xbb947d20	-0.0045315176
108	0x3d9b8078	0.07592863
109	0x3d33f0e7	0.043930914
110	0x3db276d0	0.08714068
111	0x3d93632c	0.0719665
112	0x3c2d9840	0.010595381
113	0x3d4533a4	0.04814495
114	0xbda1dc3e	-0.07903336
115	0x3b8d7d67	0.0043179276
116	0xbc2a16a6	-0.010381376
117	0x3da82f4e	0.08212148
118	0xbd44b447	-0.04802349
119	0x3cde2513	0.027117288
120	0xbd96c114	-0.073610455
121	0xbcf9fb45	-0.030515322
122	0x3cb6a5ab	0.022295794
123	0xbcca6805	-0.024707804
124	0x3bb04d2a	0.0053802924
125	0xbc48aa93	-0.012247699
126	0x3c5d27f7	0.013498298
127	0xbd2eac03	-0.042644512
128	0x3decc8e3	0.115617536
129	0xbd95375c	-0.072859496
130	0xbdcb23fa	-0.09918971
131	0xbd837d81	-0.06420422
132	0x3d1aebea	0.03782264
133	0xbcea734a	-0.028619427
134	0xbc47581b	-0.012167002
135	0xbbca7af8	-0.00617921
136	0xbd0fec38	-0.035137385
137	0xbd990374	-0.07471362
138	0x3dcd9bc3	0.10039475
139	0x3dc7634f	0.097357385
140	0x3db3bed6	0.087766334
141	0xbd1a9497	-0.037739363
142	0x3dba8b67	0.0910862
143	0xbd97fe35	-0.07421533
144	0xbd6c5802	-0.05770112
145	0xbc2be4e3	-0.010491583
146	0xbd160f26	-0.03663554
147	0xbcd0bcd2	-0.025480662
148	0xbcf4a4a8	-0.02986367
149	0xbd6d2350	-0.057895005
150	0x3bea14ba	0.007143584
151	0x3d55a5ed	0.052160192
152	0x3db62061	0.088928945
153	0xbc0adde8	-0.008475758
154	0x3d345b53	0.044032406
155	0xbd7bb8de	-0.0614556
156	0xbd1f7855	-0.038933117
157	0x3d486325	0.048922677
158	0x3d824a6a	0.063618496
159	0x3bd497d6	0.006487827
160	0x3c3f7a99	0.011686944
161	0x3da97345	0.08273939
162	0x3cd5e30f	0.026109247
163	0xbbba395b	-0.005683107
164	0xbd9c1339	-0.07620854
165	0xbdb0105a	-0.08596869
166	0x3d812e35	0.063076414
167	0xbb86c529	-0.004112859
168	0x3d770f2c	0.060317203
169	0x3d53f3f1	0.051746313
170	0xbdad7aad	-0.08470664
171	0xbd28928c	-0.041155383
172	0x3a0406fc	0.0005036441
173	0xbcb43fa7	-0.022003008
174	0x3cba808d	0.022766376
175	0x3c7ac7a2	0.015306385
176	0x3c9bcc46	0.019018304
177	0x3d01a684	0.031652942
178	0x3c6b3eed	0.014358264
179	0x3c160aa6	0.009157812
180	0x3d423a5a	0.04741893
181	0x3d440030	0.04785174
182	0xbd12636c	-0.035739347
183	0x3da4e0a0	0.08050656
184	0x3c3ca982	0.011515023
185	0x3d7db66f	0.06194156
186	0x3bff44bb	0.0077901757
187	0x3d3c5c24	0.04598631
188	0x3d1dc025	0.03851332
189	0xbd1f5b33	-0.038905334
190	0xbd4e9015	-0.050430376
191	0x3d21ccfd	0.039502133
192	0xbc2ebf42	-0.010665717
193	0x3cc20d36	0.02368794
194	0xbdade364	-0.08490637
195	0x3d93d5e5	0.072185315
196	0x3db329e6	0.08748226
197	0xbc9817b3	-0.018565988
198	0x3c4ed034	0.012622882
199	0xbc09dabb	-0.008413966
200	0xbd587b30	-0.052851856
201	0x3c8bac49	0.017049925
202	0x3d644269	0.055727396
203	0xbcb050dd	-0.021522934
204	0x3beaf5f0	0.0071704313
205	0xbd6b4642	-0.05744005
206	0xbc5554be	-0.013020692
207	0x3d5985ab	0.05310599
208	0x3c58bf7f	0.01322925
209	0x3d3a565f	0.045492526
210	0xbdbafdaa	-0.09130414
211	0xbba4f6af	-0.00503429
212	0x3c942d3f	0.018087981
213	0x3d92cf9b	0.07168504
214	0x3db59eb2	0.08868159
215	0xbd4398be	-0.04775309
216	0x3d7eba1d	0.06218921
217	0x3c0517eb	0.008123378
218	0xbd0d6f68	-0.034530073
219	0x3c6b73fd	0.0143709155
220	0x3d94cc96	0.07265584
221	0xbddbe41d	-0.107368685
222	0x3d331ab5	0.04372664
223	0x3d9dd976	0.07707493
224	0xbd35ea84	-0.044413105
225	0x3db3c6c2	0.087781444
226	0xbd2b77ee	-0.04186242
227	0x3d159625	0.036520142
228	0xbc9e317e	-0.01931071
229	0x3d98d3fa	0.07462306
230	0x3dac1680	0.08402729
231	0x3d1dda7f	0.038538452
232	0xbd8e8b4b	-0.06960162
233	0xbd163b8d	-0.036677886
234	0x3d939f66	0.07208137
235	0xbd532bb9	-0.05155537
236	0xbcf1db07	-0.029523386
237	0xbd82e167	-0.06390648
238	0x3da0fe00	0.07860947
239	0x3d0a4ce2	0.033764727
240	0x3cbe35bb	0.02321898
241	0x3cea4c8d	0.028600955
242	0xbccaf553	-0.024775183
243	0xbd86b16e	-0.06576811
244	0x3dd63fc1	0.10461379
245	0xbdd8fa18	-0.105945766
246	0xbd4cffd9	-0.050048683
247	0xbc9280c3	-0.017883664
248	0xbbf1c266	-0.0073779104
249	0xbd166d67	-0.036725428
250	0xbd70422c	-0.058656856
251	0xbc328cfd	-0.010897872
252	0xbc55041d	-0.013001469
253	0x3db5a68a	0.088696554
254	0x3d08b989	0.033380065
255	0xbd83927d	-0.06424425

transforms.2.coupling_network.hidden.0.bias f4 [16]
0	0x3c624402	0.01381016
1	0xbd3d807a	-0.046265103
2	0x3d88636f	0.066595905
3	0xbb6c6f94	-0.0036077248
4	0xbc44937d	-0.011998055
5	0x3da4302e	0.08017002
6	0xbc6b5447	-0.014363355
7	0xbbf2300f	-0.007390983
8	0x3d4e4f45	0.050368566
9	0x3d6154cb	0.055012506
10	0xbd0b806c	-0.03405802
11	0xbcf3aa24	-0.029744215
12	0xbcc253f8	-0.02372168
13	0xbd7a5b39	-0.061122153
14	0xbc97c6af	-0.018527357
15	0xbd4ddf71	-0.05026192

transforms.2.coupling_network.output.weight f4 [16, 16, 3, 3]
0	0xbc82cdc6	-0.015967261
1	0xbc3407ad	-0.010988158
2	0xbd7af86f	-0.06127208
3	0xbc895da3	-0.016768282
4	0xbd438411	-0.04773337
5	0x3da21de1	0.07915855
6	0xbc76e902	-0.015070202
7	0x3c3d2b1c	0.011545923
8	0xbd8d32bb	-0.06894442
9	0xbc6496fb	-0.013952012
10	0xbd57edd6	-0.052717052
11	0x3cc246e1	0.023715438
12	0xbdb12d5f	-0.08651232
13	0x3d7ff60b	0.062490504
14	0xbc0403ab	-0.008057515
15	0xbc4389a2	-0.01193467
16	0xbcecbdaf	-0.028899042
17	0x3c08321e	0.00831273
18	0x3cbe31b3	0.023217058
19	0xbbd6c0e0	-0.006553754
20	0xbd69e345	-0.057101507
21	0xbc8c13ce	-0.017099287
22	0xbd82c823	-0.06385829
23	0x3d935610	0.071941495
24	0xbd3bf927	-0.045891907
25	0x3d9f86b7	0.07789367
26	0xbc017930	-0.0079024285
27	0x3d5c7a40	0.053827524
28	0xbcc08927	-0.0235029
29	0xbcd1d97e	-0.025616404
30	0x3d72c080	0.059265614
31	0xbc428e2d	-0.011874718
32	0xbdaa02e1	-0.0830133
33	0x3cb7141a	0.022348452
34	0xbcfca6d8	-0.030841276
35	0xbcccea45	-0.025014052
36	0xbbe44480	-0.0069661736
37	0xbd200487	-0.039066818
38	0x3d4e5366	0.050372504
39	0xbdbafed4	-0.09130636
40	0x3c8012b3	0.015633916
41	0x3c16a481	0.009194494
42	0x3d60cde1	0.05488384
43	0xbc84828e	-0.016175535
44	0xbdb851df	-0.08999991
45	0x3da0d47e	0.0785303
46	0x3dc3f001	0.095672615
47	0x3d154034	0.036438182
48	0xbd0ab240	-0.0338614
49	0xbd9a5812	-0.07536329
50	0xbbf60be8	-0.0075087436
51	0xbd3fefef	-0.046859678
52	0xbd3b9523	-0.045796525
53	0x3da0be0c	0.078487486
54	0xbd6cfd7e	-0.057858936
55	0x3da4f528	0.08054572
56	0x3d028130	0.031861484
57	0x3cbf54ab	0.023355803
58	0x3c1138cb	0.008863638
59	0x3cdebd1a	0.02718978
60	0xbd8b80af	-0.06811654
61	0x3d889b3f	0.06670236
62	0x3da161b8	0.078799665
63	0x3d9f05a7	0.0776475
64	0x3d7e7b8a	0.062129535
65	0x3c31940a	0.010838518
66	0x3c95394f	0.018215803
67	0xbd84a3a0	-0.064765215
68	0x3d13ab81	0.03605223
69	0x3d6c3efa	0.057677247
70	0xbd142f6c	-0.036178038
71	0xbd121f3c	-0.03567432
72	0xbcbda93a	-0.023151983
73	0x3d563a6c	0.05230181
74	0xbd9508fc	-0.07277104
75	0xbd7cef70	-0.061751783
76	0x3d4aa515	0.04947384
77	0xbc416a9b	-0.011805202
78	0x3dbfb21a	0.09360142
79	0x3c34f753	0.011045295
80	0x3d980d40	0.07424402
81	0xbd546959	-0.05185828
82	0x3d9b398b	0.07579335
83	0x3da11eb2	0.07867183
84	0x3d335f3c	0.043791994
85	0x3cfbaa96	0.03072099
86	0x3c701d8a	0.01465548
87	0xbd41d8e9	-0.047326002
88	0x3d6a7a34	0.05724545
89	0xbb8e880d	-0.0043497146
90	0xbdb6b870	-0.089218974
91	0x3dc07a03	0.09398272
92	0xbdd56f97	-0.10421675
93	0xbb1920e2	-0.0023365547
94	0x3d3e6e1b	0.046491724
95	0xbdc568e2	-0.096391454
96	0xbd8e35ed	-0.06943879
97	0xbe01d202	-0.12677768
98	0x3dd7181b	0.10502645
99	0xbb58de5b	-0.0033091519
100	0xbd76da90	-0.06026703
101	0x3d97461d	0.0738642
102	0xbd30ddfc	-0.04318045
103	0xbd1e87cf	-0.038703736
104	0xbc0b77b0	-0.008512422
105	0x3c7940f9	0.015213245
106	0xbca3692d	-0.019947613
107	0x3d105d1c	0.035245046
108	0x3d6093ec	0.05482857
109	0x3d3c8726	0.046027325
110	0xbc8e79cc	-0.017392062
111	0x3c96d1e7	0.018410636
112	0x3c958eb0	0.018256515
113	0xbd4f8fff	-0.050674435
114	0xbd19dd5a	-0.037564613
115	0x3cf13d93	0.029448306
116	0xbc9b8864	-0.018985935
117	0xbd974585	-0.07386307
118	0x3d8945a2	0.067027345
119	0xbcca9c7a	-0.024732817
120	0xbd1a1545	-0.03761794
121	0xbce6ff90	-0.028198034
122	0x3c8eb331	0.01741943
123	0xbd0f2b96	-0.034953676
124	0xbd4ea977	-0.050454583
125	0x3ae8f66f	0.0017773638
126	0xbd912f24	-0.070890695
127	0xbd35486b	-0.044258516
128	0xbd1ac9eb	-0.03779022
129	0x3d7e845a	0.06213794
130	0x3ddb08c1	0.10695029
131	0xbdbd20bd	-0.0923476
132	0xbd15d154	-0.036576584
133	0x3b83bbe4	0.004020201
134	0xbd55b6f0	-0.052176416
135	0xbd9a8af9	-0.07546038
136	0x3d71d3d1	0.059039894
137	0xbd8b8e2b	-0.06814226
138	0x3c3aaebc	0.011394199
139	0x3d38a9a9	0.045083676
140	0xbd182859	-0.037147854
141	0xbd8b380e	-0.06797801
142	0xbcc70630	-0.024294943
143	0x3da44f44	0.08022931
144	0x3c4edf34	0.012626458
145	0xbcde1973	-0.027111745
146	0x3ca78be8	0.020452455
147	0x3d4aef34	0.049544528
148	0xbd76013c	-0.06005977
149	0x3c771fee	0.015083296
150	0xbdde9e1e	-0.10870002
151	0xbd0eaac8	-0.03483084
152	0xbda9e90b	-0.082964025
153	0xbd97c34d	-0.074102975
154	0x3d3794f9	0.044819806
155	0x3c608ec7	0.013705916
156	0xbd4678d5	-0.04845508
157	0xbda95ca7	-0.08269625
158	0x3dcab17d	0.098971345
159	0xbd75e553	-0.060033154
160	0x3b519b50	0.0031983443
161	0xbcf06acf	-0.029347805
162	0xbd3b1568	-0.04567471
163	0xbd851458	-0.06498021
164	0xbd4ba1ea	-0.04971496
165	0xbcc95010	-0.02457431
166	0x3db38f47	0.08767562
167	0x3dd4f164	0.10397604
168	0x3d6a4d29	0.057202492
169	0x37fd4a13	3.0194444e-05
170	0xbd3261e7	-0.0435504
171	0xbdb9c20a	-0.09070213
172	0x3d1b434b	0.037905972
173	0xbc4873dc	-0.012234654
174	0x3ce2ae88	0.027671114
175	0xbd85cc83	-0.06533148
176	0xbd9c97ce	-0.07646142
177	0xbcbe0eaa	-0.023200352
178	0x3d432c21	0.047649506
179	0x3c6f0bbc	0.0145902
180	0xbd696f36	-0.056990825
181	0x39838462	0.000250849
182	0x3d3d52e1	0.046221618
183	0x3d55855b	0.05212913
184	0xbcc0a7d8	-0.023517534
185	0xbcc453f0	-0.023965806
186	0xbd2efd44	-0.042722
187	0xbdb6f025	-0.08932523
188	0x3d9a4dbe	0.075343594
189	0x3cee1a64	0.029065318
190	0xbd2bdc5b	-0.041958194
191	0x3d4179e1	0.047235373
192	0x3cf47034	0.029838659
193	0xbd80a17f	-0.06280803
194	0x3dec10fe	0.115266785
195	0xbcccdf81	-0.025008919
196	0x3d93f140	0.07223749
197	0xbd7b0020	-0.061279416
198	0x3d6e26f4	0.058142617
199	0xbd404895	-0.04694422
200	0xbd29dffc	-0.041473374
201	0xbd22e6c6	-0.039770864
202	0x3d494f10	0.049147666
203	0xbc31837e	-0.010834573
204	0x3d89d415	0.067299046
205	0xbdda5e21	-0.10662485
206	0xbd03f631	-0.03221721
207	0x3ba0ec2e	0.0049109673
208	0x3d96c538	0.07361835
209	0x3d11b7a8	0.03557554
210	0x3d9bc3ee	0.0760573
211	0xbc439b32	-0.011938857
212	0x3d10b630	0.035329998
213	0x3d3b376a	0.045707144
214	0xbd895e73	-0.06707468
215	0xbd8156ea	-0.06315406
216	0xbd049ad2	-0.03237421
217	0x3d13f51a	0.03612242
218	0x3d95831b	0.07300397
219	0xbdb58f3b	-0.0886521
220	0xbdbef2a8	-0.09323627
221	0xbcb00797	-0.021487994
222	0x3d76c1ec	0.060243532
223	0x3da398a4	0.07988098
224	0x3dbac6a1	0.09119917
225	0x3d8856cf	0.066571824
226	0xbd369f85	-0.044585723
227	0x3d7eea1e	0.06223499
228	0xbcaadfcb	-0.020858666
229	0x3df55598	0.11979216
230	0x3d5b52de	0.053545825
231	0xbd423727	-0.04741588
232	0xbd7d2c74	-0.061809972
233	0x3c18b18e	0.009319676
234	0xbd04a7f3	-0.03238673
235	0xbc37b01a	-0.0112114195
236	0xbcd618cb	-0.02613487
237	0x3acd6f54	0.0015673437
238	0x3ccec3f3	0.02523992
239	0xbd0522d4	-0.032503918
240	0xbddd8faa	-0.10818417
241	0xbd9b3517	-0.075784855
242	0xbd8e2a30	-0.069416404
243	0x3c09282c	0.008371394
244	0x3c0c496d	0.008562428
245	0x3d507f47	0.05090263
246	0xbd17e2bd	-0.03708147
247	0xbc3be6e7	-0.011468626
248	0xbdca63ad	-0.09882293
249	0x3d78492e	0.060616665
250	0x3ccb9920	0.02485329
251	0x3c59e25a	0.013298595
252	0xbd13879f	-0.03601801
253	0xbcbfbc0e	-0.023405101
254	0x3cec705c	0.02886217
255	0x3d6e6c7c	0.058208928
