saved_models/model.pth (torch, 79782 bytes, 21 tensors)

transforms.0.coupling_network.input.weight f4 [16, 8, 3, 3]
0.00048542125 -0.032009937 -0.013697673 -0.013027474 0.0049740914 -0.041804463 0.04318846 -0.23913126
-0.0022615972 -0.013967119 0.001588769 -0.011096227 -0.020741927 0.06005261 0.010760637 -0.08742136
-0.05115235 0.08173511 0.022479873 0.0024447562 0.0031514866 -0.013092575 0.10231415 0.0010960564
-0.15901047 0.0151294805 0.039357904 -0.007125296 -0.010473043 0.0060900734 -0.01648952 0.034025535
0.020236455 -0.3098439 0.004287268 -0.046454195 0.021156544 0.085274756 -0.015013894 0.014236962
-0.29866704 0.011876987 -0.044698343 0.26422724 0.007649599 -0.008604651 -0.023496 0.033378687
-0.032300465 -0.20183732 -0.012848291 0.018505622 0.16760124 -0.02800208 -0.06836408 0.04889818
0.0019933116 -0.07420787 0.012904673 -0.030729948 -0.026170846 0.024004834 -0.025587322 -0.0035883172
0.034983862 -0.03888687 -0.20202884 0.12608002 0.02532728 -0.01710623 0.04288568 -0.028001143
0.055906016 0.0032570502 0.04484491 -0.064460345 0.022923267 0.035219513 -0.026568873 0.15260118
0.06109548 -0.042248063 0.03895833 0.030893726 0.04835522 -0.015441626 0.1653345 -0.016601061
0.17352687 -0.09174256 -0.03308541 0.12890409 -0.050917104 0.16722365 -0.021372302 0.14511035
0.10172185 0.15081653 -0.038053673 1.0373989e-05 0.13606898 -0.12288198 0.12117265 0.033066954
-0.08899698 0.12539247 0.1319974 -0.007666658 -0.035541516 0.09687114 0.11008531 -0.08236968
0.07272765 0.12029244 -0.021063864 -0.02007161 -0.039591666 -0.02908766 0.07765578 0.19726855
0.0869303 0.09966096 0.12693344 -0.0077754934 -0.042751923 0.0012556689 0.05283644 0.090831205
0.18709701 0.20652546 0.099198386 0.046892274 -0.0063233236 -0.06700115 0.010980994 0.1078259
0.08688987 -0.017213428 0.09470891 0.13570592 -0.09690956 -0.006478186 -0.0784971 0.00411456
0.005293628 -0.16707832 0.10667319 -0.2642518 -0.12192602 0.030806458 0.087445535 0.06098888
-0.0021222325 -0.0813136 -0.13031612 0.024455696 -0.19797054 -0.1773914 0.028355896 0.06544555
0.032836463 0.06447718 -0.10007118 -0.089321285 -0.0006007534 -0.098884806 -0.09497043 -0.0390959
0.08350794 -0.0093794465 0.07356021 -0.1632371 -0.0005342952 0.0017422547 -0.022129962 0.03578688
-0.046892066 0.08992377 -0.027339196 0.04404904 -0.115472704 -0.0689538 -0.021241348 0.022534642
-0.15344921 0.009717493 -0.032172434 -0.063415535 0.041900385 -0.23649938 -0.18421738 0.05452422
-0.18497866 -0.009668576 -0.11364109 -0.032649823 -0.05405506 0.010131462 -0.100707136 -0.2195947
-0.018535139 -0.19532968 0.054995954 0.010531747 -0.046679374 -0.025258966 -0.019002212 -0.07429531
-0.08268672 -0.011393832 -0.2167157 0.016605536 0.060036365 -0.05391129 -0.009533398 -0.08108075
0.012446823 -0.023092799 -0.012609224 0.00623322 -0.079525866 0.019299114 -0.01705798 0.26393166
-0.044274714 0.0136174 0.036676727 0.029291375 0.04020353 0.068774916 0.09412359 -0.06695745
0.1174048 -0.035425726 0.0006422962 0.0020127965 -0.024408624 0.038504053 -0.0024652379 0.011561322
0.019615108 -0.051699176 0.0103286365 -0.018375263 0.005039981 -0.045183737 -0.14123575 -0.069218114
0.01458186 0.19299127 -0.094919726 0.030611493 -0.053234033 0.061329957 0.01578509 0.0065400302
00000000: 2380 fe39 da1c 03bd 346c 60bc 3071 55bc
00000010: b4fd a23b 283b 2bbd 62e6 303d d3de 74be
00000020: 4e37 14bb 58d6 64bc 3e3e d03a f3cc 35bc
00000030: f9ea a9bc baf9 753d 624d 303c f809 b3bd
00000040: 2085 51bd bd64 a73d b627 b83c 3438 203b
00000050: 2c89 4e3b 3d82 56bc 158a d13d 8da9 8f3a
00000060: a4d3 22be a4e1 773c c135 213d 517b e9bb
00000070: 2097 2bbc 3d8f c73b 0815 87bc 5c5e 0b3d
00000080: ecc6 a53c dca3 9ebe 367c 8c3b c146 3ebd
00000090: 7d50 ad3c 88a4 ae3d d6fc 75bc 2642 693c
000000a0: e3ea 98be b297 423c 9c15 37bd cb48 873e
000000b0: 7da9 fa3b 86fa 0cbc af7a c0bc 17b8 083d
000000c0: 7e4d 04bd 71ae 4ebe a381 52bc 1a99 973c
000000d0: a99f 2b3e 9e64 e5bc 7702 8cbd 7549 483d
000000e0: 38a2 023b 4cfa 97bd 1f6e 533c 5fbd fbbc
000000f0: 3e64 d6bc c9a5 c43c 819c d1bc f929 6bbb
00000100: 3d4b 0f3d d747 1fbd a6e0 4ebe 1f1b 013e
00000110: 287b cf3c 5d22 8cbc e5a8 2f3d a762 e5bc
00000120: b5fd 643d 3c74 553b 4caf 373d c903 84bd
00000130: 93c9 bb3c 5642 103d f7a6 d9bc 7c43 1c3e
00000140: 413f 7a3d 4e0c 2dbd c592 1f3d d714 fd3c
00000150: 2010 463d e0fe 7cbc 724d 293e f3fe 87bc
00000160: 07b1 313e 86e3 bbbd 9184 07bd 6fff 033e
00000170: 748e 50bd ad3c 2b3e f714 afbc cf97 143e
00000180: 8c53 d03d a66f 1a3e 2bde 1bbd f20b 2e37
00000190: ab55 0b3e 8ca9 fbbd 5e29 f83d 3771 073d
000001a0: 0c44 b6bd e266 003e 542a 073e 9738 fbbb
000001b0: fb93 11bd 6064 c63d 6874 e13d 6fb1 a8bd
000001c0: 3cf2 943d e25b f63d 208e acbc 386d a4bc
000001d0: df2a 22bd 3f49 eebc fe09 9f3d c400 4a3e
000001e0: 8308 b23d 0c1b cc3d d7fa 013e 91c9 febb
000001f0: a41c 2fbd 4295 a43a 066b 583d b605 ba3d
00000200: 5c96 3f3e 697b 533e 8628 cb3d 1d12 403d
00000210: e233 cfbb e637 89bd a1e9 333c d3d3 dc3d
00000220: 51f3 b13d 2d03 8dbc bff6 c13d 7ef6 0a3e
00000230: 8578 c6bd f746 d4bb 16c3 a0bd 6ed3 863b
00000240: 2c76 ad3b 9416 2bbe 7977 da3d 034c 87be
00000250: 59b4 f9bd d35d fc3c a516 b33d 7acf 793d
00000260: 2715 0bbb bf87 a6bd 9771 05be 5057 c83c
00000270: cab8 4abe 17a6 35be a04a e83c 5108 863d
00000280: 877f 063d 9d0c 843d 1ef2 ccbd 14ee b6bd
00000290: e17b 1dba 1e84 cabd db7f c2bd 0623 20bd
000002a0: 3606 ab3d 40ac 19bc bca6 963d a027 27be
000002b0: f20f 0cba 5e5c e43a e549 b5bc 4395 123d
000002c0: e511 40bd f429 b83d 73f6 dfbc c46c 343d
000002d0: f47c ecbd a637 8dbd 5602 aebc 929a b83c
000002e0: ca21 1dbe 1f36 1f3c 3ec7 03bd 01e0 81bd
000002f0: bd9f 2b3d e52c 72be 7ba3 3cbe ca54 5f3d
00000300: 0c6b 3dbe f268 1ebc a9bc e8bd d2bb 05bd
00000310: d768 5dbd 6efe 253c 8b3f cebd 6fdd 60be
00000320: 01d7 97bc 8104 48be 7043 613d 598d 2c3c
00000330: df32 3fbd e4eb cebc 87aa 9bbc 2428 98bd
00000340: a857 a9bd 32ad 3abc b8ea 5dbe 5508 883c
00000350: b1e8 753d 16d2 5cbd f831 1cbc aa0d a6bd
00000360: c2ed 4b3c 1c2d bdbc eb96 4ebc 0a40 cc3b
00000370: 75de a2bd 2d19 9e3c 2dbd 8bbc 0d22 873e
00000380: 6759 35bd 841b 5f3c 563a 163d 77f4 ef3c
00000390: 75ac 243d ddd9 8c3d dec3 c03d fd20 89bd
000003a0: ee71 f03d 911a 11bd c55f 283a 1fe9 033b
000003b0: 98f4 c7bc 6db6 1d3d d48f 21bb b36b 3d3c
000003c0: ddaf a03c 84c2 53bd 7139 293c b887 96bc
000003d0: 6d26 a53b 9512 39bd 1ba0 10be 3ac2 8dbd
000003e0: c1e8 6e3c 819f 453e 4665 c2bd f4c4 fa3c
000003f0: ee0b 5abd 1f35 7b3d bc4f 813c c04d d63b

transforms.0.coupling_network.input.bias f4 [16]
0.33603933 -0.25262 0.4205225 -0.1943161 -0.21474308 0.39266348 -0.1707571 -0.120948605
0.24863683 0.28737837 0.009210526 -0.12892054 -0.3008385 -0.22226915 -0.15769503 0.20710096
00000000: 590d ac3e 6957 81be ba4e d73e cdfa 46be
00000010: 9ce5 5bbe 300b c93e f3da 2ebe e7b3 f7bd
00000020: a79a 7e3e 4223 933e bfe7 163c bf03 04be
00000030: 8107 9abe 869a 63be ce7a 21be 4612 543e

transforms.0.coupling_network.hidden.0.weight f4 [16, 16, 3, 3]
0.06945978 0.04576936 -0.082791455 0.06899752 0.12394878 0.014756428 0.0080550425 0.17033084
-0.039728418 0.03331336 0.0064039547 -0.01754528 0.0938714 0.020442665 -0.05526632 -0.0019376834
-0.058803722 0.04516898 -0.053209558 -0.14521678 0.015372233 -0.0067860764 -0.07824317 -0.023974176
0.07584109 -0.046996165 0.071244314 0.024866037 -0.0066666706 0.0101629505 0.0015241283 0.09179353
-0.03106594 0.015620356 0.110378385 0.030505247 -0.028330784 -0.026025962 0.017928645 -0.030090908
0.0011125108 -0.08586679 0.07721144 -0.07862389 0.041058376 -0.03038352 -0.017539378 -0.018599201
0.021469494 0.086965434 0.019050183 0.077787966 -0.025099946 0.035989944 -0.008490101 -0.102584556
-0.09900204 0.011207329 -0.020965127 0.038210727 0.07879468 -0.065819904 0.0063555245 0.0110576935
0.00961743 0.07856649 -0.055673737 0.027628724 0.051633712 0.005710648 -0.07741043 -0.06904056
0.013444643 -0.009132415 0.051534217 0.08811477 0.039995834 0.18005982 -0.019120783 0.05503375
0.008287853 0.013800492 0.052442513 -0.019081116 -0.09032582 -0.13412292 -0.060563616 -0.030891655
0.16927812 0.012035538 -0.041473884 -0.042842552 -0.053177487 -0.011932824 0.047142252 0.018177684
0.004438902 -0.15106021 0.024208896 -0.02618189 0.01712807 0.07995024 -0.069426544 0.043949783
0.12173183 -0.008126628 0.054183774 -0.029692791 0.027949572 -0.08991448 -0.044689365 0.39768633
-0.20241836 -0.00853955 -0.056889925 0.13019435 0.025920998 -0.06434791 -0.087898105 -0.014644771
0.05757644 0.09882635 0.05444581 -0.07166253 -0.019947331 -0.04199584 -0.03084909 -0.051696878
0.014974411 -0.012480281 -0.11281447 0.03182175 -0.039016496 0.01063533 0.095106095 -0.026680099
-0.073832735 0.23131227 0.08362312 -0.020317204 0.14487341 0.021749992 0.028765576 0.009037302
0.12372759 0.11925945 0.031764407 0.024752453 -0.14236696 -0.112935975 -0.026960567 -0.062168866
-0.061873913 0.0170894 0.019705929 0.077218935 -0.050195552 0.013120875 -0.012351192 -0.05132336
-0.10329373 0.059824467 -0.17165887 -0.033082012 0.052375235 0.04848014 0.077057205 0.0958751
-0.041717194 -0.28966573 -0.08917489 0.01754205 0.016433856 -0.047179 0.076728284 0.044778615
-0.0018430775 0.008142454 -0.030494073 0.007390245 0.0027290944 0.061573327 0.031319346 0.092458226
-0.0042557423 -0.053672105 -9.571301e-05 0.06473059 0.07246281 -0.07674453 0.0011870505 0.07446122
0.0894499 0.038199753 0.075137936 0.03977534 -0.043000337 -0.14665027 -0.09713288 0.014790512
-0.19039929 0.059737545 0.15407287 -0.060416464 -0.035368335 0.071891904 0.019667698 -0.02572023
0.04779229 0.0031216696 0.04925562 0.10804919 0.058715753 0.021429077 0.056991544 -0.02086011
-0.003990075 -0.021444807 0.03974405 0.041563716 -0.039944082 0.08614721 -0.04302441 0.13339184
0.013441938 -0.012861638 -0.07022471 0.08470886 0.10915979 -0.0063928734 0.11635715 0.14500205
-0.0014129907 -0.052953873 -0.060184304 0.08236235 -0.07379059 -0.026129296 0.07058543 0.029232917
0.03522478 -0.0066023143 -0.018632807 -0.006468765 -0.031670306 -0.02799008 0.07695764 0.0527486
0.072019726 -0.03303905 -0.027834987 0.06980208 -0.017789463 0.0934922 0.051610187 -0.18857525
00000000: ee40 8e3d a778 3b3d 918e a9bd 924e 8d3d
00000010: dcd8 fd3d f2c4 713c 4cf9 033c 356b 2e3e
00000020: 44ba 22bd 9773 083d 44d8 d13b 1ebb 8fbc
00000030: a63f c03d 6077 a73c f05e 62bd def9 fdba
00000040: 2cdc 70bd 1c03 393d 44f2 59bd b5b3 14be
00000050: d2db 7b3c bc5d debb f53d a0bd 7e65 c4bc
00000060: 9352 9b3d 0d7f 40bd 8ae8 913d dcb3 cb3c
00000070: 1674 dabb 8182 263c 42c5 c73a 3ffe bb3d
00000080: 007e febc 86ec 7f3c 100e e23d 24e6 f93c
00000090: f615 e8bc 6634 d5bc 18df 923c 3581 f6bc
000000a0: abd1 913a edda afbd 0821 9e3d 9005 a1bd
000000b0: d42c 283d dce6 f8bc beae 8fbc 5a5d 98bc
000000c0: cbe0 af3c ef1a b23d 210f 9c3c 4c4f 9f3d
000000d0: 679e cdbc 316a 133d 111a 0bbc da17 d2bd
000000e0: 95c1 cabd f29e 373c 0fbf abbc da82 1c3d
000000f0: 1b5f a13d 96cc 86bd 0142 d03b 542b 353c
00000100: 6d92 1d3c 78e7 a03d 250a 64bd a255 e23c
00000110: df7d 533d 6320 bb3b 5c89 9ebd 2365 8dbd
00000120: eb46 5c3c 20a0 15bc 8b15 533d 8475 b43d
00000130: acd2 233d 9a61 383e 30a3 9cbc 126b 613d
00000140: c6c9 073c 751b 623c f6cd 563d 0050 9cbc
00000150: befc b8bd 8557 09be 8e11 78bd 7f10 fdbc
00000160: 3e57 2d3e b530 453c 85e0 29bd ac7b 2fbd
00000170: a3d0 59bd e481 43bc 3c18 413d 5ee9 943c
00000180: 3574 913b 87af 1abe bc51 c63c 677b d6bc
00000190: 2b50 8c3c f4bc a33d 812f 8ebd b004 343d
000001a0: 8a4e f93d 8c25 05bc ceef 5d3d 4c3e f3bc
000001b0: 80f6 e43c 1525 b8bd 320c 37bd 8b9d cb3e
000001c0: c246 4fbe 78e9 0bbc 6905 69bd ab51 053e
000001d0: 4658 d43c d6c8 83bd ec03 b4bd 9ff0 6fbc
000001e0: 46d5 6b3d 7865 ca3d 9202 5f3d cec3 92bd
000001f0: 9668 a3bc d403 2cbd 3bb7 fcbc 1bc0 53bd
00000200: 3b57 753c 187a 4cbc 460b e7bd 8657 023d
00000210: c3cf 1fbd cf3f 2e3c fcc6 c23d 3990 dabc
00000220: 9e35 97bd 20dd 6c3e 9942 ab3d 4470 a6bc
00000230: b259 143e 0a2d b23c c9a5 eb3c 3111 143c
00000240: e464 fd3d 4c3e f43d 651b 023d a8c5 ca3c
00000250: a5c8 11be fa4a e7bd 68dc dcbc c8a4 7ebd
00000260: 806f 7dbd 12ff 8b3c 546e a13c f624 9e3d
00000270: da99 4dbd f0f8 563c a75c 4abc 7238 52bd
00000280: aa8b d3bd 800a 753d 58c7 2fbe 0181 07bd
00000290: 6a87 563d 1c93 463d 2bd0 9d3d 2a5a c43d
000002a0: a6df 2abd 114f 94be 53a1 b6bd 58b4 8f3c
000002b0: 4ba0 863c c43e 41bd b823 9d3d c869 373d
000002c0: 6b93 f1ba ed67 053c b5ce f9bc de29 f23b
000002d0: 9bda 323b 5034 7c3d b748 003d bd5a bd3d
000002e0: c173 8bbb 48d7 5bbd 88b9 c8b8 7991 843d
000002f0: 6267 943d 3c2c 9dbd ce96 9b3a 207f 983d
00000300: 8231 b73d 5877 1c3d ebe1 993d 78eb 223d
00000310: 1f21 30bd 7d2b 16be 9aed c6bd e753 723c
00000320: 08f8 42be 5baf 743d 47c5 1d3e 4177 77bd
00000330: 63de 10bd 103c 933d 271e a13c 3bb3 d2bc
00000340: d9c1 433d ed94 4c3b 43c0 493d e548 dd3d
00000350: ee7f 703d 088c af3c f76f 693d d2e2 aabc
00000360: 2dbf 82bb 05ad afbc a8ca 223d b73e 2a3d
00000370: 689c 23bd f36d b03d 5d3a 30bd df97 083e
00000380: 933b 5c3c 9fb9 52bc f9d1 8fbd d77b ad3d
00000390: 2b8f df3d 4f7b d1bb a84c ee3d 6b7b 143e
000003a0: 1a34 b9ba 29e6 58bd d183 76bd 97ad a83d
000003b0: 851f 97bd 1b0d d6bc 188f 903d df79 ef3c
000003c0: dc47 103d 3a58 d8bb d4a3 98bc eff7 d3bb
000003d0: b9b8 01bd 744b e5bc f89b 9d3d ea0e 583d
000003e0: 147f 933d f453 07bd 3306 e4bc 65f4 8e3d
000003f0: 35bb 91bc d778 bf3d 3465 533d df19 41be

transforms.0.coupling_network.hidden.0.bias f4 [16]
0.13134368 -0.067819074 0.02378603 0.18360294 0.05279182 0.17390071 -0.074837565 0.013803465
-0.09378411 0.10351799 0.15777975 0.031184452 0.111150235 0.14892748 0.23529087 0.2212962
00000000: f57e 063e bae4 8abd ecda c23c 6902 3c3e
00000010: 3c3c 583d 0713 323e 7044 99bd ee27 623c
00000020: e211 c0bd 3d01 d43d 0491 213e 8976 ff3c
00000030: bca2 e33d 7280 183e 17f0 703e 799b 623e

transforms.0.coupling_network.output.weight f4 [16, 16, 3, 3]
-0.06952751 0.094845 0.037249073 -0.027334923 0.17313512 0.22045161 -0.05418817 -0.014215126
0.06441648 0.018282244 -0.062831126 0.0022403002 0.0069259666 -0.18007232 -0.01775528 -0.011697689
0.103778936 0.09433182 0.045592077 0.06033921 -0.039971627 -0.18486807 -0.06248842 0.033499848
-0.018968504 -0.13902941 -0.056424048 -0.042438388 -0.054167736 0.02286235 0.03291879 0.015195874
0.005771766 0.07746922 -0.008766917 -0.015289873 -0.013627211 0.099144265 0.06858183 -0.018424857
-0.14474809 -0.034160014 -0.059863016 0.030652003 -0.034208003 -0.018171594 0.8788884 -0.031739205
-0.00819956 -0.13562843 -0.09729725 -0.046066113 0.026535237 0.0064900606 0.0019614075 -0.14316243
0.017738778 -0.07618966 0.15629938 -0.02316483 0.044086978 0.007164781 -0.043963343 0.06363132
0.057642546 -0.030483637 -0.07238397 0.17376013 0.01890653 0.085223794 0.011287861 -0.027026536
-0.024562769 -0.027197555 0.049983494 0.051293105 -0.015327028 -0.08477704 0.026405754 0.055032168
-0.023235282 -0.03385832 -0.008339607 -0.014588078 0.034355316 -0.031603444 0.04621352 -0.048701327
-0.0906774 -0.10291974 -0.043501005 0.008931165 0.02317164 0.114335895 0.018079663 0.030876111
-0.015333337 0.0116397515 -0.054038946 0.0094341235 -0.027030792 0.037276007 -0.039232988 0.007790248
-0.055616297 -0.05982981 -0.013751945 0.0065008113 -0.0037443663 0.013919352 -0.010853974 -0.0020410775
-0.02015363 -0.027166398 0.22806242 -0.044185214 -0.02461168 0.008126626 0.041750606 -0.039648507
-0.020683102 0.100772105 0.020359758 7.684108e-05 -0.008685383 -0.01101225 0.08949277 0.05477344
0.012938971 0.15954807 -0.13203214 0.054465137 0.094097205 -0.042829666 0.042108066 -0.3543446
-0.04806024 -0.048361678 -0.1011118 0.013682678 -0.04178656 0.04705509 -0.002060208 0.056895703
0.06693241 -0.009149803 0.07796823 -0.085030034 0.034150068 0.12290643 0.054565072 -0.04215571
-0.020479321 0.05284757 -0.12170723 -0.008573421 0.028664866 0.015091476 -0.0007893564 0.0488126
-0.04181432 0.10586603 0.1058312 -0.063088715 -0.004253358 -0.13222952 -0.04512751 -0.016642082
0.018350797 0.0021115588 -0.07008254 0.035489578 -0.04630308 0.117553644 -0.007179014 -0.027363071
0.014914053 0.0704743 -0.08074456 0.0011039486 -0.0077856784 0.09364783 0.040323336 0.06314771
-0.11036269 -0.075643964 -0.03644056 0.011494107 -0.07737505 -0.011795143 0.06733108 0.0689091
-0.043813057 -0.19895804 -0.06405923 -0.023112934 0.058790542 0.017801404 -0.06826297 0.015114373
-0.11693391 -0.037222892 0.09956972 0.04297927 0.0540313 0.08047714 -0.010790029 0.05141242
-0.031667158 -0.043806437 0.049502086 0.28027898 -0.04398355 0.037693143 -0.012866775 -0.005396307
0.015724612 -0.0488156 0.023126254 -0.03797325 -0.035727665 -0.06030308 -0.041416753 0.014077842
-0.013972265 -0.02513364 0.03873496 0.0658304 -0.035941243 -0.0030588224 0.07218314 0.011048413
-0.012129876 -0.09412072 -0.051919576 -0.011687157 0.045100737 0.0083591975 0.003992512 0.037367627
-0.015816476 -0.034215126 0.030466562 -0.067858145 -0.04383479 0.035394046 -0.102313615 0.078926995
0.029019468 -0.16393279 0.007109059 0.021230511 0.0044726953 0.011437331 -0.0029816912 -0.0035752314
00000000: 7064 8ebd 183e c23d 7c92 183d 7ded dfbc
00000010: 554a 313e 11be 613e 6af4 5dbd 8fe6 68bc
00000020: caec 833d a5c4 953c 9bad 80bd 00d2 123b
00000030: 38f3 e23b e164 38be 8573 91bc aaa7 3fbc
00000040: 0d8a d43d 0b31 c13d c2be 3a3d 3f26 773d
00000050: 4ab9 23bd 0e4e 3dbe dcf3 7fbd 2337 093d
00000060: d663 9bbc ba5d 0ebe e71c 67bd e0d3 2dbd
00000070: fdde 5dbd d349 bb3c dad5 063d 1df8 783c
00000080: 1521 bd3b 2fa8 9e3d 1da3 0fbc 6082 7abc
00000090: aa44 5fbc 260c cb3d a174 8c3d baef 96bc
000000a0: d838 14be 5feb 0bbd ec32 75bd e919 fb3c
000000b0: b11d 0cbd 98dc 94bc d5fe 603f f800 02bd
000000c0: 7357 06bc 2ee2 0abe c843 c7bd d2af 3cbd
000000d0: 6d60 d93c 93aa d43b f58a 003b 2c99 12be
000000e0: ea50 913c 5309 9cbd f20c 203e 2bc4 bdbc
000000f0: 8c94 343d 8ac6 ea3b e812 34bd 2351 823d
00000100: 971a 6c3d d2b8 f9bc 0c3e 94bd 2dee 313e
00000110: dee1 9a3c d089 ae3d b8f0 383c c166 ddbc
00000120: dc37 c9bc 68cd debc 7ebb 4c3d b818 523d
00000130: 371e 7bbc 969f adbd e150 d83c 6969 613d
00000140: eb57 bebc 06af 0abd d9a2 08bc d502 6fbc
00000150: 29b8 0c3d 9d72 01bd 634a 3d3d 0b7b 47bd
00000160: 13b5 b9bd 96c7 d2bd 1c2e 32bd 0554 123c
00000170: 73d2 bd3c f028 ea3d cd1b 943c e6ef fc3c
00000180: ad38 7bbc a8b4 3e3c f157 5dbd 9591 1a3c
00000190: ae6f ddbc baae 183d c5b2 20bd 5645 ff3b
000001a0: eacd 63bd 1a10 75bd d74f 61bc c204 d53b
000001b0: 0b64 75bb fe0d 643c ded4 31bc 99c3 05bb
000001c0: 3a19 a5bc 118c debc 3289 693e 8efb 34bd
000001d0: 6f9e c9bc 8a25 053c af02 2b3d 7966 22bd
000001e0: 9c6f a9bc 9b61 ce3d 82c9 a63c be25 a138
000001f0: 234d 0ebc b96c 34bc fc47 b73d 1d5a 603d
00000200: fafd 533c 9260 233e 6f33 07be d616 5f3d
00000210: 09b6 c03d 296e 2fbd 8279 2c3d a86c b5be
00000220: d0da 44bd e516 46bd b413 cfbd 502d 603c
00000230: 6228 2bbd d7bc 403d 8e04 07bb 780b 693d
00000240: dc13 893d 0ee9 15bc cfad 9f3d 3a24 aebd
00000250: f1e0 0b3d 5eb6 fb3d a07f 5f3d 77ab 2cbd
00000260: 40c4 a7bc b276 583d a441 f9bd 8977 0cbc
00000270: 95d2 ea3c 3d42 773c d0ec 4eba b9ef 473d
00000280: 7e45 2bbd 4ad0 d83d 07be d83d a834 81bd
00000290: c15f 8bbb 2d67 07be a0d7 38bd fa54 88bc
000002a0: 6954 963c 1462 0a3b 6f87 8fbd 855d 113d
000002b0: 4ca8 3dbd f7bf f03d ef3d ebbb 8528 e0bc
000002c0: 125a 743c d454 903d 675d a5bd 5eb2 903a
000002d0: 011f ffbb 6fca bf3d 152a 253d 9653 813d
000002e0: d605 e2bd 39eb 9abd b242 15bd c751 3c3c
000002f0: cf76 9ebd 6a40 41bc e1e4 893d 3720 8d3d
00000300: 5275 33bd a8bb 4bbe 7c31 83bd 5657 bdbc
00000310: 5ace 703d 40d4 913c 75cd 8bbd 46a2 773c
00000320: 0c7b efbd 0877 18bd 36eb cb3d 080b 303d
00000330: ed4f 5d3d 33d1 a43d a9c8 30bc d495 523d
00000340: 6cb5 01bd 616e 33bd b3c2 4a3d ba80 8f3e
00000350: 1828 34bd 2064 1a3d 2acf 52bc 81d3 b0bb
00000360: e7d0 803c def2 47bd 4573 bd3c d789 1bbd
00000370: 2c57 12bd 5d00 77bd 9da4 29bd c0a6 663c
00000380: edeb 64bc 10e5 cdbc 8da8 1e3d 17d2 863d
00000390: 2037 13bd 8676 48bb c1d4 933d 6704 353c
000003a0: 63bc 46bc 5dc2 c0bd 9fa9 54bd 7d7b 3fbc
000003b0: 8dbb 383d 04f5 083c 9ed3 823b cc0e 193d
000003c0: 8e91 81bc 2925 0cbd 0395 f93c 36f9 8abd
000003d0: 1c8c 33bd 59f9 103d cd89 d1bd 7aa4 a13d
000003e0: 3cba ed3c ffdd 27be 1cf3 e83b 9ceb ad3c
000003f0: b08f 923b a563 3b3c 7a68 43bb 6e4e 6abb

transforms.0.coupling_network.output.bias f4 [16]
-0.0044247806 0.085844025 -0.21955569 0.011876906 -0.23478886 -0.058280442 -0.029514357 -0.027366
0.0025023082 0.0058603003 -0.041542955 0.005129654 0.031069355 -0.12762533 -0.06986888 -0.045984115
00000000: c0fd 90bb fece af3d 35d3 60be 5b97 423c
00000010: 7e6c 70be 79b7 6ebd 18c8 f1bc a92e e0bc
00000020: c4fd 233b c307 c03b f228 2abd a816 a83b
00000030: 2985 fe3c 37b0 02be 6a17 8fbd d759 3cbd

transforms.1.weight f4 [16, 16]
-0.1418939 -0.37270963 -0.14582661 0.13281806 -0.2377848 0.04500264 -0.45786005 0.09667384
0.08086458 0.0026402827 0.42508194 0.3302682 0.4805603 -0.3385629 0.29095504 0.18511988
0.32671657 -0.13047506 0.35370904 -0.278598 -0.0075649424 0.24970607 -0.30745405 -0.017119803
-0.29483885 0.16683775 0.12400175 -0.073792525 -0.21478328 -0.1762186 -0.012938302 0.46554825
0.120676994 0.141958 -0.30743876 0.21531902 -0.16383833 0.2475873 0.1263484 -0.011975634
0.008992952 -0.14375211 -0.25311527 0.32251132 -0.4876259 0.067032926 0.4417311 0.08868927
0.08884356 0.07745126 0.01335103 -0.40283594 -0.0855124 -0.1581041 0.21406847 -0.2614798
0.4786699 0.5371201 -0.28574136 0.095921926 0.030806126 -0.15581702 0.3155723 -0.19013388
-0.14532883 -0.039330337 -0.3723547 -0.012935613 0.070931464 -0.006222583 0.19399308 -0.46009946
-0.47831985 0.13865079 -0.067837015 0.06754132 0.5324373 -0.20096403 -0.14201401 0.18334128
0.010675362 0.35355365 -0.12063925 -0.07525673 -0.10517851 -0.27716476 -0.0082141245 -0.23058347
0.44698316 -0.040231977 0.32887822 -0.06216608 0.03170398 -0.2035048 -0.18080698 0.6313981
0.10271812 -0.27645376 0.076678984 -0.31716338 -0.17227177 0.39321655 -0.051007725 -0.40717778
0.13317104 -0.37155208 -0.25313523 0.20045952 0.062710494 0.18788163 -0.11122323 0.07132282
-0.015453641 0.08149664 -0.17862 -0.20654693 -0.10369221 0.28428146 -0.15176153 0.025674222
0.07991752 -0.07008037 0.15880486 -0.6456761 0.07073413 -0.11081354 0.14122649 -0.049324263
-0.46496397 0.80868655 0.29735684 0.032319445 0.13342422 0.017774012 -0.18874118 0.080186434
-0.13210197 0.44887367 0.032587126 0.19582242 0.04515416 -0.26790112 0.16090204 -0.072460644
0.04638902 0.12493254 0.29104897 0.106160216 0.070451096 0.08137454 0.14661567 0.28332707
-0.110493205 -0.18240537 -0.3309052 -0.2738507 0.35136953 -0.42456242 0.1755622 0.24748191
-0.17462441 -0.0051056435 -0.39606103 -0.3937693 0.3386493 -0.32192707 0.20149817 0.4053548
-0.17450975 -0.080565505 -0.017479407 0.062914535 0.10662147 0.4502491 0.45794916 0.3223475
0.14034937 -0.21884137 0.49553648 0.2798712 -0.18587016 -0.20086944 -0.33081064 -0.2296001
-0.2800136 0.03264504 -0.3702553 -0.32042196 0.096750416 0.034396186 0.04842583 0.34718397
0.31845072 -0.08358563 0.44467494 -0.13977852 -0.032046102 0.5733004 0.27398315 -0.3805114
0.2569383 -0.13122077 0.2397232 0.21001026 0.17765863 0.227704 0.50670004 -0.37212533
0.534503 0.46900824 0.21859567 -0.03256761 0.35741282 0.1625384 -0.24215981 -0.03990536
-0.013365005 0.27826443 0.12198563 0.074227095 0.2543514 0.021794027 -0.09090697 -0.110813394
-0.030969338 0.0955158 -0.015771102 -0.09136688 0.019661712 -0.32265544 -0.0571821 -0.29382613
0.016124167 -0.4440313 -0.119993374 -0.050520815 0.052951485 -0.6611591 0.18099396 -0.39647797
-0.18983795 -0.3065546 -0.03413171 0.08846959 0.8164067 0.13373996 0.1520335 -0.2950808
0.007787678 0.094809994 -0.019583242 0.22026725 0.21538922 0.079704 -0.07026962 -0.19162244
00000000: a24c 11be ccd3 bebe 9253 15be 7501 083e
00000010: dc7d 73be b054 383d a26c eabe effc c53d
00000020: 549c a53d 9808 2d3b 57a4 d93e ea18 a93e
00000030: 000c f63e 1e58 adbe 0ff8 943e 1190 3d3e
00000040: 6547 a73e 419b 05be 5a19 b53e 66a4 8ebe
00000050: 56e3 f7bb f3b2 7f3e 9e6a 9dbe d43e 8cbc
00000060: 1ef5 96be 84d7 2a3e a1f4 fd3d 8920 97bd
00000070: 26f0 5bbe a672 34be 2cfb 53bc 575c ee3e
00000080: 8025 f73d 705d 113e 9d68 9dbe 977c 5c3e
00000090: 3cc5 27be 8687 7d3e 7a61 013e 7335 44bc
000000a0: 2d57 133c c133 13be 5398 81be 3420 a53e
000000b0: 1aaa f9be 8f48 893d 942a e23e b8a2 b53d
000000c0: 9df3 b53d c49e 9e3d 47be 5a3c 8340 cebe
000000d0: 2021 afbd 0be6 21be c434 5b3e aee0 85be
000000e0: 3914 f53e b480 093f b14c 92be b772 c43d
000000f0: 215d fc3c 7f8e 1fbe b192 a13e 75b2 42be
00000100: 15d1 14be d918 21bd 46a5 bebe e5ef 53bc
00000110: 8444 913d cfe6 cbbb 1fa6 463e 2892 ebbe
00000120: 57e6 f4be 79fa 0d3e 22ee 8abd 1b53 8a3d
00000130: d04d 083f 84c9 4dbe 1f6c 11be d1bd 3b3e
00000140: b7e7 2e3c fc04 b53e b611 f7bd 3320 9abd
00000150: d567 d7bd 8ae8 8dbe 8994 06bc 131e 6cbe
00000160: fada e43e 49ca 24bd ba62 a83e dca1 7ebd
00000170: 08dc 013d 9063 50be 7725 39be 4ea3 213f
00000180: e15d d23d 598b 8dbe df09 9d3d 3d63 a2be
00000190: 0368 30be ae53 c93e 7aed 50bd 9b79 d0be
000001a0: fd5d 083e 133c bebe f19a 81be 4345 4d3e
000001b0: 5c6e 803d 0b64 403e 01c9 e3bd b311 923d
000001c0: 4531 7dbc b6e7 a63d 29e8 36be 0a81 53be
000001d0: 955c d4bd 578d 913e 6067 1bbe bf52 d23c
000001e0: ccab a33d 4c86 8fbd be9d 223e 074b 25bf
000001f0: 0edd 903d 36f2 e2bd ad9d 103e 3d08 4abd
00000200: c20f eebe 1506 4f3f 283f 983e 6561 043d
00000210: 5ca0 083e ce9a 913c 5e45 41be c938 a43d
00000220: bd45 07be c5d2 e53e 147a 053d ac85 483e
00000230: 92f3 383d 562a 89be 81c3 243e 3f66 94bd
00000240: 6a02 3e3d a2dc ff3d 5f04 953e 876a d93d
00000250: aa48 903d b2a7 a63d 6b22 163e 3f10 913e
00000260: 434a e2bd 79c8 3abe 686c a9be 2936 8cbe
00000270: b5e6 b33e 3f60 d9be 94c6 333e e66b 7d3e
00000280: bed0 32be 3e4d a7bb 83c8 cabe 219c c9be
00000290: 7163 ad3e a0d3 a4be 8955 4e3e aa8a cf3e
000002a0: afb2 32be 87ff a4bd f930 8fbc 56d9 803d
000002b0: 5b5c da3d 0d87 e63e 5078 ea3e bb0a a53e
000002c0: bfb7 0f3e f417 60be f5b6 fd3e 474b 8f3e
000002d0: bf54 3ebe b8b0 4dbe 0360 a9be 4a1c 6bbe
000002e0: f15d 8fbe ceb6 053d 1a92 bdbe 590e a4be
000002f0: 1525 c63d 04e3 0c3d 2a5a 463d 19c2 b13e
00000300: f90b a33e f12e abbd 6fac e33e 1a22 0fbe
00000310: c642 03bd d1c3 123f 8547 8c3e 64d2 c2be
00000320: 6b8d 833e bd5e 06be 007a 753e ee0c 573e
00000330: 25ec 353e 3d2b 693e 18b7 013f 3687 bebe
00000340: 30d5 083f d921 f03e 8bd7 5f3e 9d65 05bd
00000350: d0fe b63e 7770 263e bef8 77be ce73 23bd
00000360: e5f8 5abc ad78 8e3e 9ad3 f93d 6004 983d
00000370: 593a 823e 6389 b23c 6f2d babd 22f2 e2bd
00000380: 69b3 fdbc ca9d c33d 6632 81bc 8f1e bbbd
00000390: 9911 a13c 1833 a5be c737 6abd 6170 96be
000003a0: d416 843c 1258 e3be 16bf f5bd eaee 4ebd
000003b0: a8e3 583d b941 29bf 7b56 393e 29ff cabe
000003c0: e164 42be b9f4 9cbe b1cd 0bbd 8b2f b53d
000003d0: 0800 513f 21f3 083e abae 1b3e d514 97be
000003e0: c72f ff3b be2b c23d 096d a0bc bd8d 613e
000003f0: fe8e 5c3e da3b a33d 85e9 8fbd ac38 44be

transforms.2.coupling_network.input.weight f4 [16, 8, 3, 3]
0.040547956 0.050173074 -0.010427648 0.141363 0.031327028 0.012589078 0.065840974 0.077108525
0.027085269 -0.0610392 0.090361625 0.08152392 0.059261 0.06262995 -0.04548153 -0.117088504
0.011902581 0.10782199 0.046345085 0.046646897 -0.00508239 0.023064928 -0.03618513 0.0019427957
0.008047864 0.13023691 0.02304852 0.09127091 0.11374908 0.070266016 0.15380208 -0.027070453
0.0347789 -0.020506993 0.0669222 0.13388824 -0.004876891 -0.05657892 0.015319241 0.19662628
0.03295796 -0.07552454 -0.0483267 0.12166208 -0.014754993 0.04547007 0.146355 0.041756365
0.04520444 -0.051403146 0.00088271697 0.0292904 -0.12338105 0.1408769 -0.0409693 -0.051858097
-0.07851822 0.12278891 0.15745866 -0.1301517 -0.17479753 0.115582235 0.010831624 0.0040175314
-0.07733496 -0.031927302 0.029663075 -0.12385448 -0.07959843 -0.06170907 0.114939965 -0.009857589
-0.026307628 0.0794345 0.013389871 0.21033624 0.19719806 -0.04302835 0.009580433 -0.20259176
0.017439099 0.09182181 -0.027522478 -0.041012947 0.15871814 0.03301876 -0.058834493 -0.1799645
0.23790433 0.009504908 0.029897312 -0.050813183 -0.06656491 0.120910704 0.056715485 -0.0013329358
-0.05101148 0.13495366 -0.038917676 -0.03421617 0.038271956 0.025596805 -0.0488 0.030928224
0.023815656 -0.24114545 -0.04328777 -0.015525023 0.015515266 0.037865564 -0.006218762 0.07885785
0.07196245 -0.05286378 -0.14796847 0.031723384 0.034660593 0.012735403 0.17150247 0.016131518
0.22522298 0.16110219 0.00069254957 0.06554021 0.13656746 -0.01018356 0.037740353 0.022479426
0.02136903 0.10123233 0.07986632 0.020947585 -0.1750497 0.10349816 -0.023106366 -0.015747495
-0.026063325 -0.0032659296 -0.061795276 -0.091891415 0.02672933 -0.14346968 0.014724872 -0.029637905
-0.08183081 0.057979137 0.09896176 0.055673912 -0.60540515 -0.12666589 0.033656493 -0.18320547
-0.06514364 0.03832569 0.035025295 -0.07486087 0.047671348 -0.030661173 0.21928956 8.052072e-05
0.18469703 0.036035012 0.0104682315 0.090964325 -0.013341351 0.048931953 -0.18900008 0.06223662
0.015455526 0.050919272 0.06068939 -0.008348333 -0.0013674061 0.047249667 -0.03754803 0.0047092782
0.10014237 -0.042639684 -0.0024553887 -0.035806075 -0.03592789 -0.002579139 -0.016782159 0.02434172
0.21812701 0.021775385 0.048239328 -0.02927925 -0.031029304 0.031667452 -0.0073383725 -0.077998064
-0.012199823 -0.020173436 -0.051013216 0.012832617 0.1846687 0.07947008 -0.06571481 0.079468355
0.022091713 0.060301527 0.33998743 -0.18899527 -0.014381789 -0.14182371 -0.005310463 0.013942298
0.04988969 0.07289477 -0.018860701 0.51704055 0.008243889 -0.005587533 -0.078643665 -0.025778703
-0.1313421 -0.054993797 0.06263392 0.16528231 0.09751129 -0.14589567 0.060919024 0.16909988
-0.04389966 -0.1713873 0.12254544 0.0042908555 0.1829266 0.09863644 0.18513402 -0.050851803
-0.0903723 0.07882315 -0.04340059 0.028949628 -0.041006334 0.17639501 0.052199073 0.08164934
-0.012059512 -0.03518568 0.0054872553 0.11478993 -0.03262131 0.00096299883 0.0102403015 0.091864355
0.0940075 -0.061934683 0.08746067 0.03409531 -0.10089579 -0.025470497 -0.042479955 0.09509826
00000000: 9d15 263d 4882 4d3d bad8 2abc 76c1 103e
00000010: c550 003d 6c42 4e3c a2d7 863d 13eb 9d3d
00000020: ede1 dd3c 3d04 7abd 840f b93d 03f6 a63d
00000030: aabb 723d 2244 803d d74a 3abd 19cc efbd
00000040: 0b03 433c c7d1 dc3d 58d4 3d3d d110 3f3d
00000050: 2d8a a6bb a9f2 bc3c dc36 14bd 68a5 fe3a
00000060: 30db 033c d35c 053e 40d0 bc3c 3eec ba3d
00000070: 47f5 e83d a1e7 8f3d 4b7e 1d3e dbc2 ddbc
00000080: 5274 0e3d 48fe a7bc 820e 893d 001a 093e
00000090: 54ce 9fbb 4cbf 67bd 8efd 7a3c 6658 493e
000000a0: edfe 063d 9cac 9abd 38f2 45bd f829 f93d
000000b0: edbe 71bc d33e 3a3d 16de 153e b908 2b3d
000000c0: 4a28 393d 1b8c 52bd 2266 673a 6cf2 ef3c
000000d0: 34af fcbd 0942 103e 6dcf 27bd 2869 54bd
000000e0: 29ce a0bd c178 fb3d d83c 213e 7d46 05be
000000f0: 20fe 32be 61b6 ec3d 2077 313c 7fa5 833b
00000100: cb61 9ebd 34c6 02bd faff f23c 6ba7 fdbd
00000110: 8004 a3bd a6c2 7cbd a565 eb3d ba81 21bc
00000120: 1883 d7bc 8eae a23d 3161 5b3c 6262 573e
00000130: 4aee 493e 7f3e 30bd 40f7 1c3c 3774 4fbe
00000140: 71dc 8e3c 130d bc3d d276 e1bc 31fd 27bd
00000150: 0287 223e ae3e 073d 70fc 70bd 9d48 38be
00000160: 319d 733e 79ba 1b3c 35eb f43c 7c21 50bd
00000170: 2f53 88bd 08a0 f73d 7f4e 683d e7b5 aeba
00000180: 6af1 50bd 4b31 0a3e 2468 1fbd 4126 0cbd
00000190: 0ec3 1c3d 64b0 d13c 82e2 47bd 305d fd3c
000001a0: 0d19 c33c d5ee 76be 844e 31bd ab5c 7ebc
000001b0: be33 7e3c ec18 1b3d c2c6 cbbb 3980 a13d
000001c0: 0d61 933d b187 58bd 0c85 17be 61f0 013d
000001d0: 44f8 0d3d 27a8 503c 589e 2f3e 3f26 843c
000001e0: daa0 663e f9f7 243e 378c 353a f239 863d
000001f0: 57d8 0b3e f2d8 26bc a195 1a3d c626 b83c
00000200: 1b0e af3c e552 cf3d f490 a33d 459a ab3c
00000210: 3b40 33be d8f6 d33d 9049 bdbc e400 81bc
00000220: c182 d5bc 3509 56bb 0b1d 7dbd 9131 bcbd
00000230: 78f7 da3c b7e9 12be 9740 713c 31cb f2bc
00000240: e996 a7bd 887b 6d3d 77ac ca3d 540a 643d
00000250: d5fb 1abf b4b4 01be 64db 093d 379a 3bbe
00000260: 076a 85bd 66fb 1c3d af76 0f3d a850 99bd
00000270: 0843 433d 242d fbbc 718d 603e 3bdd a838
00000280: 3821 3d3e 7399 133d f282 2b3c 814b ba3d
00000290: af95 5abc df6c 483d 3d89 41be d3eb 7e3d
000002a0: 2d39 7d3c ba90 503d 7095 783d 72c7 08bc
000002b0: 893a b3ba de88 413d f7cb 19bd 4a50 9a3b
000002c0: 7117 cd3d f3a6 2ebd 96ea 20bb 64a9 12bd
000002d0: 2029 13bd c606 29bb bd7a 89bc 4968 c73c
000002e0: b05c 5f3e 4b62 b23c 9a96 453d 0adb efbc
000002f0: 2b31 febc bbb5 013d bb76 f0bb 73bd 9fbd
00000300: c4e1 47bc c342 a5bc 3cf3 50bd e63f 523c
00000310: cb19 3d3e 36c1 a23d 7c95 86bd 4ec0 a23d
00000320: aef9 b43c bcfe 763d d512 ae3e fa87 41be
00000330: 98a1 6bbc 3c3a 11be 6403 aebb 3c6e 643c
00000340: 2259 4c3d da49 953d c281 9abc c55c 043f
00000350: 6011 073c a017 b7bb ee0f a1bd dc2d d3bc
00000360: 8b7e 06be 2d41 61bd 3646 803d c43f 293e
00000370: 00b4 c73d ad65 15be 3a86 793d 8528 2d3e
00000380: 21d0 33bd 2780 2fbe 1bf9 fa3d 4e9a 8c3b
00000390: 1c51 3b3e e701 ca3d c693 3d3e fb49 50bd
000003a0: 1d15 b9bd 086e a13d d1c4 31bd c527 ed3c
000003b0: 42f6 27bd e5a0 343e b2ce 553d c537 a73d
000003c0: 4295 45bc dc1e 10bd 6fce b33b fc16 eb3d
000003d0: ec9d 05bd c271 7c3a f0c6 273c 6123 bc3d
000003e0: 0187 c03d 39af 7dbd 941e b33d 86a7 0b3d
000003f0: 74a2 cebd 81a7 d0bc 76ff 2dbd e0c2 c23d

transforms.2.coupling_network.input.bias f4 [16]
-0.073239096 -0.20918308 0.38262334 0.122089945 0.2846524 0.33786875 -0.29699335 0.12922105
0.009174159 0.4588744 -0.1348513 0.23634289 0.13198084 0.24580434 -0.103545755 -0.07580812
00000000: 61fe 95bd 1734 56be 35e7 c33e 4b0a fa3d
00000010: f6bd 913e 22fd ac3e 830f 98be 8652 043e
00000020: 364f 163c 96f1 ea3e 7616 0abe df03 723e
00000030: fc25 073e 22b4 7b3e cc0f d4bd 4a41 9bbd

transforms.2.coupling_network.hidden.0.weight f4 [16, 16, 3, 3]
0.08767086 -0.030831441 -0.08042812 -0.0303668 0.034447536 -0.060013972 0.017933834 -0.05965467
-0.014933721 -0.088370405 -0.035027035 0.014184787 -0.017062658 -0.121569574 0.0019446195 0.000588126
0.07487134 -0.028904326 -0.07195017 -0.044259522 0.02221417 0.16700292 -0.38268974 -0.021466041
-0.06368087 -0.03360841 -0.012590887 0.06541836 0.11361224 0.07167973 0.03521594 -0.0010051681
0.08741485 0.052822553 -0.041647363 -0.0987005 0.015692936 -0.0015784358 -0.25362223 -0.068807475
-0.74844116 -0.14966999 -0.042546056 0.13574982 -0.026757533 0.049316436 0.06865634 0.15085255
-0.018264841 -0.09217961 0.15789668 0.028273625 0.020768128 -0.024690364 -0.050867114 0.034489542
-0.002069255 -0.018620374 0.0318374 0.020967614 0.038248852 0.0025830113 0.0003245692 -0.01722589
-0.03808961 0.08102123 0.03573965 0.008956207 0.026737172 -0.07064459 -0.106611595 0.025667338
-0.002357398 0.09093914 0.10401028 -0.061268583 0.04365005 -0.13147216 -0.026251227 0.018416839
-0.010337923 -0.08335097 -0.04127635 0.013258754 0.10771208 0.0661366 0.08552885 -0.037940226
-0.026955329 -0.0380991 0.009890914 -0.016604932 -0.11259434 0.063671514 -0.048307996 0.043091968
0.02976187 0.065466195 -0.002338019 0.078148514 0.04074726 -0.0532104 -0.1176158 0.09590111
0.06492058 0.00788144 -0.13520539 -0.022453891 -0.024977978 0.0035273551 0.01880662 -0.037044894
-0.024945948 0.019123102 0.031969067 0.0796844 0.05906606 0.03495689 0.058480565 -0.008473464
0.030511037 0.13225132 -0.0020052898 -0.041327078 0.03018533 0.027227137 -0.02934853 0.04249501
-0.052472368 0.069620825 0.019657096 0.0045780228 0.010583858 0.0022136942 0.020772634 0.020708533
-0.025158223 -0.06184698 -0.01606679 -0.10176223 -0.0010403623 -0.02983238 -0.05430214 0.042005043
-0.056731768 -0.08760619 0.008374761 -0.098972745 -0.087565884 -0.1103069 0.06155193 0.06996236
0.035067312 0.16781415 0.15686888 -0.1232853 -0.15976873 -0.025247177 -0.12494482 0.030648742
-0.011062774 -0.028110536 0.07917959 -0.081476845 0.011661433 -0.09939228 0.36886874 0.02786674
0.03050963 0.22683336 0.015220147 -0.1473942 -0.05041107 0.036274813 -0.047574747 -0.028574023
0.16443808 -0.06968532 0.07460454 -0.03919697 -0.15627794 0.11340718 -0.0082637 -0.018399557
0.05673323 0.115044095 -0.055548154 0.029802559 0.064305216 -0.004069852 0.039465223 0.0037509766
-0.11595354 -0.033068284 -0.10416541 0.040639076 -0.017317446 -0.025200648 -0.08748992 -0.031806577
0.08845037 0.09581762 0.15953188 -0.15152177 -0.088582456 0.010630548 -0.082941525 -0.03165973
0.040909793 0.019506887 -0.06932112 0.055735357 0.054478593 -0.08576412 0.01881879 0.09051549
-0.024650497 0.014439949 0.09287966 0.014913159 0.056679964 0.13944624 -0.0021632682 0.016277133
0.041311808 0.20132145 -0.07449208 0.05802417 0.10570854 -0.1259382 -0.08910537 -0.064628065
0.06758923 0.049840625 0.02336432 0.020602431 0.007999756 0.0733354 0.077880345 0.11168495
0.10309794 0.095617466 0.028644655 0.04837142 0.07639974 -0.034322478 -0.004000688 -0.03354083
0.16815072 0.033939186 0.022703936 -0.032655682 0.010358044 -0.05366485 -0.02526523 0.07445827
00000000: c88c b33d 3892 fcbc 80b7 a4bd ccc3 f8bc
00000010: dc18 0d3d 36d1 75bd fae9 923c 7558 74bd
00000020: 91ac 74bc 8bfb b4bd 8278 0fbd 4f67 683c
00000030: fdc6 8bbc 78f9 f8bd 9ae2 fe3a 782c 1a3a
00000040: 2556 993d c4c8 ecbc 9c5a 93bd 7949 35bd
00000050: 7efa b53c d002 2b3e e9ef c3be 8dd9 afbc
00000060: 1e6b 82bd f9a8 09bd 024a 4ebc 10fa 853d
00000070: 89ad e83d d3cc 923d 973e 103d d8bf 83ba
00000080: 8f06 b33d 765c 583d 6d96 2abd 7d23 cabd
00000090: 798e 803c 84e3 ceba c6da 81be efea 8cbd
000000a0: d799 3fbf 1743 19be c644 2ebd 0002 0b3e
000000b0: 9d32 dbbc 0800 4a3d b29b 8c3d 1779 1a3e
000000c0: 26a0 95bc aac8 bcbd abaf 213e 179e e73c
000000d0: ec21 aa3c 7243 cabc 095a 50bd e844 0d3d
000000e0: 579c 07bb c189 98bc ef67 023d 46c4 ab3c
000000f0: d4aa 1c3d bd47 293b f12a aa39 4f1d 8dbc
00000100: da03 1cbd 75ee a53d bd63 123d 0ebd 123c
00000110: ea07 db3c 1cae 90bd 2e57 dabd 4f44 d23c
00000120: 937e 1abb 4d3e ba3d 5703 d53d c4f4 7abd
00000130: 65ca 323d a3a0 06be d00c d7bc e9de 963c
00000140: 6460 29bc eab3 aabd 6411 29bd 3f3b 593c
00000150: 2798 dc3d a072 873d c029 af3d 3667 1bbd
00000160: 6cd1 dcbc cd0d 1cbd 800d 223c 1107 88bc
00000170: dd97 e6bd 3666 823d 9bde 45bd 3481 303d
00000180: 2acf f33c 2413 863d 7339 19bb 540c a03d
00000190: 99e6 263d 26f3 59bd 8de0 f0bd cd67 c43d
000001a0: 15f5 843d 2821 013c 4873 0abe 39f1 b7bc
000001b0: 9e9e ccbc 332b 673b 5710 9a3c 63bc 17bd
000001c0: 725b ccbc 0da8 9c3c fff1 023d 9331 a33d
000001d0: 41ef 713d f52e 0f3d 5189 6f3d 49d4 0abc
000001e0: 48f2 f93c e46c 073e 2e6b 03bb 9546 29bd
000001f0: 3a47 f73c 720b df3c 546c f0bc 3f0f 2e3d
00000200: 44ed 56bd 5d95 8e3d eb07 a13c 3d03 963b
00000210: eb67 2d3c a013 113b 5f2b aa3c f1a4 a93c
00000220: 9e18 cebc 4253 7dbd 809e 83bc b768 d0bd
00000230: c45c 88ba 0963 f4bc ec6b 5ebd 7b0d 2c3d
00000240: 925f 68bd e06a b3bd 4b36 093c 39b2 cabd
00000250: be55 b3bd 96e8 e1bd e01d 7c3d 6d48 8f3d
00000260: bea2 0f3d 79d7 2b3e 3ca2 203e 017d fcbd
00000270: 6a9a 23be 2bd3 cebc 12e3 ffbd 1213 fb3c
00000280: a340 35bc 1148 e6bc e928 a23d 55dd a6bd
00000290: 980f 3f3c 2e8e cbbd 5ddc bc3e ca48 e43c
000002a0: 55ef f93c 0147 683e ec5d 793c 81ee 16be
000002b0: d77b 4ebd e694 143d bddd 42bd 1214 eabc
000002c0: 7562 283e 2db7 8ebd 44ca 983d 018d 20bd
000002d0: 5307 20be 0642 e83d 7864 07bc abba 96bc
000002e0: 1a61 683d 3d9c eb3d 7686 63bd 7f24 f43c
000002f0: 74b2 833d 655c 85bb 49a6 213d f2d2 753b
00000300: 0d79 edbd 9c72 07bd ad54 d5bd 2975 263d
00000310: 51dd 8dbc 9771 cebc ea2d b3bd 9d47 02bd
00000320: 7825 b53d 073c c43d 535c 233e 8628 1bbe
00000330: b86a b5bd c02b 2e3c 3fdd a9bd a2ad 01bd
00000340: 0791 273d e8cc 9f3c 3bf8 8dbd c24a 643d
00000350: f224 5f3d 19a5 afbd dd29 9a3c 2f60 b93d
00000360: d7ef c9bc 8995 6c3c b137 be3d 5356 743c
00000370: 4029 683d ffca 0e3e 9ec5 0dbb 9f57 853c
00000380: 9236 293d 3627 4e3e 4e8f 98bd c1aa 6d3d
00000390: b87d d83d f2f5 00be e07c b6bd b85b 84bd
000003a0: 396c 8a3d af25 4c3d 8866 bf3c 6ec6 a83c
000003b0: 6911 033c df30 963d bb7f 9f3d 14bb e43d
000003c0: 0325 d33d 17d3 c33d 32a8 ea3c 1c21 463d
000003d0: 7877 9c3d ba95 0cbd 3418 83bb 1c62 09bd
000003e0: b42f 2c3e d103 0b3d 9bfd b93c f7c1 05bd
000003f0: c9b4 293c accf 5bbd 07f9 cebc 947d 983d

transforms.2.coupling_network.hidden.0.bias f4 [16]
0.104158655 -0.045851443 0.033525605 0.0006440321 0.11927223 0.2148278 0.2490728 0.20625922
-0.1515913 0.08112742 0.08129664 -0.18584986 -0.013258019 0.15952319 0.17986058 0.13584751
00000000: 2251 d53d b9ce 3bbd 2552 093d 43d4 283a
00000010: 0045 f43d d2fb 5b3e f10c 7f3e 9e35 533e
00000020: c03a 1bbe 2226 a63d da7e a63d 6d4f 3ebe
00000030: 2a38 59bc 0c5a 233e 5f2d 383e 9c1b 0b3e

transforms.2.coupling_network.output.weight f4 [16, 16, 3, 3]
-0.011716671 0.033064228 -0.03342474 0.006290041 0.1958691 -0.090667464 -0.023476714 0.0013717969
0.014970716 -0.09584626 -0.08557617 -0.005498531 -0.027793586 0.031026287 0.019173069 -0.059188362
-0.012646544 -0.005226731 0.011212346 -0.0034376038 -0.012613162 -0.07673379 0.024830433 -0.021080019
-0.05817739 -0.089512944 0.0674285 0.12985772 0.23350686 0.010372484 0.21883847 0.3898676
0.0009790147 0.014098062 0.0105759725 -0.015721826 -0.033017874 -0.05199049 -0.08307983 0.21257998
-0.018631963 -0.054745242 -0.0813795 -0.0019878852 -0.023392064 -0.18061215 -0.3142928 -0.017185574
-0.09578594 -0.04798009 -0.03461672 -0.023987167 -0.0002595661 0.021685505 -0.09908905 -0.015775764
0.03223489 0.4356496 0.008987695 0.046025734 -0.032351468 -0.078225724 0.014653938 -0.036989737
-0.0056840554 0.028089564 0.5389618 -0.41509417 -0.02646365 0.04169238 0.024440574 -0.011470895
-0.036607914 0.10191192 -0.022145966 0.07710832 -0.12341715 -0.07995135 0.004453153 -0.021907259
-0.024036739 -0.13127653 0.09172787 0.056592397 -0.08747523 -0.071152896 0.017035302 0.029036812
-0.09395107 -0.0022194928 -0.02821857 -0.028544573 -0.02055483 -0.065320134 0.0721347 0.011234394
-0.05644376 -0.08929782 0.03641981 -0.01585317 -0.06589602 0.022261437 -0.018071001 0.009241209
-0.009949027 0.019918889 -0.013398511 0.007819038 0.0030689694 0.0022022915 0.07292266 -0.060472697
-0.14115143 -0.02716049 -0.031381436 -0.0009422408 -0.0074400012 -0.028259275 0.034363955 0.04164112
-0.045943256 -0.002829244 0.003236961 -0.0055809277 0.0024583638 -0.014278821 -0.026854169 0.03696155
0.031306498 -0.04572563 0.14994642 -0.016679712 0.009841491 0.012514559 0.09460239 -0.055124138
-0.008362305 -0.032301366 -0.11534255 0.014790984 0.0367258 0.0046201157 0.001686064 0.09906557
0.014417463 -0.038852964 -0.0032004253 0.081706494 -0.45280707 -0.049915273 -0.006282261 -0.047479838
-0.016878763 -0.05858767 0.088068336 0.09029433 -0.04629036 0.11958908 -0.070019424 -0.0045908443
0.011863492 -0.004805623 -0.04934311 -0.01853919 0.02111362 -0.03416179 -0.00030920142 0.049259324
-0.07331064 0.08118129 -0.057183854 -0.04793354 0.15688875 0.008220518 0.51214033 0.020331213
0.10760623 -0.09130833 0.09238554 0.17060678 -0.056550313 0.12954178 0.09836899 -0.22327526
-0.06611742 0.12801172 0.22521457 0.10804669 0.007135963 -0.00923904 -0.026694974 -0.065095514
0.041029274 -0.09314812 -0.15962867 -0.11083628 -0.10779655 0.043236945 0.1664178 0.026254913
0.027298693 0.49434197 0.18877663 -0.066844635 -0.035665326 -0.087087646 -0.021460416 0.009899435
-0.05977594 -0.077392906 0.15721804 0.14874864 -0.021197744 0.051012803 0.12975796 -0.055209145
0.03564461 -0.0030893283 -0.03522902 -0.040330667 0.18328123 -0.047295712 0.008865712 0.052583337
-0.0036428578 -0.0465974 -0.086882 0.048479505 -0.044262633 0.25083232 -0.014570217 -0.089056335
0.055365384 0.09125323 -0.024168713 0.007483424 0.016259301 0.08862417 -0.039070826 -0.022770496
-0.056903515 -0.11089993 0.09117426 0.072089344 0.77601534 -0.0031738663 0.058138393 0.019624706
0.016421344 0.014251541 0.004979886 -0.004936836 -0.01570943 0.045567624 0.050815906 0.14443767
00000000: 48f7 3fbc 5b6e 073d 61e8 08bd b01c ce3b
00000010: e991 483e ddaf b9bd 3d52 c0bc decd b33a
00000020: bc47 753c 0b4b c4bd 8f42 afbd 052d b4bb
00000030: 60af e3bc d72a fe3c d710 9d3c 7f6f 72bd
00000040: 7333 4fbc ff44 abbb fdb3 373c 6c49 61bb
00000050: 70a7 4ebc 9b26 9dbd 3169 cb3c 01b0 acbc
00000060: 6a4b 6ebd 9052 b7bd f417 8a3d 6cf9 043e
00000070: 6c1c 6f3e 5af1 293c 3117 603e ba9c c73e
00000080: 4852 803a 8ffb 663c d846 2d3c 0fcb 80bc
00000090: c03d 07bd fbf3 54bd c225 aabd 91ae 593e
000000a0: 0fa2 98bc 8c3c 60bd 4caa a6bd 2e47 02bb
000000b0: b7a0 bfbc 64f2 38be fcea a0be c3c8 8cbc
000000c0: 6b2b c4bd c586 44bd 43ca 0dbd bc80 c4bc
000000d0: 5f16 88b9 cda5 b13c 33ef cabd 2d3c 81bc
000000e0: bb08 043d 770d df3e 2041 133c 7b85 3c3d
000000f0: f982 04bd cf34 a0bd 1217 703c 8d82 17bd
00000100: 5041 babb 161c e63c 67f9 093f 3987 d4be
00000110: 4cca d8bc a1c5 2a3d 9937 c83c 6cf0 3bbc
00000120: 2ef2 15bd 32b7 d03d 756b b5bc f8ea 9d3d
00000130: 21c2 fcbd 89bd a3bd c1eb 913b da76 b3bc
00000140: b2e8 c4bc 5b6d 06be d2db bb3d 6ecd 673d
00000150: 3726 b3bd 9cb8 91bd 9e8d 8b3c 9cde ed3c
00000160: 6b69 c0bd e974 11bb a12a e7bc 4fd6 e9bc
00000170: 9a62 a8bc 90c6 85bd 5cbb 933d 7710 383c
00000180: 9231 67bd c7e1 b6bd f02c 153d 82de 81bc
00000190: 7ef4 86bd 9e5d b63c a309 94bc 7168 173c
000001a0: 3e01 23bc f02c a33c 6e85 5bbc 6c1b 003c
000001b0: c320 493b 5254 103b 7a58 953d 38b2 77bd
000001c0: 008a 10be ad7f debc d289 00bd b600 77ba
000001d0: 41cb f3bb ff7f e7bc 38c1 0c3d e18f 2a3d
000001e0: ff2e 3cbd d66a 39bb 3223 543b 37e0 b6bb
000001f0: 801c 213b b7f1 69bc 46fd dbbc ff64 173d
00000200: 3e3b 003d cc4a 3bbd 8e8b 193e e4a3 88bc
00000210: 343e 213c dd09 4d3c e6be c13d d9c9 61bd
00000220: 0d02 09bc 704e 04bd b738 ecbd e255 723c
00000230: cb6d 163d 5764 973b ebfe dc3a e4e2 ca3d
00000240: 3937 6c3c 4924 1fbd 3abe 51bb bc55 a73d
00000250: 54d6 e7be f573 4cbd 6ddb cdbb 387a 42bd
00000260: 5545 8abc a0f9 6fbd 2c5d b43d 3cec b83d
00000270: f69a 3dbd 1feb f43d 5866 8fbd cb6e 96bb
00000280: 185f 423c 7d78 9dbb 001c 4abd 80df 97bc
00000290: 78f6 ac3c 3ced 0bbd 501c a2b9 25c4 493d
000002a0: e423 96bd 6042 a63d 9e39 6abd f655 44bd
000002b0: 72a7 203e 5aaf 063c a11b 033f a58d a63c
000002c0: a860 dc3d ddff babd a134 bd3d 8bb3 2e3e
000002d0: 4da1 67bd 9aa6 043e ae75 c93d 45a2 64be
000002e0: 9268 87bd 8115 033e a69e 663e 9547 dd3d
000002f0: ccd4 e93b 585f 17bc 6baf dabc cc50 85bd
00000300: 500e 283d 71c4 bebd b375 23be 22fe e2bd
00000310: 70c4 dcbd 3919 313d 6e69 2a3e 8b14 d73c
00000320: 82a1 df3c 641a fd3e a94e 413e d7e5 88bd
00000330: ce15 12bd 025b b2bd c1cd afbc 3d31 223c
00000340: 9ed7 74bd 2c80 9ebd c4fd 203e 9051 183e
00000350: e4a6 adbc cdf2 503d 45df 043e fc22 62bd
00000360: 1500 123d 5476 4abb 4e4c 10bd c531 25bd
00000370: 13ae 3b3e 26b9 41bd 7e41 113c a061 573d
00000380: 03bd 6ebb eadc 3ebd 31ef b1bd 7292 463d
00000390: bc4c 35bd 186d 803e ebb7 6ebc 2b63 b6bd
000003a0: d0c6 623d f9e2 ba3d 77fd c5bc 8337 f53b
000003b0: 3a32 853c 9780 b53d bb08 20bd 3189 babc
000003c0: a913 69bd 811f e3bd 92b9 ba3d 94a3 933d
000003d0: f1a8 463f a400 50bb 8622 6e3d fec3 a03c
000003e0: 0e86 863c 4c7f 693c 502e a33b 2fc5 a1bb
000003f0: 10b1 80bc 1ea5 3a3d 5724 503d 78e7 133e

transforms.2.coupling_network.output.bias f4 [16]
0.08761675 -0.019935198 0.011414612 -0.044194743 0.09963115 -0.037381534 0.049871966 0.05484778
0.038102567 0.05573408 0.027489481 0.010391274 -0.08196237 -0.09024474 0.0017833594 -0.088465564
00000000: 6970 b33d 244f a3bc 5a04 3b3c 8c05 35bd
00000010: 6b0b cc3d 611d 19bd 8c46 4c3d 11a8 603d
00000020: 7011 1c3d 6b49 643d 9f31 e13c 2940 2a3c
00000030: e3db a7bd 3cd2 b8bd 9dbf e93a 6f2d b5bd
