saved_models/model.pth (torch, 76711 bytes, 42 tensors)

transforms.0.coupling_network.input.weight f4 [8, 8, 3, 3]
000000 43 4c 15 bd 0d b8 26 3d 46 52 e3 bc aa bd 56 3d
       -0.036449682 0.04070287 -0.027749192 0.05242697
000010 33 37 9d be e1 97 5e bc ed cb 5f 3c fe 2e c1 3a
       -0.30706176 -0.013586015 0.01365946 0.0014738736
000020 9b 27 ee 3b 44 6b ba 3c 1b 9e 8b 3c 53 d0 39 3c
       0.007267905 0.022756226 0.017043164 0.011341172
000030 ec 31 00 3d 93 40 1b be 65 56 bc 3c ae b5 ad 3d
       0.03129761 -0.15161352 0.022990415 0.08481918
000040 91 c3 47 3c 4c 54 e6 bb 1a 3f 70 3d 3c b5 7e bd
       0.012192623 -0.007029092 0.05865393 -0.062184557
000050 f7 75 50 3d db 85 67 be ce f4 c2 bd 03 b5 73 3c
       0.05089375 -0.22609656 -0.09519349 0.0148746995
000060 2d 48 1d 3d 69 bc 95 3b 22 d3 43 bd 03 05 1b 3d
       0.03839891 0.0045695794 -0.047808774 0.037846576
000070 5e fb 48 bd a6 db 38 bd fc dc ce be d9 fd b3 bd
       -0.049067847 -0.045131348 -0.40402973 -0.08788652
000080 39 1b 21 3d e7 49 17 3d 30 01 ed 3b b6 4c 65 3d
       0.039332602 0.036935713 0.0072328076 0.05598136
000090 2b a4 75 3c 2d 81 13 be 45 e8 85 bd dc 1e b3 3d
       0.014992754 -0.14404745 -0.065384425 0.0874612
0000a0 fa 9f e2 3d 1e d7 fe 3a 97 cd 8d bc 64 3d 32 3a
       0.11065669 0.0019442772 -0.017309947 0.0006799309
0000b0 c4 2b 25 3d ab a7 a0 3c 84 c0 04 be 11 a8 b6 bc
       0.04032494 0.0196112 -0.12964064 -0.022296937
0000c0 e2 11 20 3e b4 ab e3 3d 19 3b 2f bc e4 6e db bc
       0.15631822 0.11116734 -0.010695242 -0.026786275
0000d0 a6 7a 85 bd 14 54 03 3c 73 51 a6 3b b9 29 1c 3d
       -0.06517534 0.008015651 0.0050756275 0.038125727
0000e0 c0 a4 bc 3b b1 70 3a 3e 4b 3f 45 3d 87 0d 88 38
       0.0057569444 0.18207051 0.048156064 6.487505e-05
0000f0 b1 fb 4a bd c2 a9 39 3b f9 23 ff 3c e0 d8 40 be
       -0.049556438 0.0028329943 0.031145083 -0.18832731
000100 b0 f5 8b bd 78 77 41 bc 45 64 27 3e 56 52 ac 3d
       -0.068339705 -0.011808269 0.16346844 0.08414142
000110 e7 9a fb bb 44 16 43 bd 22 aa 92 bc 1e 37 4f bd
       -0.007678378 -0.047628656 -0.017903391 -0.050589673
000120 97 fc 36 3c 9d ca 55 bc e2 19 b9 3b f9 99 d0 bc
       0.011168621 -0.013048795 0.0056488374 -0.025464045
000130 b3 50 91 be f8 9c 42 bb 5e a8 22 3d fe 43 6a 3e
       -0.2838188 -0.0029695611 0.03971135 0.228775
000140 99 38 34 3c a3 25 9d ba 43 91 de bc a4 cf c1 3a
       0.010999822 -0.0011989366 -0.027168876 0.0014786613
000150 02 83 54 bd a0 16 f6 bd 31 87 a1 bc 7a 0f 71 3d
       -0.05188275 -0.12016034 -0.019717785 0.05885265
000160 e1 20 af 3d f1 88 55 3c cf 0c 71 3c 1d 73 51 bc
       0.08551193 0.013033138 0.014712526 -0.012783793
000170 84 86 46 3c e4 aa 28 bd e1 96 8f bd 5c 24 fc bc
       0.012117032 -0.0411786 -0.070112 -0.030779056
000180 5f 08 1a 3e a8 60 be 3d 10 cf 54 bc 43 1d 38 3c
       0.15042256 0.092957795 -0.012988821 0.011237445
000190 66 c7 aa bc 56 d6 4b 3b 26 c4 1c be df 8f e2 bd
       -0.020847034 0.0031103096 -0.153092 -0.110625975
0001a0 52 83 be bb 32 3c 40 3e 67 e2 55 3c ac eb d3 3b
       -0.0058139944 0.18772963 0.013054467 0.0064673033
0001b0 79 f9 cd bc 90 2b 0a 3d 54 fd 54 3c a4 9b 68 3d
       -0.025143372 0.03373295 0.012999851 0.056789055
0001c0 d8 8d da 3e 96 6d b8 bc 37 4e 44 bd 6f 04 06 be
       0.42686343 -0.022513192 -0.047926154 -0.13087629
0001d0 ed fe ba ba 4a e1 0f bb e5 ed fd 3c 30 c6 71 bb
       -0.0014266648 -0.002195435 0.030997226 -0.003689181
0001e0 fc ca 08 3d e3 0c 93 3e 77 db b6 3c 12 80 23 bd
       0.033396706 0.2872077 0.022321446 -0.03991706
0001f0 e2 91 a1 bd 2d 84 44 bc b9 58 02 bc c1 23 12 3d
       -0.07889153 -0.011994404 -0.007955723 0.03567863
000200 df 84 65 3b 8c a1 20 3d 55 18 33 3d 00 ab 34 3c
       0.0035021824 0.039216563 0.043724377 0.011027098
000210 70 96 1b be 34 5a 23 bd 73 8b 92 3c 97 b5 62 bc
       -0.15194106 -0.039880946 0.01788876 -0.01383724
000220 74 51 ff 3c 19 7c 92 bc d5 b2 92 3e a5 cf d3 3d
       0.03116677 -0.01788144 0.28652063 0.103423394
000230 b6 5b 6b 3b 28 c2 ac bd 3e ab 88 bc 33 ed 34 3b
       0.0035912818 -0.0843547 -0.016683217 0.0027607202
000240 6e 36 e7 bb c2 74 a7 37 f1 d9 93 3c fd 4d 06 bd
       -0.007056049 1.9962321e-05 0.018048258 -0.03278922
000250 1f 4c d6 3d f1 af 10 3d 9b 9f 8a 3c e5 20 06 bd
       0.10463738 0.03532404 0.016921809 -0.032746214
000260 60 72 2a 3d 13 e4 ab bb 2f 1c 8e bc 7d 44 85 bc
       0.041612983 -0.0052456944 -0.017347423 -0.01626801
000270 46 f2 9c bd 21 ce 59 3c 72 66 25 3c dc 27 9c 3d
       -0.076633975 0.013293774 0.010095226 0.0762479
000280 95 b3 71 bd 56 e0 11 3c 72 05 ec 3c 5e d6 67 bb
       -0.059009153 0.0089035835 0.02881119 -0.0035375576
000290 ac 9e f1 bb 28 56 9c 3b 78 93 19 3c 02 69 3f bd
       -0.0073736515 0.004771013 0.009373538 -0.046731003
0002a0 f6 e7 34 3d 75 b5 cf 3a 6f 14 28 bc 7a b9 59 bc
       0.044166528 0.0015846925 -0.010258778 -0.01328885
0002b0 13 79 09 38 2c 6b 4c bc 14 69 dc 3d 54 3d 51 3d
       3.2776104e-05 -0.012476724 0.107622296 0.051083878
0002c0 48 b9 0d 3d f8 be 4e 3c 36 47 67 bb 96 c8 e7 3c
       0.034600526 0.012618773 -0.0035290248 0.028293889
0002d0 19 67 51 bb b3 d0 94 3c bf 65 0e 3a 98 81 b0 3b
       -0.003195232 0.018165922 0.00054320315 0.0053865425
0002e0 8d cf 87 bd 78 3e d7 3c ff 72 dd bc 0f 35 ef 3c
       -0.06631384 0.026274905 -0.027032373 0.029200105
0002f0 d0 ee 0b bd b3 51 c9 ba 56 53 64 3b 29 fa 60 3c
       -0.034163296 -0.0015359431 0.003483971 0.013731518
000300 63 0a c1 3d 5a 05 a4 bd e5 21 2a 3d 98 74 dc bc
       0.09425809 -0.08008833 0.04153623 -0.026911065
000310 33 b4 5e 3c 36 41 f4 3b cd 81 5d bd 73 57 18 3d
       0.0135927675 0.007454063 -0.054078866 0.037192773
000320 34 79 a1 bc 24 ef 8c 3d 52 54 14 bb 2a 4f dd bc
       -0.019711114 0.0688155 -0.0022633267 -0.027015287
000330 89 92 14 bd 09 97 1d 3c d8 8c 9e bc 3b 4d 0c ba
       -0.03627256 0.009618529 -0.019354269 -0.00053520844
000340 49 40 2d bd af a6 7f 3b c5 5f 75 3d 9f 3a 3b bd
       -0.042297635 0.0039009263 0.059905786 -0.045710202
000350 85 d3 ee bc c6 e1 80 bc 69 77 df 3b f4 f2 24 bc
       -0.029153595 -0.015732657 0.0068196547 -0.01006769
000360 92 03 96 3d c9 eb 2a bd 1f 8b 6d bc 25 96 44 3d
       0.073249 -0.04172877 -0.014498501 0.04799475
000370 d6 48 6f bb d3 ae ed bb 24 16 49 bd b9 27 2f 3a
       -0.003651192 -0.0072535067 -0.04909338 0.00066816394
000380 1f 34 5d bd 37 88 80 3c ee ec b8 bb f5 4b da bb
       -0.054004785 0.015689952 -0.0056434786 -0.006661887
000390 be 3e 70 3e 33 e1 50 bc 5e e8 8d 3c 78 79 d1 bd
       0.23461434 -0.012749004 0.017322715 -0.102282465
0003a0 3f 57 0c 3c 04 d4 4a bc f1 11 46 bb 07 60 57 3c
       0.008565723 -0.01237965 -0.0030223096 0.013145453
0003b0 e5 6b 68 3c 2c fe fb 3d 8b a2 13 bd 82 cd 0c 3c
       0.01418588 0.12304339 -0.036043685 0.008593919
0003c0 f6 12 b0 bd ea 93 19 b9 5c dc 94 3c 01 ff 27 3d
       -0.085973665 -0.0001464632 0.018171482 0.041014675
0003d0 34 f6 7e 3c 71 07 8f 3c a9 14 82 3d d2 fb 61 bd
       0.015561629 0.017459603 0.06351597 -0.055171795
0003e0 9a 7e f4 3c a3 5b bd bc 9e ce 05 bb 35 cf 6f 3c
       0.029845525 -0.023114985 -0.0020417343 0.014636804
0003f0 03 b1 9e bd a5 29 52 3d 19 e6 15 bc d4 bf 4d bd
       -0.07748606 0.051309247 -0.009149098 -0.05023177

transforms.0.coupling_network.input.bias f4 [8]
000000 98 e7 6e 3e 80 d7 8e 3e d9 b5 0d 3f 4c 00 48 3f
       0.23330534 0.27898788 0.553556 0.78125453
000010 50 73 43 3e 7a e6 de 3e b4 ba 06 3e b2 5d cc be
       0.19086957 0.43535215 0.13157159 -0.39915234

transforms.0.coupling_network.hidden.0.weight f4 [8, 8, 3, 3]
000000 46 2d af 3c 5f d4 9b 3c e8 f1 a1 bc e4 8c a7 3c
       0.021383893 0.019022165 -0.01976867 0.020452924
000010 b3 2a 3f bd 78 f7 c1 bd 4c 22 46 bb 42 68 93 3e
       -0.04667158 -0.09471029 -0.0030232845 0.2879048
000020 2c f4 ec bd c1 d3 42 bc 07 8d 0c 3d cf ca 35 bd
       -0.115700096 -0.011891306 0.03431418 -0.044382866
000030 6b fe 29 3d 7d 96 e1 be eb 23 f9 be 56 0a e8 bc
       0.041502398 -0.44060126 -0.48660216 -0.028325241
000040 eb e2 17 bd 51 93 fd bc 00 08 eb 3c 08 32 46 3d
       -0.03708164 -0.030954035 0.028690338 0.048387557
000050 b4 f0 b1 bd e4 38 09 3e 51 c5 a6 3d 51 cf 3b 3e
       -0.086884886 0.13400608 0.08143104 0.18340804
000060 3a 20 aa bd dd 3f a0 be 42 8f c5 be 78 a0 0c bc
       -0.08306928 -0.31298724 -0.3858586 -0.008583181
000070 b4 94 66 3d 9c 15 0a be d4 0a 35 3d 36 12 d8 bd
       0.056294158 -0.13484806 0.04419978 -0.105503485
000080 43 18 d5 3d 8e 24 84 bd 48 2f 00 3b 9f 98 37 be
       0.10405018 -0.06452285 0.0019559432 -0.17929314
000090 86 54 29 bb 39 74 ba bb 0a 52 53 3c f5 b0 50 3c
       -0.0025837733 -0.0056901244 0.012897978 0.012737502
0000a0 56 7d 50 3d 45 00 1f bc 27 3c 0e bd 6a fe ca bc
       0.05090078 -0.009704654 -0.034725334 -0.024779517
0000b0 4f 1c 06 3b c1 96 90 3c af 7f f6 3c b0 5a 6c bc
       0.002046365 0.01765001 0.030090181 -0.014425918
0000c0 2a c1 ec bd 4f a5 e2 3a c9 1b e9 3d 05 3e 80 3c
       -0.115602806 0.0017291697 0.11382253 0.015654573
0000d0 4f 62 c9 bc 81 12 31 3c f6 64 9d 3c 94 f9 a5 bd
       -0.02458301 0.010807634 0.019213181 -0.08104244
0000e0 af a3 38 3e 8e bf 19 3d 39 42 d4 3c 75 e0 73 3e
       0.1803119 0.037536196 0.025910484 0.23816092
0000f0 ff 55 eb 3c d3 6d ae bc 90 42 15 bd e3 ce 8e 3b
       0.02872753 -0.021292603 -0.036440432 0.004358159
000100 b6 93 a3 b9 e1 35 1f bd 29 ac 6b 3c 5f 69 61 3e
       -0.00031199836 -0.038869742 0.014384308 0.22012852
000110 5e da 02 3e db c9 bb bd bf d6 2d 3e 7d e3 27 bc
       0.12778613 -0.0916936 0.1697645 -0.0102471085
000120 aa a0 39 bb 1f 00 02 bd d0 21 cc 3d 92 8f 67 3d
       -0.0028324523 -0.031738397 0.09967387 0.056533404
000130 51 fe 54 bd 88 77 44 3b 28 92 21 3c 51 58 00 bc
       -0.052000348 0.0029978473 0.0098615065 -0.007833556
000140 e2 28 0a 3c 03 ad c5 bc 1e 06 08 3d 79 d1 de bc
       0.008432599 -0.02413035 0.03320896 -0.027199494
000150 6f bc 2a bd 5b 5a 6c ba f6 af de b9 92 8b fd 3c
       -0.04168361 -0.00090161496 -0.0004247424 0.030950341
000160 47 f8 ba bc 31 c5 93 3c d3 8d 0c 3e 5b 84 de bc
       -0.022823466 0.018038364 0.13725977 -0.027162721
000170 df 1b 54 3e c1 35 06 3e 88 b3 2e 3e 5b ef 0c 3e
       0.20713757 0.13106443 0.17060673 0.13763182
000180 d1 59 3e 3d 3e 2f 48 3d 15 b6 21 3c 95 d0 13 bd
       0.046472374 0.04887318 0.009870072 -0.03608759
000190 21 ae 8a 3d f7 9d 63 bc a9 61 b8 3c 39 01 0c bd
       0.06771494 -0.013892642 0.022507505 -0.034180854
0001a0 8d 95 56 bd 93 08 3b 3d f4 3b bc 3c ca b5 a2 bd
       -0.052388716 0.045662474 0.022977807 -0.0794483
0001b0 db 46 ff bc 36 e3 29 3c c8 3d 87 bc 5e 3d 19 3c
       -0.031161716 0.010369113 -0.016508952 0.00935301
0001c0 b4 41 26 be 12 ac 46 bc 3a 39 bd bc 6d 0f d6 bc
       -0.16236001 -0.012125986 -0.023098577 -0.026130402
0001d0 27 30 7b bd ee 56 9b 3c 7e 03 b3 3d 46 a6 f3 bb
       -0.06132522 0.01896235 0.087409005 -0.007435593
0001e0 b0 f2 e8 bd ae 80 91 3c 04 b2 38 bd 7a e6 44 3d
       -0.11374414 0.017761555 -0.045091644 0.048071362
0001f0 a1 6f d1 bd 5c d7 a0 3c f0 56 74 bd 9a 30 1f 3d
       -0.1022637 0.019633941 -0.059653223 0.03886471
000200 d2 94 1a be 1a 35 ee 3c 58 d4 74 bc df 6e ba 3d
       -0.15095833 0.029078055 -0.014943205 0.09103178
000210 3e 50 3a bb c5 5f f7 3c 72 8f b1 3c 54 ba 9c 3d
       -0.0028429176 0.030197034 0.021674845 0.07652727
000220 4c af 9d 3c 05 9a 45 3d 27 05 59 3d 60 b9 aa 3d
       0.019248627 0.048242588 0.05298343 0.08336139
000230 6e 6e 0a bd 0b ce d9 3c 23 ea 37 bd d9 b9 4b bb
       -0.03379672 0.026587507 -0.044901025 -0.0031086116
000240 14 45 d9 bc e4 75 76 bb bf 6c 66 3c b0 91 02 3d
       -0.026522197 -0.003760689 0.014064013 0.03187722
000250 85 60 5c bd 60 29 96 bd e2 6b 5d bc 6c 82 0f 3e
       -0.053802986 -0.073321104 -0.013514491 0.14014596
000260 d7 de a0 bd 67 c9 14 3d 60 6e d4 3a 79 81 1e 3c
       -0.07855003 0.036324885 0.0016207211 0.009674423
000270 84 5b a4 3c ac 83 fa be 60 91 2f ba 31 8a 1b bb
       0.02006317 -0.48928583 -0.0006697383 -0.0023733492
000280 6b d7 ea bd 1b e7 c5 3d a0 49 77 3c 39 92 23 3d
       -0.11466869 0.096632205 0.015093237 0.03993437
000290 db ba a0 3d a5 95 d1 bc 56 d4 cc 3e 6d fe 54 be
       0.0784814 -0.025584051 0.4000575 -0.2080018
0002a0 77 9f b9 bd 35 a9 76 be bb 96 a0 3d 69 d5 f5 3a
       -0.09063619 -0.24087985 0.078412496 0.0018755618
0002b0 2c 6d 84 3c ea 0e f8 3c 18 2a ad bb cc f2 8f 3c
       0.016165338 0.03028055 -0.005284559 0.01757183
0002c0 f2 0e 7b 3e 1a 80 37 bc 8b 6a b8 bc 25 c0 24 be
       0.2451742 -0.011199975 -0.022511741 -0.16088922
0002d0 86 e6 55 3d b5 60 9f bd 54 a2 62 bd 38 9a 8f bd
       0.052221797 -0.07782117 -0.05533059 -0.07011837
0002e0 03 49 a2 3e 6a 03 11 3e 8b e3 35 3d 9b ff 97 bd
       0.3169633 0.14161459 0.044406455 -0.074218
0002f0 a4 0b 47 bd 75 54 52 3c 7b 8e cf bc e1 02 4e 3c
       -0.048595086 0.012837519 -0.025336495 0.012573929
000300 7d a9 e0 bc 82 8f 20 bd 7a bb c8 bb 79 56 94 3e
       -0.027424568 -0.03919936 -0.0061258646 0.28972223
000310 3d 9d 22 be 76 ee de bc 04 bb 93 3b 20 f2 5b bd
       -0.15880294 -0.027213316 0.004508378 -0.053697705
000320 34 83 12 3d 31 1e 22 3d 77 22 9e 3b fb 04 82 3d
       0.035769656 0.039579574 0.004825886 0.06348606
000330 a8 66 32 bc ff a5 0f 3d 0d 9f f9 3c 7f eb b5 3b
       -0.010888733 0.035070416 0.03047135 0.005551755
000340 1c e3 56 3d db a0 77 3b e6 c6 4d 3d b1 a2 1e 3e
       0.052462682 0.0037785086 0.050238512 0.1549175
000350 f3 b4 3e 3d 64 00 2c bd ab fd 20 3e 9c 13 f7 bc
       0.046559285 -0.04199256 0.15721767 -0.030160718
000360 74 6b 97 bc cd 00 24 bd 1f 8f 17 be f3 5b 0e 3d
       -0.018483855 -0.040039826 -0.1480069 0.03475566
000370 43 4c 88 bd b8 fd cb 3d 77 02 15 ba 42 ef 4d 3b
       -0.06655171 0.099605024 -0.0005684266 0.0031423126
000380 74 e4 5e bd d7 74 a8 bc f1 91 1d bd ae 5a af be
       -0.05441709 -0.020563526 -0.03846926 -0.3424887
000390 92 81 e1 3a 22 dd e3 bd 4b 6c 2b 3e 3d c6 15 3b
       0.0017204753 -0.11126162 0.16740529 0.0022853755
0003a0 77 2d ad bb a7 8f be 3c 1f 8d 20 3c 02 d7 c9 3d
       -0.005284961 0.023261858 0.009799271 0.098554626
0003b0 a9 82 ae bd d5 2b 85 3d 4f 9d cc 3d 9c 58 84 bd
       -0.08521015 0.06502501 0.09990942 -0.064622134
0003c0 eb 01 b8 3c c4 7a 68 3c 4c 93 63 3c 84 c6 9d bc
       0.022461852 0.014189426 0.013890099 -0.019259699
0003d0 47 52 0a 3d 88 e0 e2 3d 17 c4 c0 3a 1f d9 f7 3d
       0.033769872 0.11077982 0.0014706877 0.121019594
0003e0 61 93 8c be e4 da bd 3b ed 8e db 39 d2 e6 1d bc
       -0.2745619 0.005793916 0.00041877423 -0.009637551
0003f0 24 d7 22 3d 6a db 33 3d 9b 4e 94 3c 07 3d 4f 3d
       0.039755955 0.04391042 0.018103888 0.05059531

transforms.0.coupling_network.hidden.0.bias f4 [8]
000000 c1 07 62 3e 8a 4f 53 3e ae 6d 2e 3e f2 8f b0 3e
       0.2207327 0.2063581 0.17034027 0.34484822
000010 fe 00 da 3d bf f6 7b be 7f 1b 31 3e 00 15 c3 3d
       0.106447205 -0.24605845 0.17295645 0.0952549

transforms.0.coupling_network.output.weight f4 [16, 8, 3, 3]
000000 17 86 00 3c 71 53 5e bd 75 81 4a bc 8d 9f 05 3f
       0.0078444695 -0.054278795 -0.0123599665 0.5219658
000010 85 49 92 3e 75 d5 05 3d 7b 7e da bb a3 5c e3 bc
       0.28571716 0.03267427 -0.0066679097 -0.027754134
000020 3f cf 3c 3c 20 34 86 3c c4 ad d3 bc c3 28 b4 bc
       0.011524021 0.016382277 -0.025839694 -0.021992093
000030 10 5b ad 3c 2e a6 5e 3d c0 8f 65 bc 54 e0 20 bd
       0.021161586 0.0543577 -0.014011323 -0.039276436
000040 ef 8e 0c 3e 7b 45 5c 3c a3 d4 d1 3b 39 d7 e0 bc
       0.137264 0.0134443 0.006403522 -0.027446376
000050 e4 db 16 3c 13 67 a1 3c db 88 8c 3e 74 b0 22 3c
       0.009207699 0.01970247 0.27448162 0.009929765
000060 ec 2b b5 bb 1e 58 3a 3b 2c ff 40 3b 91 1e c1 bb
       -0.0055289175 0.002843387 0.002944897 -0.0058935364
000070 51 9f 46 bc 79 04 27 bc 93 9f 4c bd 17 cf 9e 3c
       -0.012122945 -0.010193937 -0.04995687 0.019385858
000080 ab f9 5f 3c 46 ec 18 3e 0d bb bd bd 27 8a b8 bb
       0.013670365 0.14933881 -0.09264193 -0.0056317034
000090 73 d0 94 3d df a2 04 3d 71 18 14 bc 98 e3 c5 3e
       0.07266321 0.03238189 -0.00903903 0.38650203
0000a0 75 7f f0 bd cf 77 6a bb 7c d3 86 3d 3d 61 51 3d
       -0.117430605 -0.0035776978 0.06583306 0.051118124
0000b0 88 aa c8 3a 04 0f d1 3a 89 7c 3f bd df c7 d2 bc
       0.0015309611 0.001594991 -0.046749625 -0.025730072
0000c0 ce 27 69 3b 14 92 bf 3c 17 0e 8e bd 84 88 46 bc
       0.0035576704 0.023385085 -0.06936281 -0.012117509
0000d0 1b 5c 85 3d d8 fd 44 3d c5 27 c4 bc e0 a4 16 3e
       0.06511708 0.048093647 -0.023944745 0.14711332
0000e0 8b d5 a0 3d b2 97 46 bd 9c 76 89 be 88 82 d6 3b
       0.0785323 -0.04848451 -0.26848304 0.0065463223
0000f0 51 5b 0c bc 4c 1c 3f bd 5d d9 18 3d 7e cc a4 bc
       -0.008566693 -0.046657845 0.03731667 -0.02011704
000100 a3 4b f5 bb bc 61 7d bc b0 0f 39 bd f5 e1 f3 3e
       -0.0074858232 -0.015465196 -0.045180976 0.4763333
000110 66 99 0e bc 1c 5e 6c bd b0 b8 98 bd e3 c5 cb 3a
       -0.008703565 -0.057706937 -0.07457101 0.0015546646
000120 07 78 91 3c e9 2b 80 bd bf a7 17 3c 87 57 0e bc
       0.017757429 -0.06258375 0.009256302 -0.00868786
000130 6c 2a 97 3c 3d bb db bc e7 b5 58 3c 8b 41 03 bc
       0.018452846 -0.02682268 0.013226963 -0.008011232
000140 f8 18 3f 3c c7 b9 24 3b f1 4c 3c bd bb 57 99 3c
       0.011663668 0.0025135146 -0.045971815 0.018718591
000150 39 05 c7 bc ec f2 e4 bd 55 e6 19 be 16 6e 2c bc
       -0.024294483 -0.11179146 -0.15029271 -0.010524293
000160 83 ea 13 3e cc 77 e8 bd 3b a0 c1 bb 89 8d 8d 3c
       0.14444928 -0.113509744 -0.0059089935 0.017279403
000170 01 d9 32 3c 5e e2 84 3d 2f 48 39 3f 27 d6 55 bc
       0.010915996 0.064884886 0.7237577 -0.013051546
000180 06 05 72 3b e9 8f 18 bb 52 3a 9e bc ef 43 1e 3c
       0.0036929264 -0.0023279137 -0.019314919 0.009659751
000190 e6 3e 8e bc 67 9d 9c 3c 0b 39 81 bc 0d af b6 bc
       -0.017363977 0.019118024 -0.01577427 -0.022300268
0001a0 9a 35 42 bc 67 c7 21 bd 50 70 06 be 05 01 c5 3b
       -0.0118536 -0.039496806 -0.13128781 0.0060120844
0001b0 f0 67 fa 3b d5 41 55 3d 9a 22 c7 3b a1 b7 8a 3e
       0.007641785 0.052064735 0.006077123 0.27093223
0001c0 56 fc d7 bd c2 80 e4 3a fa f5 fd bc 8e 40 6a 3d
       -0.10546176 0.0017433392 -0.03100108 0.05719047
0001d0 5b ab e2 bc 9d b8 42 bc fc 6b 58 bc 72 15 f0 3b
       -0.0276696 -0.011884836 -0.013209339 0.007326775
0001e0 c0 95 c6 bc 02 42 b0 bc 2a 96 5a 3e 9c 28 05 bd
       -0.024241328 -0.02151585 0.21346346 -0.03250943
0001f0 b3 f7 a0 bd 17 85 48 bc c1 8b d9 3c 80 c7 fa 3c
       -0.07859745 -0.012238762 0.026555898 0.030612707
000200 9c 2b 34 3d a7 39 8e ba ff 3e da bd d2 9c 7e bd
       0.0439869 -0.0010850922 -0.10656547 -0.062161274
000210 2b 66 99 bb a3 ab a7 bb 76 54 4f 3d 4d fc c2 3c
       -0.004681369 -0.0051168962 0.050617658 0.023801947
000220 0a ce 4a bc b2 6f 55 bd 7f 01 2f bd 75 82 d5 3e
       -0.012378225 -0.052108474 -0.042726036 0.41701093
000230 20 a0 a6 bd 31 11 fa 3b a6 98 81 bd 91 cd c7 3c
       -0.0813601 0.007631444 -0.063279435 0.024390014
000240 59 2d 31 bc 00 4c d6 bc 3f 88 41 3d 2e 2c 2f bd
       -0.010814034 -0.026159286 0.047249075 -0.042766742
000250 2a 3a 0a 3e 6a 0e ea bc 74 4b 1d 3a 85 eb 05 bd
       0.1349875 -0.028571326 0.0006000318 -0.032695312
000260 a3 27 54 3a 26 f8 67 bc 1d 17 f3 bb 3a 6e 63 3c
       0.00080930645 -0.014158284 -0.007418527 0.0138812605
000270 a3 3e 3e bd 24 66 a2 bd cd 70 31 be 6a 8f e0 b9
       -0.046446454 -0.07929638 -0.17328186 -0.0004283146
000280 9a cf b1 3d 69 c0 09 be 52 9e f7 bb a7 e8 2b 3d
       0.08682175 -0.13452305 -0.007556715 0.04196992
000290 49 ff 9c bc bf 30 95 3c 57 47 c5 3e 1b 5f 7a 3b
       -0.019164698 0.01821172 0.3853099 0.003820366
0002a0 f6 e1 57 bc b9 7e 1b bb 37 60 d0 bc 2c 94 ef ba
       -0.013176432 -0.0023726656 -0.025436504 -0.0018278412
0002b0 c9 8a cd 37 18 21 87 3c 15 37 9a bc 36 4c 18 bd
       2.4502531e-05 0.016495273 -0.018825093 -0.037182055
0002c0 e3 1b ac bc 0b 04 0c bd 6c 95 b6 3e a4 ee 4e 3d
       -0.021009391 -0.034183543 0.35660875 0.050520554
0002d0 ba 49 68 3c 19 4d d3 3c 4a 25 02 bb 43 0d 6c 3c
       0.014177734 0.025793599 -0.0019858652 0.014407459
0002e0 50 02 9c bc fc 71 26 3d c3 6e 5a bd fc 4e ef bc
       -0.019044071 0.040636048 -0.053328287 -0.029212467
0002f0 4e 7b 26 bd 37 d4 86 bb 25 fe 68 3a 1d 76 b7 3b
       -0.040644936 -0.0041146534 0.0008887968 0.005598797
000300 b5 5b f4 bc 6b ca 02 3c 13 5a 0d 3f 96 0b 63 3c
       -0.029828886 0.0079828305 0.5521557 0.013857743
000310 89 f4 69 bc 89 c3 63 bd 86 32 a0 3a 3a aa 62 3d
       -0.014279493 -0.0556064 0.0012222088 0.055338122
000320 56 a1 52 3b 31 0e 24 3d e0 f2 3f bd a7 db fb bd
       0.003213962 0.040052596 -0.046862483 -0.12297755
000330 15 7c 5c 3c d0 3b 01 3d 94 7d e1 3c ad 6d 6f 3b
       0.013457318 0.031551182 0.0275257 0.0036533878
000340 59 c5 3c bb ff c2 aa bc b8 2a 14 bc 3b e2 c1 3b
       -0.0028804152 -0.020844935 -0.009043388 0.0059168614
000350 7f 37 a3 3a 45 44 dd bc dd 0d be bd fc 07 e9 3b
       0.0012452452 -0.027010093 -0.09279988 0.0071115475
000360 20 96 2a bb 8c 56 73 bc 00 ad 5f bc ad 3b b6 bc
       -0.0026029423 -0.014852177 -0.013652086 -0.022245253
000370 42 f2 60 3e 28 c2 61 3e f2 c7 95 3c 88 5b f9 3b
       0.21967414 0.22046721 0.018283818 0.0076097883
000380 92 94 9d bc f2 27 16 bc 85 57 98 3c af f1 9e bb
       -0.019235883 -0.009164797 0.01859642 -0.0048505883
000390 61 aa 12 3d fa 1b 18 3d 8b 84 a2 bd 55 70 e3 bc
       0.035807017 0.037136056 -0.07935437 -0.027763525
0003a0 d8 c0 55 3c 14 ff f8 bd 7a dc 8a bb 11 3a 57 3c
       0.013046466 -0.12158027 -0.0042377086 0.013136403
0003b0 ce 05 0a bd f4 73 0d 3b 26 39 7d bd 76 4d 12 3c
       -0.033696942 0.0021584006 -0.06182208 0.008929601
0003c0 6b d9 ab bc f2 c7 30 bb 99 7d 35 bc 80 cf 57 3a
       -0.020977696 -0.0026974645 -0.011077308 0.0008232519
0003d0 b7 6c 3a 3a d7 25 88 3c b3 30 79 3d a8 b3 43 bd
       0.00071115367 0.016619606 0.06083746 -0.047778755
0003e0 3d 7b 29 bc 46 1d 9f bc 4e cb ec 3e 69 37 03 ba
       -0.010344324 -0.019423138 0.4624886 -0.000500551
0003f0 ab 1a a2 bb af 79 85 3d 58 23 b3 bb 52 f1 1a 3c
       -0.0049470267 0.0651735 -0.00546686 0.009456949

transforms.0.coupling_network.output.bias f4 [16]
000000 11 31 f6 bd 82 9a a0 3c a0 3b 24 3e 28 69 bb 38
       -0.120210774 0.019604925 0.1603837 8.936442e-05
000010 69 1b 81 bd a5 e9 1f 3d 05 d1 37 bd 3a 1e 84 3c
       -0.06304056 0.03904118 -0.04487707 0.016127694
000020 09 11 e6 3d d9 98 b3 3e ab 03 81 3e d5 3c fe 3d
       0.11233718 0.3507755 0.2519811 0.124139465
000030 08 90 ca 3d 27 72 89 3d 32 3b aa 3e 7d 9d 80 3d
       0.09890753 0.06711226 0.33248287 0.062800385

transforms.1.weight f4 [16, 16]
000000 eb 1f b2 be 17 01 01 3e ae 7e c8 be e5 17 08 3e
       -0.34789976 0.12598072 -0.3915915 0.13290365
000010 38 f5 c8 bd df d3 66 be 46 b0 bc 3d 5e 2a 9b be
       -0.09812397 -0.2254176 0.09213309 -0.3030576
000020 3c 35 00 be 9a 3e 96 bd 1c 3f b1 be 0c a6 94 bc
       -0.12520307 -0.07336159 -0.3461846 -0.018145584
000030 c0 ae 80 3e dc f6 a8 3d bd 95 ff be 75 77 9e bd
       0.25133324 0.0825021 -0.4991893 -0.07737628
000040 68 b5 ca 3c d3 57 7a be e7 0c 6c be f5 cb 8d be
       0.024744704 -0.24447565 -0.23051797 -0.2769467
000050 8a c2 60 3c 69 5f 13 be 5f 56 0b be 33 b5 f7 bd
       0.013718257 -0.14391865 -0.13607167 -0.12095108
000060 da 30 34 be 95 4a 19 be b6 d3 c8 3d 7c 80 46 be
       -0.1759676 -0.14969857 0.09806006 -0.1938495
000070 72 b9 0e 3f dc 39 be be 39 e0 18 3e a7 65 31 3e
       0.5575172 -0.37153518 0.14929284 0.17323934
000080 13 76 8b 3e 49 a7 65 3e ff a9 8c be 87 0e c6 3e
       0.2723852 0.22427095 -0.27473447 0.38682958
000090 67 a9 c4 be 43 e2 25 be 71 af a7 3e 18 a9 4d be
       -0.38410494 -0.16199593 0.3275104 -0.20084035
0000a0 02 1a 01 3e 7c 25 01 be c8 d0 a7 3d 80 ca b3 3e
       0.12607577 -0.12611955 0.08194119 0.35115433
0000b0 0d 04 4b 3e 1c b0 83 3d 50 70 aa 3e fb e0 62 be
       0.19825764 0.064300746 0.33288813 -0.22156136
0000c0 1d a5 1a 3f ab 4e 0c be 55 d5 32 bd b4 aa 29 be
       0.6040819 -0.13701884 -0.04366048 -0.16569024
0000d0 a6 b2 8a bd 02 18 02 bc 20 a0 3e be 8b e0 00 be
       -0.06772356 -0.007940294 -0.1861577 -0.12585656
0000e0 40 f3 62 be 3e 73 67 bc f1 fa eb be 98 b3 d2 bd
       -0.22163105 -0.014126597 -0.4608989 -0.10288161
0000f0 ae 2a 8a be 9f 04 44 be 57 33 78 be 6e 0f 63 3e
       -0.26985687 -0.19142388 -0.24238335 0.22173855
000100 cb b5 ba bd 60 2d 52 3b 53 b3 de bd 82 75 89 3e
       -0.091167055 0.0032070503 -0.10874047 0.26847464
000110 81 08 8b bd ee f5 ca 3d c6 94 4d 3c 66 32 bd bd
       -0.06788731 0.099101886 0.012547677 -0.09238128
000120 c5 59 17 be fd 30 57 bd 9a b8 52 3f 53 d8 e0 3d
       -0.14780338 -0.052536953 0.8231293 0.109787606
000130 08 d3 4f be 2a 7b 2f be 44 26 1f bf a2 ae 6f bd
       -0.20295346 -0.17136827 -0.62167764 -0.058516152
000140 3c 1c 87 3d 98 e5 e3 3e ef 85 43 bd d0 93 74 bd
       0.06597182 0.44511104 -0.04773515 -0.059711277
000150 2a 5e ec 3c 45 86 4f be eb 84 97 3e af 5a c8 bd
       0.028853495 -0.20266064 0.29593596 -0.097829215
000160 46 e3 55 3e 26 3a 22 be b5 42 9c 3d 17 a0 bc be
       0.20887479 -0.15842494 0.07629911 -0.3684089
000170 ec 7e 18 be e0 fe 48 3e 53 d4 4a bd 35 58 07 3f
       -0.14892167 0.19628477 -0.049518894 0.5286897
000180 bb be b1 bd 81 59 b5 3e b7 03 98 bd a7 50 43 bd
       -0.08678957 0.3541985 -0.074225836 -0.047684338
000190 97 a9 b3 3d 51 ed 8b be c7 4c 60 3e c8 0e 30 be
       0.08772581 -0.27329496 0.21904288 -0.17193139
0001a0 a8 9a 04 3e 01 6e 26 3f 08 43 cb bd bb 86 27 3e
       0.12949622 0.650116 -0.099248946 0.1635999
0001b0 57 fe 9e 3d a0 54 cd be d2 06 a4 3c 98 f0 85 be
       0.07763355 -0.40103626 0.020022783 -0.2616012
0001c0 a8 a0 84 be f8 cc 90 3d aa b8 76 be 9c 6d 12 3d
       -0.2590382 0.07070345 -0.24093881 0.035749063
0001d0 4f 06 e8 3b 10 d0 05 be 25 08 a5 bd c1 68 19 be
       0.00708083 -0.13067651 -0.08058194 -0.14981367
0001e0 f0 29 11 bf ca 2b 06 3e e1 4a 1c bc 1d 74 bb 3c
       -0.56704617 0.13102642 -0.009539337 0.022882516
0001f0 ff cc a1 be 87 59 c8 bc b6 d3 ad 3e 49 d2 e0 3c
       -0.31601712 -0.024456752 0.33950585 0.027444022
000200 4f 2c 3f bc b9 73 aa bd 6d 91 1c bd 51 18 81 3e
       -0.011668279 -0.083228536 -0.038224626 0.25213864
000210 e5 e6 3d 3d 8f f9 06 be fe bb 59 3d 4d 2e 33 3f
       0.046362776 -0.13181137 0.0531578 0.69992524
000220 9f b1 45 be 38 e3 5c 3e da cf 9f 3e ce 8c 5e bc
       -0.19306038 0.21571052 0.31213266 -0.013583375
000230 96 78 e8 3d 3c 67 b6 be 81 47 8b bc 36 0e e3 bb
       0.11351125 -0.35625637 -0.01700187 -0.0069291843
000240 3b 38 39 be 29 c5 87 3e 46 54 96 bd eb 6c 3b 3e
       -0.18087856 0.2651761 -0.07340293 0.18303268
000250 c3 f8 3d 3d 8e 6c 20 bd 22 b4 8e 3e 18 db 1c 3e
       0.046379816 -0.039166026 0.27871805 0.15317953
000260 83 02 1c 3e f3 65 e3 bc 0c b9 b0 3e 0f 0b 01 3f
       0.15235333 -0.027758574 0.3451618 0.504075
000270 04 50 b9 bd 0c 28 b3 bd db 2f 81 3e 90 12 cd 3e
       -0.09048465 -0.08747873 0.25231823 0.40053225
000280 64 7a 29 3e 94 00 ae 3e 2e d9 5a bc 9b f2 e6 3d
       0.16550595 0.33984816 -0.013357444 0.11276742
000290 11 7d 4e 3f 6b f5 b1 3c d8 cf 27 3e 6f 10 96 bc
       0.80659586 0.02172347 0.1638788 -0.018318383
0002a0 f6 70 36 3e af 93 19 3c 5d f1 1a be b4 4a 34 3e
       0.17816529 0.009373589 -0.15131135 0.17606622
0002b0 7d 4b 58 be 21 4a b5 3d 93 0b 43 bb f0 5c 7b be
       -0.21122546 0.088520296 -0.0029761537 -0.24547172
0002c0 e5 63 1f be db 76 32 bd b8 ea 68 bd d5 6e 23 bd
       -0.1556545 -0.04357038 -0.05686447 -0.03990062
0002d0 cf b0 63 be ea 1d 59 3e f4 30 3b 3c ea f0 ee bd
       -0.22235416 0.21202818 0.011425246 -0.116670445
0002e0 99 25 99 3e f9 f1 15 bf ba 10 d5 be c5 e6 8f be
       0.29911497 -0.58572346 -0.41614324 -0.2810575
0002f0 55 06 ff be 5f 50 04 be fe 50 c9 3e e2 93 24 be
       -0.49809518 -0.12921284 0.39319605 -0.16072038
000300 54 de ff be 7b 94 b4 be 43 ac 34 3e 4a 31 3e 3e
       -0.4997431 -0.35269532 0.17643838 0.1857349
000310 df e3 8c 3e 75 b9 cb bd 5a bc 05 3f e4 21 4f 3d
       0.27517602 -0.099474825 0.52240527 0.05056943
000320 0c 8a 8d be 85 42 73 3e 5c 2a 76 3e 99 5d cb 3d
       -0.27644384 0.23755844 0.24039596 0.09929962
000330 c8 3e bd bd 76 ad 94 bd e0 44 b7 bc e8 ea 01 be
       -0.0924049 -0.072596475 -0.02237171 -0.12687266
000340 4b d0 39 3e ae 10 dd 3e 81 b2 3c 3e 60 79 71 3e
       0.18145864 0.43176788 0.18427469 0.23581457
000350 35 d4 d1 3e 08 56 0f 3f 4e d9 0f 3e cf 24 0b 3d
       0.40982214 0.5599065 0.14047739 0.03397065
000360 63 98 42 bd 61 32 45 3d 44 55 9a 3d 58 5a c7 bd
       -0.04750861 0.04814375 0.075357944 -0.097340286
000370 aa 71 bd 3e 19 f5 a5 be e7 f5 bd 3d d6 ce f5 3c
       0.3700078 -0.32413557 0.09275418 0.030005854
000380 aa 8d ab bc d8 0c 2f bd 68 22 13 bf a7 67 d7 be
       -0.020941574 -0.042736858 -0.57474375 -0.42071268
000390 2d dc b7 3d f5 dd 95 3e 38 19 d2 3e 2d 1b 33 3d
       0.08977542 0.29270902 0.41034865 0.04372709
0003a0 73 2f 52 3c 22 39 d7 3c c8 31 29 3e ec d9 e8 3d
       0.012828696 0.02627236 0.16522896 0.1136969
0003b0 14 4a 10 3c b7 73 ff 3c d5 6d 6c bd 1d 7a a2 bd
       0.008806724 0.031183107 -0.05772193 -0.079334475
0003c0 ec 56 26 bd fd cb 9b 3d ab be 12 bf 77 1d 31 3e
       -0.04061024 0.07607267 -0.57322186 0.17296396
0003d0 43 1b 26 3e 05 d2 c3 bd 21 2f 33 3c 49 fd 43 be
       0.16221337 -0.095615424 0.010936529 -0.1913959
0003e0 2b 0d 4b 3e 5a f0 98 3e cb fa b3 bd 72 8a 9e be
       0.19829242 0.29870874 -0.08788069 -0.30965
0003f0 c8 57 61 3e c4 d1 82 bd 53 00 8f 3d 31 c1 b2 3e
       0.22006142 -0.06387666 0.06982484 0.34913018

transforms.2.coupling_network.input.weight f4 [8, 8, 3, 3]
000000 ee c3 b0 3d 1b 2b 69 bd 46 2f 1e bc 2d 5e 08 3f
       0.086311206 -0.056925874 -0.009654826 0.532687
000010 25 83 f5 3d 64 99 8b bc f9 f1 53 bc 47 88 4d 3d
       0.119879045 -0.017040916 -0.012936109 0.050178792
000020 32 e1 de 3b e4 52 02 be de 0f e2 bc da 46 e4 bc
       0.0068017477 -0.12726933 -0.027595457 -0.027865816
000030 46 49 26 3f aa e9 98 bd ee 12 05 bc 0e be 7e bd
       0.64955556 -0.07466443 -0.008122189 -0.06219297
000040 24 ad e5 bc e1 47 b4 3c 59 d4 6e bd f4 16 6f 3c
       -0.028036661 0.02200693 -0.05830798 0.014592875
000050 0c c7 e5 3c 6b ac 83 be 68 be 30 bd ec 9f c5 3b
       0.028049015 -0.25717482 -0.043150336 0.006031027
000060 c4 5d 67 3b 08 e6 98 3d 2f 3c 12 3c ec 13 71 3d
       0.0035303691 0.0746575 0.008925482 0.05885689
000070 81 6a 75 3c 3b f5 01 3d 68 3b 69 3e a0 d5 9a bd
       0.014979006 0.03172801 0.22776568 -0.07560277
000080 9b 4d c9 3c 62 21 13 3d 15 d0 7c bb c9 b9 22 bd
       0.024573138 0.03592051 -0.0038576175 -0.03972796
000090 82 f3 00 bd 66 9a 75 bc 4d 58 1f bd 09 79 4f bd
       -0.031482227 -0.014990425 -0.03890257 -0.050652537
0000a0 7d f0 47 3d b1 0a a9 bc ee 79 81 3c 60 fb a2 3c
       0.048813332 -0.02063498 0.01580521 0.019895256
0000b0 ed 6f 1b 3c 1c 21 ca bd ba c1 2d bd 83 83 81 bc
       0.009487134 -0.09869596 -0.04242108 -0.01580978
0000c0 b3 75 81 be 4b 94 49 bc dd b0 82 bd 55 4e c9 3b
       -0.2528511 -0.012303422 -0.0638139 0.006143371
0000d0 48 7e 7a bb 09 00 06 bd 70 bc ce ba fb 51 7f 3d
       -0.0038222242 -0.032714877 -0.0015772711 0.062334042
0000e0 ef 9f 2d bc 86 48 9e 3e 54 fb 8e 3c fe 20 48 3d
       -0.010597213 0.30914706 0.017453827 0.04885959
0000f0 47 e8 a1 bd 2b 07 79 bd e8 cf be 3c 48 79 0b bb
       -0.079056315 -0.06079785 0.023292497 -0.0021282006
000100 0f 55 da 3d b6 2e 17 3d 7a ab fb 3e 78 9d fa 3d
       0.10660755 0.03690978 0.49154264 0.12237066
000110 23 50 2e 3c b8 41 28 bd 22 b8 db bc 3d 3c 15 3d
       0.010639223 -0.0410783 -0.0268212 0.0364344
000120 33 af 40 bd 19 9a f1 bd 9f 21 57 bb 06 8e d4 bd
       -0.047042083 -0.1179697 -0.0032826436 -0.10378651
000130 03 4c 9e 3b a3 44 0b 3b ca a2 91 3c d4 ce a1 3c
       0.0048308386 0.0021250627 0.01777782 0.019751944
000140 33 8b d1 3b 7a 8c d6 3c c2 07 15 3e b7 9c 4c 3d
       0.0063947677 0.026190031 0.1455374 0.049954142
000150 54 af e1 bc e3 8b 6f 3e ec be 99 bd 34 cd 29 3d
       -0.027549423 0.23393206 -0.075071186 0.041455463
000160 34 ce 38 bc 2a 34 16 bd ef 61 e4 3c ed 4f 6a 3e
       -0.011279631 -0.03667084 0.02787873 0.22882052
000170 9b cc db 3c dc b7 e0 3d 7d 6b 48 3b 1d 9a 7f bd
       0.026830962 0.109725684 0.0030581646 -0.062402833
000180 81 ff 1f bc 4b 6b 0e 3d 47 1c 05 3d 4b 03 56 3c
       -0.009765507 0.03477029 0.03249767 0.013062309
000190 77 71 37 be 2b bd 20 bd a3 26 fc 3c 26 9f c8 3a
       -0.17914377 -0.039242905 0.030780142 0.0015306219
0001a0 8c 7e 5a 3d 65 21 bd bc b8 c1 87 3d 97 d7 48 bd
       0.05334334 -0.023087213 0.06628746 -0.049033727
0001b0 69 1f 39 bc 88 7d 07 be 83 7f 43 bd 92 24 6e bc
       -0.011298993 -0.1323148 -0.047729027 -0.014535086
0001c0 d9 a2 c9 bd 62 d3 96 3b 5c bb fc 3a 85 0c 84 bc
       -0.09845514 0.0046028355 0.0019281912 -0.016119251
0001d0 2f c4 ef 3b bf dc 08 bc c9 52 45 bd de aa 31 bd
       0.007317088 -0.008353411 -0.048174653 -0.043375842
0001e0 89 83 e7 bd 54 50 22 3c c8 b6 ae bc 93 59 c7 3b
       -0.11304385 0.009906847 -0.021327391 0.006083676
0001f0 89 6c 37 3d ed 48 ba bc 33 f0 a1 3d f9 b4 c8 3d
       0.04478124 -0.022739852 0.079071425 0.09800143
000200 c5 d6 69 3d a4 e7 cd bd e8 c2 2e 3e 8c 7a 18 bc
       0.057089586 -0.100539476 0.17066538 -0.009306561
000210 c1 fe 4a bb e9 5f b8 3d ba 1a 35 3c db 04 f7 3c
       -0.00309746 0.090026684 0.011053735 0.030153682
000220 f5 eb 55 3d 2a 61 59 bc 8c ad 0f bd 39 7b c1 3d
       0.05222698 -0.013267795 -0.035077617 0.09447331
000230 9f 65 88 bd 83 36 be bc 04 a7 52 bc 26 16 2e 3c
       -0.06660008 -0.023219353 -0.012857202 0.010625398
000240 d7 a4 10 bd c7 03 e3 bb 7b 6a 01 bd 31 1f 91 bd
       -0.035313454 -0.0069279405 -0.03159569 -0.070860274
000250 6f b1 64 be 7e c1 5b 3d 53 aa ec 3b 42 70 fc 3c
       -0.2233331 0.053651325 0.0072224527 0.030815247
000260 21 01 5d 3c 5b 45 4d 3d 03 78 fb bb 6d 6a 85 3b
       0.013489039 0.05011497 -0.0076742186 0.004071525
000270 74 84 e8 bc 8d 10 3b bd 0f 2f 6b 3d 92 03 82 3b
       -0.028383471 -0.04567008 0.057417925 0.003967711
000280 54 28 31 bd b4 a1 a9 bc 9d 5c 15 3d f8 aa fc 3c
       -0.04325135 -0.020706989 0.036465276 0.030843243
000290 91 75 43 3d 7f 3c e0 bc ca 4a 0f 3e e7 e2 8b 3d
       0.047719542 -0.027372597 0.13993374 0.068303876
0002a0 f7 16 e2 ba ef d8 40 bb fc a0 48 3d 95 0b d1 bc
       -0.0017249276 -0.0029426177 0.04898165 -0.025518218
0002b0 86 8c af bc a1 5f 8f bd b4 5b 22 bd c4 ef 89 be
       -0.021429311 -0.07000662 -0.039638236 -0.2694074
0002c0 64 e9 10 be 7a 19 88 b9 7b 95 c9 bb 97 ab 7d 3c
       -0.14151531 -0.00025958923 -0.0061518527 0.015482805
0002d0 f7 11 dc bc a7 0d a7 3c 12 25 aa bc fd 8f 46 bd
       -0.026864035 0.020392252 -0.02076963 -0.04847716
0002e0 f4 94 08 be d6 57 d0 bc af d6 56 bb 56 ac bb 3c
       -0.13338071 -0.025432508 -0.003278177 0.022909325
0002f0 35 72 d4 bc 85 2f e4 3c 4d 79 d4 3c 1f 05 8a bc
       -0.025933364 0.02785469 0.025936747 -0.016848145
000300 27 a4 e4 3c d2 61 01 bc 08 80 b2 3c 47 c0 9d bc
       0.027910305 -0.007896857 0.021789566 -0.019256724
000310 38 c8 3d bc 38 bf c8 38 f0 7e 98 bc 42 eb 91 3d
       -0.01158338 9.5723604e-05 -0.018615216 0.0712495
000320 e2 0d 57 3d 8d 53 b1 ba 61 c6 96 3e 29 78 ea bc
       0.052503474 -0.0013528928 0.29448226 -0.02862175
000330 44 7e 94 bd 38 5d 75 bd 22 e1 1e bc 70 f8 6a 3d
       -0.07250646 -0.059903353 -0.0096972305 0.057365835
000340 00 84 89 3b 91 cf 29 bd a9 e5 52 3d ab 10 29 bd
       0.004196644 -0.041457716 0.051488552 -0.04127566
000350 b6 1a c8 3b 61 ea 66 3a f2 22 59 3c 90 5c 83 3d
       0.0061067 0.0008808729 0.0132529605 0.06414139
000360 10 ac 38 bd 8b 08 d5 bb 7a 33 2a 3d 33 95 ae bd
       -0.045085967 -0.0065012625 0.041552998 -0.08524551
000370 cf 50 81 bc 8f 58 b4 bd 84 b0 6d 3c f3 4f a7 bd
       -0.015785603 -0.08805954 0.014507417 -0.08169546
000380 f3 19 95 3d 92 06 37 3d 9d 1c 9e bb df 8f 8e b9
       0.0728034 0.044684 -0.0048251883 -0.00027191543
000390 6b 56 05 bc 1b bc 60 bd 73 c4 ba bb f1 a9 f5 3c
       -0.008138279 -0.05486689 -0.005699688 0.029988261
0003a0 17 d8 3b be a8 d8 20 bb 0e c9 a8 3c eb d8 5a 3d
       -0.1834415 -0.00245432 0.020603683 0.053429525
0003b0 ec 40 08 3c 0d 39 ef bb fb 0b d5 3d 38 86 03 bd
       0.00831626 -0.007300502 0.10402676 -0.032110423
0003c0 00 ee 6f bd 5d 06 02 3d 65 e3 71 bc ec 30 bf bc
       -0.058576584 0.03174435 -0.014763688 -0.023338757
0003d0 4b d8 ff bb 61 9c f0 3a 07 4d c1 bc bc 69 6f be
       -0.0078077666 0.0018357151 -0.0235963 -0.23380178
0003e0 aa 3b 02 3d 08 fd af bc 9e 2c 1b bd ec 2c 96 bd
       0.03179518 -0.02148296 -0.037884347 -0.07332787
0003f0 44 ae f2 bc ef 01 c8 bc 44 a5 ac 3c 93 34 b1 bb
       -0.029624112 -0.024414985 0.021074899 -0.0054078787

transforms.2.coupling_network.input.bias f4 [8]
000000 c8 81 3d 3e 5b 39 eb 3e 7a e3 82 3d 89 69 7b 3e
       0.18506539 0.45942196 0.06391044 0.24551977
000010 35 ae c9 3d bf 63 01 3e e2 ee e1 3e 01 1d 9c 3d
       0.098476805 0.12635706 0.44127566 0.076227196

transforms.2.coupling_network.hidden.0.weight f4 [8, 8, 3, 3]
000000 d5 8a a9 3c c6 03 e7 3c 82 e2 de 39 8e 05 b1 3c
       0.020696083 0.028200042 0.000425119 0.021609094
000010 9f 00 67 bd ef 1e 10 3e 95 3e b0 bc 73 4d 8f bc
       -0.056397077 0.140743 -0.021514216 -0.017492985
000020 4f 6f be bd 51 97 aa 3c 13 21 99 3d 3b d5 72 bc
       -0.09298574 0.020824106 0.074770115 -0.014821346
000030 0f 98 14 bd 48 03 d7 3d 76 bb bb bd b1 93 5e bc
       -0.036277827 0.10498673 -0.09166615 -0.013585017
000040 c8 6b 91 3c 60 2c 1a bd ab ca bd 3c 91 47 c1 3c
       0.01775159 -0.037639976 0.023167929 0.023593696
000050 ea 63 b8 bc 58 47 cd 3b f0 43 67 3e f3 da 03 3d
       -0.02250858 0.0062646084 0.2258451 0.032191228
000060 ae 8a 58 bb 77 d1 10 3d d2 74 93 ba f1 3f 3d 3b
       -0.0033041644 0.03535601 -0.0011250025 0.0028877223
000070 10 5d db bb bc 5c 96 bd 55 ca 13 3d 94 e7 32 be
       -0.0066944435 -0.073419064 0.03608163 -0.17471153
000080 d0 35 0a be 92 71 a3 3b d7 22 7c ba 9c 53 53 3d
       -0.1349709 0.004987904 -0.00096182287 0.051593408
000090 f6 1f 49 bc e5 3c 6e bd 65 72 f9 3b 72 99 11 38
       -0.0122756865 -0.058163542 0.007612514 3.47136e-05
0000a0 15 87 08 be eb ff b6 3d 44 e0 bb 3b 9b 9f 5e bc
       -0.1333278 0.08935531 0.0057335217 -0.013587858
0000b0 2c 82 9d bc 39 c2 53 bd 93 d4 46 be 87 57 90 bd
       -0.01922711 -0.051698897 -0.19417028 -0.070479445
0000c0 8e d1 ec bc 0d 53 b0 3d 64 fd c7 3c 18 ba 64 bc
       -0.028908517 0.08609591 0.024412818 -0.013960384
0000d0 54 4c 21 3c 4f be bd bc aa 35 fa 3b 2d 81 34 3d
       0.009844858 -0.023162035 0.007635792 0.044068504
0000e0 2b 42 d9 3c 71 25 57 3d 1c 3b 89 bd b4 c4 16 bd
       0.02652081 0.05252594 -0.06700727 -0.036808684
0000f0 f7 ea 80 bc 12 67 fd 3e eb 07 22 be 57 e1 24 3c
       -0.01573704 0.494927 -0.15823333 0.010063491
000100 66 4d 34 bd 1c 76 c1 3c c8 da 42 3d 3f fe 13 bd
       -0.044019125 0.02361589 0.047571927 -0.03613114
000110 fa cd 5e 3d 9e 2d 7a bc d6 fa 1c bb 4a 14 32 bd
       0.054395653 -0.015269665 -0.002395322 -0.04347638
000120 c9 83 e3 bc 00 71 18 bd 40 8d 8a 3c dd 19 54 3c
       -0.027772801 -0.03721714 0.016913056 0.012945619
000130 40 dc 8c 3d 74 10 97 3d 41 ef 4a 3b 0c d6 2d bd
       0.06877947 0.07376185 0.003096536 -0.04244046
000140 01 36 c3 bd bb 5f 22 3c a9 0f 51 3c 73 67 f7 3c
       -0.09531785 0.009910519 0.012760081 0.030200696
000150 ab af 4b 3c 33 ad 38 3e 35 57 41 bd 06 fb 82 3d
       0.012432019 0.1803482 -0.047202308 0.06395535
000160 97 88 e5 3d 87 43 6d bd e9 52 2d bd 75 0f 1d bd
       0.11207693 -0.057925727 -0.042315397 -0.03834482
000170 fd 80 81 3c 71 1b 9c 3d cf b2 6b bd 36 ae 48 3d
       0.015808577 0.076224215 -0.057543572 0.048994265
000180 4a 0f 69 3c b2 38 7c bd f3 72 10 bd 17 13 db 3c
       0.014224837 -0.061577506 -0.035265874 0.026742501
000190 4a 89 18 3d d1 ea 5a 3d cc 3e af bd 6a d0 9f bc
       0.037240304 0.053446595 -0.085568994 -0.01950856
0001a0 d1 bf 17 be af 61 00 bd cd c6 ab bd 83 f2 3d bd
       -0.14819266 -0.03134316 -0.083875276 -0.046373855
0001b0 a1 0f 97 bd de 7c 19 bc fe 95 8a 3b 63 5b 24 3d
       -0.07376028 -0.00936815 0.0042293062 0.040126216
0001c0 1d 89 8c be 9c cd 72 bc 5d da 36 bd b4 d4 23 3d
       -0.2744836 -0.014819529 -0.04464184 0.03999777
0001d0 d2 0c c6 3d 12 d9 b5 3b 7a b5 bc 3c d7 e8 bd bc
       0.09670414 0.0055495584 0.023035754 -0.023182316
0001e0 cf 2c 76 3d 83 8d 09 bf f8 7d 2c be e2 0f c4 3c
       0.060101327 -0.53731555 -0.16844928 0.023933355
0001f0 eb 67 d3 3c f3 e2 ad bb fa 0e 10 bc 0b 2f 59 bc
       0.025806388 -0.0053065955 -0.008792633 -0.013255845
000200 8d 21 d4 3c 8e 6a c2 ba d2 cf 3b 3d a3 73 aa 3d
       0.025894905 -0.0014832781 0.04585249 0.08322837
000210 59 5d e8 bc 77 8e fa bc 31 6e 51 bd bb 0d af 3d
       -0.028364824 -0.03058551 -0.051130477 0.08547541
000220 f2 cf f1 bc c2 69 33 3c 88 d2 af 3c 5f 71 13 3d
       -0.029518101 0.010950508 0.021462694 0.03599679
000230 24 8c 25 bd 07 5c bd bc 83 f3 3d bd 6e 70 1f 3c
       -0.04041685 -0.023115171 -0.04637481 0.009731395
000240 c5 e1 30 bc cc 38 fa bc aa d9 1f 38 74 00 b8 3c
       -0.010796015 -0.030544661 3.811127e-05 0.022461154
000250 c9 64 35 3e 9b b6 93 3e 62 70 91 bb 1e 43 c6 3c
       0.17714228 0.28850254 -0.004438446 0.024201926
000260 78 56 4d 3d af 05 d7 3c 77 07 f6 bc 82 06 75 bd
       0.05013129 0.026247827 -0.030032856 -0.05982066
000270 6b 6b b9 bd c6 a7 0c 3e 97 e8 94 bd 4c be 06 bd
       -0.090536915 0.13735875 -0.072709255 -0.032896325
000280 02 ea 51 bb fa 92 99 bd c6 f3 dc 3c 6a 05 35 3d
       -0.0032030349 -0.07498737 0.026971709 0.044194616
000290 d0 58 9c 3c 19 61 99 bc 2c 9a 25 bd 13 71 31 3d
       0.019085318 -0.018723058 -0.040430233 0.043320727
0002a0 ed 04 fa bb 36 4f 31 bd 5a 7e aa 3c 2f 7f e2 bc
       -0.0076299817 -0.043288432 0.020812202 -0.027648536
0002b0 52 38 87 3b e2 13 cc bd 4c 8f 50 3d 14 03 c7 3c
       0.004126587 -0.0996473 0.05091791 0.02429346
0002c0 6e e0 8d 3d 71 23 5d 3c 1f 07 d6 3c 34 4c b2 3b
       0.06927572 0.013497219 0.026126442 0.005441213
0002d0 06 0f e9 3b 18 87 bd bc c9 22 75 bc 86 88 74 3d
       0.0071123866 -0.023135707 -0.014961907 0.05970051
0002e0 49 3f 61 3d 68 6f cc bc 80 40 53 3c d3 fc 6f 3c
       0.054991994 -0.024955466 0.012893796 0.01464768
0002f0 d7 c4 91 3d 6f 3b 9f 3d af c3 9e 3e 61 42 40 bd
       0.07117622 0.07775008 0.3100867 -0.046938304
000300 c8 c5 aa bd af 5a b4 3d cb 1d c5 bd c2 06 23 bc
       -0.08338505 0.08806359 -0.09624823 -0.009950342
000310 ff 74 88 ba 0b bc 2d bd bc 1d 53 bc 28 4c 84 bc
       -0.0010410844 -0.04241566 -0.012885507 -0.016149595
000320 35 16 c5 ba b6 c7 91 bc 0d 31 f5 bc 72 bd 0e be
       -0.0015036525 -0.017795425 -0.029930616 -0.13939455
000330 56 05 25 3e d3 d1 22 3e 89 25 58 3d 0c 74 89 3d
       0.16115317 0.15900354 0.05277017 0.06711587
000340 23 1b f1 bd c8 3f 35 bd 09 bd 14 3d 13 d9 5b bd
       -0.11772754 -0.04425028 0.03631309 -0.053673815
000350 59 a4 31 3d b4 37 99 bc 76 62 44 3d 03 a9 c1 bc
       0.043369625 -0.01870332 0.047945462 -0.023640161
000360 f7 59 32 3d 9f 03 4e bd c8 99 6c bc 8b 50 ac 3b
       0.04354283 -0.050296422 -0.014440961 0.005258625
000370 69 ea a4 be 18 8f ab 39 ce cd 03 3b cb 76 31 3d
       -0.3221009 0.00032722275 0.0020111683 0.04332618
000380 cb 06 65 bd 41 ff 19 3d bb 3d 47 bd 5a 4f 42 bc
       -0.05591468 0.037596945 -0.048642855 -0.011859739
000390 31 e3 94 3e f2 83 fc 3d d5 5d af bc c4 06 9a 3d
       0.29079583 0.12329854 -0.021407047 0.07520822
0003a0 08 f0 0a 3d 7d e6 ab 3d 21 a0 fb 3d 89 1a 23 3c
       0.033920318 0.083935715 0.122864015 0.009955057
0003b0 94 e7 c1 3c 87 8d 08 bc 2a 86 b6 bd a7 6d c1 bc
       0.023669995 -0.008334524 -0.089123085 -0.023611857
0003c0 e1 9b 05 bc b3 16 d4 3c 16 e8 b0 bb a3 9f 48 be
       -0.00815484 0.02588973 -0.0053987605 -0.19592147
0003d0 80 42 3d 3a 1a 66 bf bc 6e da 93 bd b9 51 b5 3d
       0.0007219687 -0.023364116 -0.072193965 0.08853478
0003e0 bb c9 2d 3b 16 5e 0f bd 99 f5 25 bd e4 19 dd bc
       0.0026517946 -0.035001837 -0.040517423 -0.026989885
0003f0 04 0a 7c bb fd 67 2a 3d 1f 4b 86 3c 7a c1 9a 3d
       -0.0038458118 0.041603077 0.016393242 0.07556434

transforms.2.coupling_network.hidden.0.bias f4 [8]
000000 ec 82 c2 3e 43 75 b3 3e bb 31 60 3d d0 29 77 3e
       0.3799051 0.350504 0.054734927 0.24137044
000010 12 c4 f7 3d b1 da dc 3e f7 83 3e 3d e9 08 60 3e
       0.12097944 0.43135598 0.04651257 0.21878399
