saved_models/model.pth (torch, 79782 bytes, 21 tensors)

transforms.0.coupling_network.input.weight f4 [16, 8, 3, 3]
00000000: 95d5 6f3b 574b 0cbd 9795 45bd 0c7a 9e39
00000010: ec1e 1ebd 8427 4eb9 55e9 11bd 5e15 2fbe
00000020: 9506 b83d 92d3 7bbc 739a 753c f708 7ebc
00000030: 1a37 bdbc 8b77 3bbd 8256 cd3c f664 0abd
00000040: 7693 9fbd 8770 0d3e 925b 24bc 0367 ec3c
00000050: 2db4 d03c 9b29 cdbc 3dc6 6b3d d517 083d
00000060: fc4e a8bd 568b ca3d b0ea 47bb ce22 3fbc
00000070: d791 d93b 1cc9 903b 3d05 89bb 164c c63d
00000080: 01c0 4c3c 48df 56be 0ec9 813d 52df cfbc
00000090: b0fc a23c 04fa 3e3d 88dc 463d b16d 213d
000000a0: a894 38be afcc a5bc 194f f7bc 6a55 4d3e
000000b0: 5142 a63d f018 ba3c 3464 97bd 5bc9 123d
000000c0: 011c d8bc 21bf 4dbe 62a4 8b3c 4d5d bd3c
000000d0: 1249 633e 6088 e7bc e708 73bd c797 163c
000000e0: b5a8 ccbb a993 bc3c 18f4 b23d 088b 273c
000000f0: 67ad e5bc bb9a 173e f49c 03bd c4a5 18bd
00000100: 9cee 9d3d 5543 19bd 2941 a6bd e324 f53d
00000110: 2bd0 5e3c cad9 6bbc a78b f23d 6169 b4bc
00000120: 2587 68bc 5e8f a03d 9df5 873d 62bd b3bd
00000130: a3ec 613b e6f9 813d 1de8 0abd a0ac ee3d
00000140: 7498 0d3e 9bba 91bd d658 153e 1d3e 923d
00000150: 0017 b83d 53e0 d0bc 4b8a dc3d d299 97bc
00000160: 7ad7 0c3e 7ae3 833c 701f bcbb 2ce4 273e
00000170: 8ffd 21ba 65f4 353e 2cfb 91bd 1da2 2e3e
00000180: ae05 aa3d ac8a 413e 0992 e8bc 5d95 c53d
00000190: 1668 063e 133e 1abe 435f 173d 3328 35bb
000001a0: cd16 84bd 7c30 363d d4e6 383e 6420 64bd
000001b0: 7877 50bd 2ddd 2f3d dcbe 933d 2b8a 8abd
000001c0: 561e 6f3d 42f4 713d 7caa cabc b876 adbc
000001d0: 5e08 65bd 7ffb 3e3d 1d19 f43c 995b 123e
000001e0: b3bc 7d3d 65e5 2a3d 9b4b 013e ba00 c739
000001f0: 79de 41bd 4326 15bd d37f 133e 4caf 023c
00000200: bc79 513e ff4f 343e 0d9c a03d 2e52 a13d
00000210: b4a9 53bb e79d 59bd 6aa5 78bc cbe7 a93d
00000220: 2ed2 fc3c b2b8 72bd 60f8 933d bede db3d
00000230: 6c1f debd a37c d8bc 003f bcbd 431c 843c
00000240: 3104 97bc f306 d9bd be98 1b3d b169 eebd
00000250: eab6 adbd 3974 403c acdb 6c3d 3e16 c23d
00000260: 2cff 27bc e840 edbd d658 b9bd b7fb 1f3d
00000270: f80a 31be f959 2abe 2ffb 08bb f016 8c3d
00000280: 7f48 703d 8b59 c53d 074f b7bd 8967 b0bd
00000290: 0936 2b3d 5776 0cbe 568c d6bd 4463 1abd
000002a0: 560b f83d 23de 1a3d 686e 8e3d dcfb dabd
000002b0: b65d 38bd 8242 133d 60b5 1cbd 8c5f fb3b
000002c0: d68e c2bc cd92 dd3d bb05 883a 5681 ab3c
000002d0: 3d0d d9bd 7d54 c8bd 7112 3fbc e27e 783d
000002e0: 0949 05be ba54 07bd c053 63bc 5825 a6bd
000002f0: de47 bf3c 23ad 56be cb6b 23be cad3 143d
00000300: 70f5 f6bd 2495 6f3c f9c9 03be a28e 61bd
00000310: e3cd b1bd 6134 6a3c dfad b3bd 16e8 4bbe
00000320: 4831 9fbc 0afc 14be 2e58 983d 4913 893c
00000330: 93d0 18bd e97b 8ebd 3df9 72bc 37bc a0bd
00000340: 3bc7 c2bd 0184 5d3c 3ad8 73be 75eb b33c
00000350: 669e 1e3d d137 25bd 8ce8 28bc 290b 8cbd
00000360: 13b9 28bc 7116 0dbd 79ca 2dbb 3e44 d03b
00000370: 580a 1e3d a678 14bd 7832 05bd 71db 063e
00000380: aa15 b0bb f2bf b7bc 8935 f33c 8718 c2ba
00000390: 1e88 063d f8de ce3d d4d6 503d aaca 103c
000003a0: a173 6e3d 35e9 c5bc 74f7 9ebc 6f7d 723c
000003b0: 3be9 6ebd b95b f9bc 3a2e b43d 8b7e f13b
000003c0: eab3 303e 0d8f 79bd 8df5 3d3a 1e6f be3c
000003d0: 5b40 a0bc 94f8 cebc ee9f fcbd d9a5 563d
000003e0: 1cea 25bc baeb 423e f3cc 8dbd 34e8 2fbc
000003f0: 93ce 94bc 2616 463d 10c0 a03c d1de 3d3d
0.003659581 -0.034251537 -0.048238363 0.0003022704 -0.03860371 -0.00019660412 -0.035622913 -0.17097995
0.089856304 -0.0153702665 0.014990437 -0.015505067 -0.023097564 -0.045768302 0.025065664 -0.03378769
-0.07791798 0.13812457 -0.010031598 0.028857714 0.02547654 -0.025044253 0.0575621 0.033225853
-0.0821819 0.098898575 -0.0030504875 -0.011666013 0.0066397 0.0044185054 -0.0041815327 0.09682481
0.012496949 -0.20983613 0.06337176 -0.025375042 0.019895881 0.046625152 0.04855016 0.03941125
-0.18025458 -0.020239202 -0.030189084 0.20052114 0.081181176 0.02271697 -0.07392159 0.03583656
-0.02638054 -0.20092441 0.017046157 0.023115778 0.22195843 -0.02826327 -0.05933466 0.00919146
-0.0062456974 0.023019629 0.087379634 0.010226019 -0.028036786 0.14805119 -0.032132104 -0.03726746
0.07711527 -0.03741773 -0.08117897 0.11969926 0.013599436 -0.014395187 0.11843043 -0.022022905
-0.014192377 0.07839845 0.06638644 -0.08776356 0.0034473322 0.063464925 -0.033912767 0.11654019
0.13827688 -0.0711567 0.1458467 0.071407534 0.08988762 -0.025497591 0.10768565 -0.018505964
0.13754073 0.01609968 -0.0057410523 0.16395634 -0.0006179446 0.1776901 -0.07127985 0.17054029
0.083018646 0.18900555 -0.028389947 0.096476294 0.13125643 -0.15062742 0.036956083 -0.0027642369
-0.064496614 0.044479832 0.18056804 -0.055694953 -0.050895184 0.04293554 0.07214138 -0.06764635
0.05837854 0.059070833 -0.024739496 -0.021174774 -0.055916183 0.046626564 0.029797131 0.14292754
0.061947536 0.041722674 0.12626497 0.0003795678 -0.047331307 -0.036413442 0.1440423 0.007976364
0.20456594 0.17608641 0.07842264 0.07877003 -0.0032297196 -0.053129103 -0.015176157 0.08296164
0.03086194 -0.05925817 0.07225108 0.10735844 -0.10845837 -0.026426619 -0.09191704 0.016126757
-0.018434616 -0.105970286 0.037987463 -0.11641253 -0.08482154 0.01174646 0.057826683 0.094768986
-0.010253709 -0.115846455 -0.09050147 0.039058413 -0.1728934 -0.16635884 -0.002090167 0.068403125
0.058662888 0.096362196 -0.0895062 -0.08613498 0.04179958 -0.13717018 -0.10475986 -0.037692323
0.12111537 0.037809502 0.06954652 -0.106925696 -0.045011245 0.0359521 -0.03825891 0.007671302
-0.02374975 0.10819016 0.0010377684 0.020935696 -0.10598228 -0.0978174 -0.011662112 0.06066788
-0.13016142 -0.033039786 -0.013874948 -0.081125915 0.023349699 -0.20964484 -0.15959089 0.03633479
-0.12058532 0.01462296 -0.12870015 -0.055067666 -0.08681848 0.014294715 -0.08773398 -0.19912753
-0.019432679 -0.1454927 0.07438694 0.016732829 -0.037308287 -0.06957228 -0.014829931 -0.07848399
-0.095106564 0.013520242 -0.23812953 0.02196286 0.03872528 -0.040336434 -0.01030935 -0.06838066
-0.010298031 -0.03444523 -0.0026518388 0.0063557914 0.038584083 -0.03624787 -0.032518834 0.13169648
-0.0053736763 -0.022430394 0.029688613 -0.0014808335 0.032844655 0.10101122 0.050986126 0.008837381
0.05821574 -0.024159053 -0.019405104 0.0148004135 -0.058327895 -0.030439245 0.087978795 0.0073698214
0.17256132 -0.06092744 0.0007246368 0.023246344 -0.019561937 -0.025265016 -0.12335192 0.05240426
-0.010126617 0.19035235 -0.069238566 -0.010736514 -0.018164909 0.048360966 0.019622833 0.046355072

transforms.0.coupling_network.input.bias f4 [16]
00000000: 7519 553e 32cd 55be 69e9 b33e d6ef 14be
00000010: f852 04be 79b8 893e 0090 cebd 4e8a a5bd
00000020: b5ca 2f3e 7558 6b3e f880 ca3c c717 abbd
00000030: 9444 5fbe 200f 43be f56f d1bd 2b77 1d3e
0.20810492 -0.20879057 0.35139015 -0.14544615 -0.12922275 0.26898554 -0.100860596 -0.0808302
0.1716717 0.22982962 0.0247197 -0.083541445 -0.21803504 -0.19048738 -0.10226432 0.1537749

transforms.0.coupling_network.hidden.0.weight f4 [16, 16, 3, 3]
00000000: 0241 7e3d 57cd 823d cded f4bb f352 913d
00000010: fa65 293d e72c a83c 977a 683c 3a5e da3d
00000020: 8908 933b 1ece 233d c0cd 90bd e5cc 99bc
00000030: a42a c43d c84c e43c d6b7 18bd 0651 3d3c
00000040: 9ff6 3bbb 3f08 383d 20fd 3a3d 5cb8 e3bd
00000050: 1f78 ec3c 0f2b 13ba 522a 4bbd 389e 78bc
00000060: e655 683d 43ea 753d fda0 94bd 0c38 d03b
00000070: 85a6 a03d efa1 a3bc e876 b43c 04f6 6b3d
00000080: dca3 75bd c338 19bc d2dd 9c3d 6e7c b73c
00000090: 1c1a 10bc 161a 42bd e139 4ebc d623 173d
000000a0: c03a eb3c 575f 41bd 2176 d33d 88f3 4ebd
000000b0: de4a ef3c 11e0 39bd a7bd b5bc fedb 093b
000000c0: b05e 513d 8fd5 b93d c35f 063b bced 7d3d
000000d0: 5d0c 1dbd 2b15 7d3d 44ee 36bd 5c3b 91bd
000000e0: f755 dcbd 8da9 1cbd 09c4 aa3b 0191 4f3d
000000f0: 7edb 483d aa4d 5bbd 8cde e4bb 58d3 093c
00000100: 7008 c33c 3a98 373d 159f 40bd 3958 5a3d
00000110: 3599 963d 001e 2f3c bf9c c4bd 02a3 4cbd
00000120: 81ad e0bb be4e ffbc a208 8f3d 8ba8 b53d
00000130: 8d8d 8f3c 5d27 193e 187a 95bc 6464 233d
00000140: 3b58 8fbc f948 7cbb 5d3d 243d 9ad9 09bc
00000150: 55fe 5cbd 23ba ab3c 6051 b4bd 4101 85bd
00000160: 895a d53d 4603 f63c 55e6 0d39 d037 cebc
00000170: 2817 98bd e362 663d f248 1e3a a7a1 c5bc
00000180: e1d5 ac3d a965 dbbd 6b74 f73c af9a 9fbb
00000190: 6999 593d d432 693d cf24 8fbd 122f 373d
000001a0: 8874 093e a54d e6bd 6385 413d 4747 97bc
000001b0: dbc3 7c3d db17 32bd 8bc5 2dbd 0578 923e
000001c0: 9a78 b0bd bbfd bbbc 938c 1abe 4b76 153e
000001d0: e9d7 003d ca09 81bd 821f a5bd 7481 21bd
000001e0: fc88 0d3d bd85 3a3c f1fc 303d e118 a6bd
000001f0: 6326 88bd bf1f 09bd f659 283b d3d7 51bd
00000200: c6b2 a7bb 4e2a 37bd f6c5 06be faf5 513d
00000210: ced1 3cbc e76c 6c3d ea4f 703d 2e2d d13b
00000220: da61 cabd 68d7 313e beaa 2c3d 600b a8bc
00000230: 5ff7 0a3e 24a4 38bc f914 423c 8e58 44bc
00000240: 0774 933d 3ebc 143e cfee 5c3d 5743 4a3d
00000250: e391 43bd 75f6 06bd f741 723d 3f39 13bd
00000260: bcfb 753a c8b6 8f3c dc29 6d3d c25b b03c
00000270: 5379 6bbd 3f8e cd3c 34d7 dfbc 21c7 d7bc
00000280: a91c 08be f299 743b dcd9 a4bd 8da9 adbd
00000290: 393d 843d fb43 c23d 39f3 003d 12d5 1f3d
000002a0: 78c0 6f3d 139a 6abe 96aa 84bc 6575 853c
000002b0: efb4 fdbc 62e4 b8bc 4f22 0b3c ca90 b53d
000002c0: db0b f4bb b58a bc3b db43 62bd 1687 0e3d
000002d0: 1f91 2fbc 0916 893d 4fac d4bb 5df0 ac3d
000002e0: db0d 053c c30a 94bd 8bd2 6d3c 8a67 913b
000002f0: 0294 363d 8943 abbd 92e9 003a d341 373d
00000300: 20da ac3d 12c3 89bc 810d e43d 286a d03c
00000310: 314f ccbc 6b0f 38bd c568 b5bd fa52 0bbd
00000320: 9f44 82bd bfe1 8a3d 4183 c63d 98c4 9dba
00000330: 7f8c be3c 15c0 973d 058a 513d 1eec 48bb
00000340: 86eb 823c 9ff3 ef3c f72d b33d 4b76 e03d
00000350: 68f8 3a3d 4cfa a8bc 0172 623d 4163 5dbd
00000360: c4d8 213d 33bd 81bd 6228 b6ba a9c8 1d3b
00000370: 73f7 30bd ee42 853d fcb1 62bd b5d3 c93d
00000380: 77a8 e13c 0a22 6dbb 7164 043d 1e53 bd3d
00000390: f850 d73d 2f4e 98bc 3b05 9f3d 86c7 f23d
000003a0: 61f9 dc3c 7fa9 063c 1f17 443d fed5 6e3d
000003b0: 4173 0cbc b0dd 9f3c 5700 773d c188 7a3c
000003c0: 688e ecbb 352d 21bd 9a15 5d3d b22a 10bd
000003d0: 1652 43bb e67f 36bd 24a8 2f3d 568c 62bc
000003e0: 6dd4 c93c 53ed 12bd 4f1b 313c 8dd2 c73d
000003f0: 1b0b d0bc 86d1 073e 0b6a 03bc 54bf e7bd
0.062073715 0.06386822 -0.007474637 0.070958994 0.041357018 0.020529224 0.014189384 0.106625035
0.0044871015 0.03999149 -0.07070494 -0.01877446 0.095784456 0.027868643 -0.037284695 0.011554962
-0.0028680933 0.04492974 0.045651555 -0.11119148 0.028865872 -0.0005614021 -0.049600907 -0.015174441
0.056722544 0.060037863 -0.072572686 0.0063543376 0.07844261 -0.019974677 0.022029355 0.057607666
-0.05997072 -0.009351912 0.07659496 0.0223982 -0.008795287 -0.04738816 -0.012587042 0.03689941
0.028714538 -0.047210064 0.10325266 -0.05052522 0.029210504 -0.045379702 -0.02218516 0.0021035667
0.05111569 0.09073936 0.0020503856 0.0619943 -0.03834187 0.061787765 -0.04466082 -0.070914
-0.10758584 -0.038247634 0.0052113575 0.050675396 0.04903745 -0.053540863 -0.0069845375 0.008412205
0.023807734 0.04482291 -0.047026712 0.053306792 0.07353441 0.010688305 -0.096002094 -0.049960144
-0.006856621 -0.031165477 0.069840685 0.08870038 0.017523551 0.14956422 -0.018246695 0.03989066
-0.017498126 -0.0038495644 0.040097583 -0.008413697 -0.053953487 0.02096278 -0.088045835 -0.0649438
0.10417659 0.030030858 0.00013532613 -0.025173098 -0.07426292 0.05624665 0.00060380914 -0.024124933
0.08439232 -0.107127495 0.03020688 -0.0048707346 0.05312482 0.05693324 -0.069894426 0.044722624
0.1342336 -0.11245278 0.047246348 -0.018466605 0.06171022 -0.04347978 -0.04242472 0.28607193
-0.08616753 -0.022948137 -0.15092687 0.14595906 0.031455908 -0.06300695 -0.0806265 -0.039430097
0.034554467 0.011384425 0.043209974 -0.08110214 -0.06647947 -0.03347754 0.0025688387 -0.051231217
-0.005117747 -0.04471808 -0.13161454 0.051259972 -0.011524631 0.057721045 0.058669962 0.0063835597
-0.09881945 0.17367327 0.04215502 -0.020513237 0.13570927 -0.011269603 0.011845821 -0.011984004
0.07199865 0.14524934 0.053938683 0.049380627 -0.04774655 -0.032949883 0.05914494 -0.035943266
0.00093835196 0.017543212 0.05790125 0.021528129 -0.05748875 0.025092242 -0.027324297 -0.02634007
-0.13292183 0.0037323204 -0.08049366 -0.08479605 0.0645699 0.094856225 0.031481955 0.03902156
0.058533162 -0.22910337 -0.016194623 0.01629133 -0.030970065 -0.022569839 0.0084920665 0.08865507
-0.0074477023 0.00575384 -0.055240493 0.034796797 -0.010715752 0.06693656 -0.0064902673 0.08444283
0.008120979 -0.07228615 0.014515529 0.0044373916 0.044574745 -0.08362491 0.0004917617 0.04474051
0.084400415 -0.01681665 0.11135388 0.025441244 -0.024940105 -0.04493658 -0.08857874 -0.03401468
-0.06360745 0.06781339 0.096930034 -0.0012036739 0.023260353 0.074096836 0.051157016 -0.0030658315
0.015981447 0.029290972 0.087490015 0.109600626 0.045647055 -0.020627163 0.055284504 -0.054049734
0.039513364 -0.06334915 -0.0013897533 0.0024075902 -0.043204736 0.065069064 -0.05534552 0.09854833
0.02754615 -0.003618362 0.03232235 0.09244369 0.105134904 -0.018591968 0.077646695 0.11854462
0.026974382 0.008219122 0.047873612 0.058309548 -0.008572401 0.019514889 0.06030306 0.015291394
-0.0072191246 -0.039349753 0.05397568 -0.035196967 -0.0029803566 -0.044555567 0.04288496 -0.013827404
0.024637425 -0.03587086 0.0108097335 0.09756956 -0.02539592 0.1326352 -0.008020888 -0.1131579

transforms.0.coupling_network.hidden.0.bias f4 [16]
00000000: f2a2 fc3d 362a b7bd 1f77 86bd 2ce1 ed3d
00000010: a913 513d d094 3f3e cf75 09bd 9f8c b23d
00000020: 4092 bdbd d408 8c3d df15 9c3d 315d f33c
00000030: 64ba ac3d 73fa e73d 022a 0c3e 6fc5 473e
0.12335767 -0.08943598 -0.06565689 0.11615214 0.05104414 0.18709111 -0.033559617 0.087182276
-0.092564106 0.06837621 0.07621359 0.029707523 0.08433989 0.11327066 0.136879 0.19508909

transforms.0.coupling_network.output.weight f4 [16, 16, 3, 3]
00000000: 3109 91bd 05e8 8ebc a6b9 fe3c b6b3 09bd
00000010: bf40 5a3d bc6a 033e 2ca2 7cbd 013e d1bc
00000020: 4899 ef3c 6e70 d53a fbc6 1d3c f368 52bd
00000030: b881 9dbc 161d e5bd 2b5d 923d 1333 82bd
00000040: 2083 363d 2551 863d c296 a93c 5071 a13c
00000050: e2a9 2cbd 496e 8ebd de31 8f3c af91 d33c
00000060: fef9 a3ba 4bb2 66bd 2a75 2fba e318 d8bc
00000070: 4c22 81bd 2cf7 7a3d 14fb d83d b3d4 403c
00000080: d7b9 c83c 4b4c 4e3d 31da 82ba 4d0f 8ebc
00000090: 09ad d1b9 42d2 553d 68db 663d fa13 0fbc
000000a0: 96c8 99bd e766 0c3b 7736 12bd 7278 48bd
000000b0: 4d6f f7bb d64e ecbb 7aa6 493f f1f9 cbbc
000000c0: c1d1 5f3d 6f21 24bd fe2c 07be 18f1 92bd
000000d0: 56e6 083c dd19 073d 3bb1 a5bb d580 ecbd
000000e0: 8708 a93d 4a35 c9bd fad1 283d a484 a9bd
000000f0: 16f2 19bd a000 94bb 06b7 87bd a25e 623e
00000100: f984 573d 6d2d 433b 8c59 c5bd 3476 b63d
00000110: 5851 d23d f679 1e3d 35c4 c43a ec35 b3bc
00000120: ef13 03bc cfdc 1cbd 85a3 43bc 326a 51bc
00000130: 3935 173c 2d77 33bd 8c88 a13d 7776 383d
00000140: c23e d83c 845c cf3b 094e 41bd 6afc bcbb
00000150: cd1f 303d 9181 b3bd b717 753d 97a2 2dbd
00000160: f89f 60bd f355 25bd 023a 4c3b c7a1 913c
00000170: c57a 273d 8be6 953d f59d 903d fb7e 813c
00000180: 547b b4bc 588d 8f3d 5577 fdbc 9d79 42bc
00000190: 92c4 16bd 45ad 32bc 1694 c33d 863c 4e3d
000001a0: dcbd a1bd 20b6 1dbd cdd8 373c 30d6 78bc
000001b0: b017 60bc 86ba 36bc 00ef 1f3d 8381 08be
000001c0: ee19 063b 3970 a0bd 568c 9f3e aa54 91bd
000001d0: 63b7 80bd fa77 523c c9b2 0c3d 8a7e 2bbd
000001e0: 15d7 423b 8a1d bb3d 4de7 f03a 829f 3bbd
000001f0: 54f7 aabb 6488 44bc 7a92 6b3d 0bd9 803b
00000200: d2ef dcba 9729 fdbc 8235 d8bd 3353 923d
00000210: 4219 723d c95a c0bb 6804 b7bb cff0 e9be
00000220: 220c edbc f1a9 7f3c d255 30be d460 b63c
00000230: a55c a1bc c315 28bd 2dd7 8c3a 3100 413d
00000240: 4ea6 393d 96c1 85bd 5c45 2e3d f6c5 74bd
00000250: 7a3f 7e3c 38ad ff3d 1491 1c3d c851 bebc
00000260: 3411 f2bc b562 b23c dd8b 00bd 7fa5 ecbb
00000270: 93c0 73bc 419d 913c 930a e73b a936 93bb
00000280: 6424 0bbd 8203 ac3d 134d 343d 48fb c2bc
00000290: 79c3 04bd 23bd f2bd 1d3d bfbd 9956 563d
000002a0: 46f4 183d b302 4b3c 6f85 12be ddcc 293c
000002b0: cee6 01bd 3d5a c13d ff51 313d 5e43 bb3c
000002c0: db3d 723a 3be6 a23d cbd1 64bd c20c de3b
000002d0: 4800 b63c 90cc e93d e40b 9b3c bd19 523c
000002e0: 3a32 53bd 029e 48bd ad76 97bd 0abf 533d
000002f0: 7375 a9bd d45e 4c3d aeeb 3f3e c29e c4bb
00000300: 930b c13c 8e5a 16bd 4cfc dabd 6d7a 93bb
00000310: 94f8 033d 4418 ce3c adfe 083c 78d5 27bc
00000320: 7d5d 92bd 8b6d 66bd e261 ec3d e2c6 9f3d
00000330: cbc9 073d c106 0c3d 0da3 97bd 7814 a43d
00000340: 6e5a 023c 0102 a03c d4f7 7c3d b5ed 573e
00000350: 0d95 373d 7cbc 9cbc 644b 69bc a139 a0bc
00000360: a30f 21bd f397 42bd 40ce ecbb 53bd bd3b
00000370: 593b 40bd d83a 2fbd 3c4b 4abc 6e99 983c
00000380: 4fba 193d 8704 ca3c e0dd 86bd e8eb 833d
00000390: 1377 723b a295 08bd 3f61 ba3d 13e7 27bd
000003a0: 9c18 45bd 9089 10bd 7d62 d5bc ee21 99bc
000003b0: 1a86 3a3d 3629 743c 26ef 03bd 2673 6bbd
000003c0: 9d51 aabc 2ea7 f93c 0a57 063d 7b86 98bc
000003d0: eaf7 a7bc 1b9b f33c 57e6 68bd 3b8d 4f3d
000003e0: 1538 573c eb9f 59bd 3d92 0c3d 1a1f a13d
000003f0: 6726 043d 874e ec3a e8b4 3b3c 76f8 8bbd
-0.07081831 -0.01744462 0.031094383 -0.03361865 0.053284403 0.12833685 -0.061678097 -0.025542261
0.029247895 0.0016284117 0.00962996 -0.05136962 -0.019226894 -0.11187188 0.07146677 -0.06357398
0.044558644 0.06558446 0.02070177 0.019707352 -0.0421542 -0.06954629 0.017479833 0.025826303
-0.0012510417 -0.056322377 -0.0006693179 -0.026379054 -0.0630537 0.061270878 0.10594764 0.011769461
0.024502678 0.050365727 -0.0009983239 -0.01734128 -0.00039992508 0.05220247 0.056361586 -0.00873279
-0.07508962 0.002142364 -0.035696473 -0.04894299 -0.00755111 -0.0072115464 0.7876965 -0.024899455
0.054643396 -0.040070947 -0.13200757 -0.07174891 0.008355698 0.03298365 -0.005056528 -0.1154801
0.082535796 -0.09824617 0.041215874 -0.08277252 -0.037584387 -0.004516676 -0.06626706 0.22106412
0.052617047 0.0029781715 -0.0963622 0.08909264 0.10269421 0.03869053 0.0015012088 -0.021876298
-0.008000358 -0.038296517 -0.011940842 -0.012781667 0.009228998 -0.043814827 0.078873724 0.045034852
0.026397113 0.0063281674 -0.04719356 -0.005767395 0.042999078 -0.08764947 0.05983707 -0.042391386
-0.054840058 -0.04036517 0.0031162505 0.017777337 0.040888567 0.07319363 0.07061378 0.01580762
-0.022031464 0.07009381 -0.030940691 -0.011869815 -0.036808558 -0.0109055685 0.095497295 0.05035069
-0.07897541 -0.038503766 0.011221123 -0.015187785 -0.013677523 -0.011152869 0.039046288 -0.13330655
0.0020462233 -0.07833905 0.31161755 -0.070962265 -0.06284978 0.012845987 0.03435019 -0.041868724
0.002973025 0.091364935 0.001837948 -0.045806415 -0.005217472 -0.011995409 0.057512738 0.0039321235
-0.001685614 -0.03090362 -0.10557081 0.07144775 0.05910612 -0.0058701974 -0.005585242 -0.45691535
-0.02893645 0.015604482 -0.17220238 0.022262968 -0.019697497 -0.04103638 0.001074528 0.047119323
0.045324616 -0.06531064 0.042546615 -0.059759103 0.015518064 0.12484211 0.038224295 -0.023232356
-0.029549219 0.021775583 -0.031383384 -0.007221877 -0.014877456 0.01777518 0.007050821 -0.0044926
-0.03397025 0.083991066 0.044018816 -0.02380146 -0.03241298 -0.11852481 -0.09337828 0.05232868
0.037342332 0.01239078 -0.14308713 0.010363785 -0.031714253 0.0944104 0.04329109 0.022859272
0.00092407846 0.07954069 -0.055864137 0.006776423 0.022216931 0.1141597 0.018926568 0.012823519
-0.05156157 -0.048978813 -0.073956825 0.05169586 -0.08274355 0.049895123 0.18742248 -0.0060003707
0.02356509 -0.036707453 -0.10692653 -0.0045006783 0.032219484 0.025158055 0.008361501 -0.010243766
-0.07146738 -0.056256812 0.11542107 0.07801606 0.03315143 0.03418613 -0.07404146 0.080117166
0.00795613 0.019532206 0.061759785 0.21086772 0.04481988 -0.019132845 -0.014239166 -0.01955873
-0.039321553 -0.04750819 -0.0072267354 0.0057903915 -0.0469316 -0.042780727 -0.012347039 0.018627848
0.037531193 0.024660362 -0.06585288 0.0644148 0.0036997243 -0.033345826 0.091005795 -0.040991854
-0.048119172 -0.03528744 -0.02604794 -0.018692937 0.045538045 0.014902404 -0.03221049 -0.05748286
-0.02079087 0.030475225 0.03279785 -0.018618813 -0.020503957 0.029737046 -0.056860294 0.050671797
0.01313593 -0.053131025 0.03431915 0.0786726 0.032263186 0.0018028774 0.011456706 -0.068344995

transforms.0.coupling_network.output.bias f4 [16]
00000000: 15ad 9d3b 0583 e73d 321a 01be f72f 9f3d
00000010: 8786 14be bae3 1bbd b4cf 783b a924 28bc
00000020: 5f4a 76bd 7cb9 443c 724a 15bd 3523 88bb
00000030: 4de4 94bc cfc1 5dbd 0b65 71bd 1d7d 91bb
0.0048118928 0.11304287 -0.12607649 0.077728204 -0.14504443 -0.038058974 0.0037965598 -0.010262647
-0.06012952 0.012007114 -0.03644795 -0.0041545876 -0.018175269 -0.05413991 -0.058934253 -0.0044399635

transforms.1.weight f4 [16, 16]
00000000: 5658 17be 0525 c2be a5f6 00be dad1 1a3e
00000010: d2a4 75be d5b3 c03d 009c c3be 19e3 033e
00000020: 2eb1 423d 7e46 68bb 2c63 e33e 9937 9d3e
00000030: 101d c83e ffee a5be 8ac2 8f3e d4c5 323e
00000040: cc72 ba3e e316 0bbe d603 b93e e440 67be
00000050: 16e7 8c3a 90dd 933e 94ce aabe 5721 f3bc
00000060: 3b08 9dbe d153 1b3e 2878 3e3e 9341 98bd
00000070: 1044 88be 913e 0abe 3d4b 41bc b142 de3e
00000080: b3d3 143e b49f 123e 278e 9cbe 2ba0 9f3e
00000090: d1b2 60be 503f aa3e 7de9 873d c8da 4a3d
000000a0: 7a84 153d 54df 9abd 6084 96be 2493 913e
000000b0: 9601 cbbe e3a9 753d 9e3a c13e 8020 f33d
000000c0: f887 353e d624 afbd f38e 693c 9990 a1be
000000d0: 0b43 e5bd ba60 4ebe b99b 403e 3ff2 69be
000000e0: 19ba eb3e fd0e 053f bbee b3be 8b32 f13d
000000f0: a446 773b 531f 52be 293f 813e dc4d 0cbe
00000100: eb31 bebd be64 38bd 51b1 c2be 9731 f7bc
00000110: 6340 b7bd 598e fb3d a4c8 663e 1987 e5be
00000120: 113a fbbe 3b55 f83d 7f74 a9bc 2a27 223e
00000130: 5422 043f e45e 4bbe 7c51 4ebe 6f14 133e
00000140: 5052 733c c214 a63e 575c 2abe 6929 f83c
00000150: 4e62 74bd bd46 31be 72d3 ed3d 3729 98be
00000160: d8a7 cf3e aa20 1bbe eed9 cf3e 73e1 8fbd
00000170: 3d88 503c 3637 7cbe a95a d1bd f8a5 183f
00000180: 91a0 28bd 707c 3fbe e641 163e 0952 b8be
00000190: 5f44 88bd 48f7 bf3e 11d6 2fbe 0aad c1be
000001a0: 0c14 123e 56b0 aabe 3044 75be ead2 783e
000001b0: 777c 183d fa58 3a3e a097 f9bd 91de 9e3d
000001c0: c012 a4bd 9c0d af3d c910 79be c758 02be
000001d0: ef6e 7d3c 250c 7f3e 2506 79be c6b3 d2bc
000001e0: 515d 813d 474b 71bd 2c6a 1a3e 42ff 26bf
000001f0: a868 883d 918c 7dbd e68e 553e d622 02be
00000200: 5bef febe 4343 163f 6463 493e d52b d83d
00000210: afad 513e eba4 c9bd d482 d2bd 8a18 3b3d
00000220: 6442 b2bd 3e71 083f 2e19 e43c cd17 3a3e
00000230: f12a 9bbc 449e 62be 0568 b73e a7aa 513c
00000240: d4dc 813d 1fe6 883d ac6c 7b3e cfd0 9dbd
00000250: fbf1 c03d 8d66 593e ba08 303e a920 6a3e
00000260: cd76 04be a9f9 31be 3c61 9ebe c13a 89be
00000270: 39be cb3e ad6f e1be 9a85 233e b2d5 693e
00000280: 71d2 d1bd f3f5 b83d d010 9dbe ab30 90be
00000290: 6345 423e c8b8 b1be 6957 503e 3b65 a83e
000002a0: cf32 33be eb1d ffbd 69d6 b8bd c4e1 c239
000002b0: 5358 403e a1aa e63e 749d e23e 347e b23e
000002c0: 02d4 533e ba54 8ebe 4a42 b93e ef49 3a3e
000002d0: e451 a5be 3bce 93bd 8ffc 30be 00ba 8dbe
000002e0: a439 6ebe 9c31 203d dd39 b6be ecd0 b2be
000002f0: 8608 523d 8219 3c3d 7109 983d 139b b23e
00000300: 4722 bd3e 7d06 0fbd c079 d83e 5f84 28be
00000310: e79a 4abe 58f9 ff3e 1ebd 7e3e 24f5 f9bd
00000320: 51d0 6e3e 9ab1 63be 62c4 223e 2d7d 773e
00000330: cc87 563e 371e 693e 124d 043f 6e5c b3be
00000340: 0dd1 0c3f 9f47 b33e 6cb6 613e 1fd8 cbbc
00000350: 9c21 453e 51ee 113c 7fda 96be cb8c eb3a
00000360: 11dd 873d 4c0f 943e 4d68 193e 8c2f c33d
00000370: 5196 c23e dd8f 673d eb0f dcbd 9cbf c0bd
00000380: 58fa c1bb 22c0 ff3d edea 0fbe ee23 4dbd
00000390: c828 993d 2d1b 71be c88c 0abe 9415 b1be
000003a0: 0110 c4bd a718 cabe 40e8 69bd 02f6 2cbc
000003b0: f8cb cd3c 0d2e 17bf 81af 5e3e bb88 eabe
000003c0: 6f4f 83bd 1692 debe 58ae 873d b252 813e
000003d0: baed 2b3f 5872 be3c 22c3 7a3e ea4b f7be
000003e0: 6270 1bbe e834 a93d c390 973b 8296 623e
000003f0: 97b4 6c3e c67a 8b3d d371 4cbb 93d4 f2bc
-0.14779791 -0.3791887 -0.12594087 0.15119115 -0.23988655 0.094093 -0.38204956 0.128796
0.047532253 -0.0035442407 0.444116 0.3070648 0.39084673 -0.32408902 0.2807811 0.17458278
0.36415708 -0.1358295 0.3613574 -0.22583348 0.0010750021 0.28879976 -0.33360732 -0.029678984
-0.30670342 0.15168692 0.18600523 -0.07434382 -0.26614428 -0.1350043 -0.011797723 0.43410257
0.14533882 0.14318734 -0.30577204 0.31176886 -0.21943213 0.3325143 0.06636331 0.049525052
0.036503293 -0.07562128 -0.2939787 0.28432572 -0.39649647 0.05997647 0.37740034 0.11871433
0.17727649 -0.08551948 0.014255273 -0.31555632 -0.11194428 -0.20154086 0.18809403 -0.22846316
0.4604042 0.51975995 -0.35143074 0.117772184 0.0037731314 -0.20519762 0.252435 -0.13701576
-0.09286865 -0.04501795 -0.38025907 -0.030175013 -0.08947828 0.1228301 0.22537476 -0.44829634
-0.4906774 0.121256314 -0.020685432 0.15835252 0.5161488 -0.19860417 -0.20148271 0.14363264
0.014851168 0.32437712 -0.16636787 0.030293183 -0.059664063 -0.17312141 0.116125956 -0.29718944
0.40557742 -0.15149179 0.40595955 -0.07025423 0.012727794 -0.24630436 -0.1022237 0.5962825
-0.041168753 -0.18699813 0.14673576 -0.36000088 -0.06653666 0.37493348 -0.17171504 -0.3782733
0.1426546 -0.3333766 -0.23951793 0.24299207 0.037228074 0.18198004 -0.12187123 0.07757295
-0.08011389 0.08547518 -0.2432281 -0.12729178 0.015468343 0.24906977 -0.2431875 -0.025720488
0.06316627 -0.05890968 0.15079564 -0.6523324 0.066605866 -0.061901633 0.20855293 -0.12708601
-0.4979199 0.58696383 0.19666821 0.10555235 0.20476411 -0.09845909 -0.1027886 0.0456777
-0.08704069 0.53297794 0.027844038 0.18173142 -0.018941374 -0.22130686 0.35821548 0.012797034
0.06340948 0.06684517 0.24553174 -0.07705843 0.09421154 0.21230526 0.17190829 0.22864021
-0.12935944 -0.17380394 -0.3093356 -0.26802638 0.39793566 -0.44030514 0.15968934 0.22835425
-0.10245217 0.09031286 -0.3067689 -0.2816213 0.18971781 -0.3471129 0.20345844 0.32889733
-0.1749985 -0.12456878 -0.090252705 0.00037170772 0.18783693 0.45052055 0.44260752 0.3486191
0.20686343 -0.27799016 0.36183387 0.18192266 -0.3228904 -0.0721707 -0.17283843 -0.2768097
-0.23264176 0.03910981 -0.3559102 -0.3492502 0.05127766 0.045922764 0.07423676 0.34883937
0.36940214 -0.034918297 0.42280388 -0.16456746 -0.19785653 0.49994922 0.2487683 -0.1220496
0.23321654 -0.22235718 0.15895227 0.24168845 0.2095024 0.22765432 0.516801 -0.35031456
0.55006486 0.3501558 0.22042245 -0.024883328 0.19251102 0.008906917 -0.29463574 0.0017971037
0.06633962 0.2891792 0.14981194 0.09530553 0.38005307 0.056533683 -0.107452236 -0.094115466
-0.005919736 0.12487818 -0.14054461 -0.050083093 0.074784815 -0.23545523 -0.13530266 -0.34586775
-0.09573365 -0.39471933 -0.057106256 -0.0105567 0.025121674 -0.5905464 0.21746637 -0.45807442
-0.06411635 -0.4347083 0.0662505 0.25258404 0.67159617 0.023247883 0.244885 -0.48300105
-0.1517959 0.08262044 0.0046254112 0.22127727 0.23115765 0.068105265 -0.0031195774 -0.029642379

transforms.2.coupling_network.input.weight f4 [16, 8, 3, 3]
00000000: fb37 ea3c 6c85 833d 2330 d8bc 1ea5 c33d
00000010: 13fd a23c 5007 183c ca07 1cbc 0425 bc3d
00000020: 010c d43c c375 2cbd 1fc3 ae3d d731 5cba
00000030: e301 043d 913c 003d b7cb babd e3a5 bcbd
00000040: 8e1a 923d 0fb8 113e 16eb 223d 1f6c 4f3d
00000050: 13d4 2c3b b28d ecbb 566c 70bd b21d 78bc
00000060: 15e6 af3c 446c 3c3d 1491 a03d 98b9 0e3e
00000070: 3b6e 213e 3680 c3bc ef13 1b3e 267d b3bd
00000080: cc3e c43d 6ee1 f2bc 030a 673d 0e2d f73c
00000090: 5e8e 0a3d c674 793c ee0f 163d d94b 303e
000000a0: 8e17 fa3c 4da1 5cbd 8799 fabd 34c3 3c3d
000000b0: 6023 dbbc 5784 843d 7a87 083e 7eed 383d
000000c0: abf9 10bc b83f d2bd b119 99ba f5a1 363d
000000d0: 8864 debd eb0a 173e 7b04 76bd 46b0 8cbd
000000e0: e77a a1bd 40ec c73d 8f92 1f3e b05a 30be
000000f0: ae50 54bd 7e73 c53d d72a aabc 2e82 0d3d
00000100: 044d bebc 6d04 babd 1eb9 f33c 2463 d9bd
00000110: c48f 79bd 3a54 b3bd e083 dd3d a2e5 5dba
00000120: be96 5bbc 1579 2c3d cee0 fd3c 2381 283e
00000130: 8ed1 493d c806 4ebc f0c0 f5bc d347 49be
00000140: b96d 3c3d 52b7 fe3c 5e13 483c cd21 433d
00000150: db72 0f3e 9bba 903d 32ea 10bd b912 32be
00000160: baed 9c3e 71c7 e53b 7d7f 30bd 21b9 58bd
00000170: 3a83 72bb 3be8 f73d 7bc9 ae3d 97c5 b53b
00000180: 059d 263d 3e92 653d 3b1c 553c d51d b1bd
00000190: e15a ac3c 8e98 3a3d 391e 28bd c54f 793d
000001a0: 7233 be3d 9fd6 77be 625b a6bd 1725 38bd
000001b0: e3f4 473c 8eec 5b3d 058c 85bd f15e 8c3d
000001c0: 51d1 f1bc d670 b6bd 407e cbbd 6258 12bc
000001d0: 2bb3 813d 54e5 8c3c 65c8 273e 193a bfbb
000001e0: 8e1a 563e 0dd3 bc3d de9c 0fbd d359 d23d
000001f0: e2a2 bb3d 830a 7cbd 2f72 a93d 2155 e73b
00000200: ca4f a63d 36f1 7dbc e1ba 0a3d 9c88 a03c
00000210: 8561 6fbe 3542 16bc b2d4 33bd f25e 55bd
00000220: d963 9abd a96a 6a3d 6322 41bd 1a2a ad3c
00000230: a0f0 9bbb 920f f1bd ef5d 30bc 65e4 733c
00000240: eb8a b3bd 6d42 6a3d 15b7 ab3d 4898 6f3d
00000250: b934 06bf e15b fbbd 70ee b5bb ac30 2bbe
00000260: 8b57 bdbd d79a dd3b fb27 ca3d fc11 adbc
00000270: 8ed0 313d 3fb7 71bd 7a7b 543e e4ab 9bbd
00000280: aaa5 143e 9dc1 693d 32b6 d13b c59b 9b3d
00000290: 6e97 8c3b 2c5d 483d ffd0 54be dcac f73c
000002a0: 0af6 083d 7da6 933d 7211 453d 8384 273a
000002b0: 4b6e 0cbd 4102 7a3d 032c 14bd 65d4 b33d
000002c0: fc6e af3c 6d6b 91bd 2b9b b53c a70e 86bb
000002d0: 7a27 17bc 3ed9 d83c 9094 063c 9f92 723c
000002e0: cf6c 583e ca85 563d df50 193d 201f 14bc
000002f0: 13a8 0fbd 315d 463d 0740 20bc 2e03 4abd
00000300: 3181 bbbc d1b0 24bd f191 c4bd af3e 803d
00000310: 4181 403e 577c c23d 5669 5bbd 45f8 493d
00000320: c655 b13c 4f1e c43d 9a56 a93e 16f0 fabd
00000330: bca6 78bd bddc dcbd 72fb 31bc 9bf7 7abc
00000340: e0f9 273d 9d9a 893d 07de 65bc 7cbe 0a3f
00000350: 49c1 9bbc a32f 68bc 593b f7bc 20cf 4dbd
00000360: 7114 e8bd 0f04 fb3c 3d3a 523d 628c f43d
00000370: c1f0 053e 0d47 17be 09ea 6f3d bb23 1b3e
00000380: 4b5e cfbd c6a3 c7bd 5ee7 7a3d f6a7 983c
00000390: 4436 553e f03c 273e 7075 133e f7a7 703d
000003a0: bd4f c73b e93c 2b3d 51aa 16bc 5308 013c
000003b0: 3a78 253c 1163 0a3e 784a 4fbd efe9 a93d
000003c0: 2771 97bc fcaf 81bd 8cee 36bd a6aa 0f3e
000003d0: d174 52bd 7022 7e3d ec43 9bbd 110b 7b3d
000003e0: 8082 073c 2b26 43bd e065 173d aae6 273d
000003f0: 6aff 903c 8188 373d 09bc cdbc c5be 163e
0.028591147 0.064219326 -0.02639014 0.09552978 0.019896066 0.009279087 -0.009523341 0.09186748
0.02588463 -0.042104494 0.0853331 -0.00083997607 0.03222836 0.03130776 -0.09120887 -0.09211328
0.07133971 0.14230369 0.039774977 0.05064022 0.0026371523 -0.00721904 -0.058697067 -0.015143799
0.021472016 0.046001688 0.078401715 0.13937986 0.15764706 -0.023864847 0.15144323 -0.087641045
0.0958229 -0.029648509 0.056406032 0.030172851 0.03382718 0.015225595 0.036636285 0.17216434
0.03052881 -0.053864766 -0.12236314 0.046084598 -0.026750267 0.06470554 0.1333293 0.045148365
-0.008848588 -0.1026606 -0.001168063 0.044588048 -0.108590186 0.14750259 -0.060062867 -0.06869559
-0.0788477 0.09761858 0.15583251 -0.17222095 -0.051834755 0.09641169 -0.02077238 0.034547977
-0.023230083 -0.090828754 0.029751357 -0.10614613 -0.06092812 -0.08756299 0.10816169 -0.0008464699
-0.013402639 0.04210766 0.030990984 0.16455512 0.049272113 -0.012574859 -0.029999226 -0.19656305
0.046003077 0.031093273 0.012211649 0.047639657 0.14008658 0.07066842 -0.035379596 -0.17389955
0.3065012 0.0070123007 -0.043090332 -0.052910928 -0.0037004487 0.12104841 0.08534523 0.005547236
0.04067709 0.05604767 0.013007219 -0.08648268 0.021039428 0.045555644 -0.041044448 0.06086709
0.09287156 -0.24202965 -0.08122899 -0.044957247 0.012204382 0.053692393 -0.06520847 0.06854046
-0.029518755 -0.089082405 -0.0993619 -0.008932205 0.06333002 0.017199196 0.16385038 -0.005835783
0.20908567 0.09219942 -0.03506171 0.10271039 0.09161927 -0.061533462 0.08273732 0.0070597087
0.08120687 -0.015499404 0.033869628 0.01959639 -0.23377044 -0.009171058 -0.043904014 -0.0520925
-0.07538576 0.057230625 -0.047151934 0.02113824 -0.0047589093 -0.11770548 -0.010764583 0.0148859965
-0.08766731 0.057192255 0.083845295 0.058494836 -0.524242 -0.12273384 -0.0055521056 -0.16717786
-0.09245213 0.006762843 0.09870907 -0.02112674 0.043411784 -0.059012648 0.20750228 -0.07601145
0.14516321 0.05706941 0.006399893 0.0759807 0.0042905128 0.04891698 -0.2078285 0.030233793
0.033437766 0.072094895 0.04811234 0.000639029 -0.03428487 0.061037306 -0.036174785 0.087807454
0.021415226 -0.07100568 0.022168716 -0.004091102 -0.009225721 0.026470777 0.008214131 0.014805465
0.21135257 0.052373685 0.03743064 -0.009040624 -0.035072397 0.048428718 -0.00978089 -0.04931944
-0.022888752 -0.040207688 -0.095981486 0.06261956 0.18799306 0.09496372 -0.053567253 0.049309034
0.021647345 0.095760934 0.33073884 -0.12252824 -0.060705885 -0.1078429 -0.010863172 -0.015317823
0.041009784 0.06718943 -0.014029986 0.54196906 -0.019013064 -0.014171514 -0.030179666 -0.050246358
-0.11332024 0.030641584 0.05132507 0.119408384 0.13080122 -0.14773197 0.058572803 0.15150349
-0.10125407 -0.09748034 0.061255805 0.018634778 0.20821482 0.1633184 0.14400268 0.058753934
0.0060825036 0.041806135 -0.00919588 0.00787552 0.010099465 0.13514353 -0.05060813 0.082965724
-0.018486572 -0.063323945 -0.04466109 0.14029941 -0.051380936 0.06204456 -0.075813144 0.06128985
0.00827086 -0.04764382 0.03696239 0.040991463 0.017699916 0.044807915 -0.025114076 0.1472121

transforms.2.coupling_network.input.bias f4 [16]
00000000: ecab 58bd 78a9 05be 93f0 a53e 412c d83d
00000010: 0ed5 933e f0c4 2d3e 5901 2ebe 442c b23d
00000020: 172f 773b 6d53 c53e c76b a2bd 1250 193e
00000030: 81f6 d33d 3ffa 6c3e f0f1 bcbd d5ac 5bbc
-0.052898332 -0.13052928 0.32410106 0.10555316 0.28873485 0.16969657 -0.16992702 0.08699849
0.0037717277 0.3854021 -0.07930713 0.1497195 0.10349751 0.23142336 -0.092258334 -0.013407906

transforms.2.coupling_network.hidden.0.weight f4 [16, 16, 3, 3]
00000000: bfc5 a73d 7757 f3bc ed44 b1bd a2ba 32bd
00000010: cdd5 273d eb5a 85bd cbd4 a13d b614 19bd
00000020: 3d04 31bd f903 2dbd 9b9e 03bd 5d83 653d
00000030: efba 0dbd 83e1 aebd cd05 1d3d 139b 90bc
00000040: e300 ce3d 6db5 b6bb 827b 4b3b 8e75 9abc
00000050: fc64 0c3d 4e56 993d 81c2 2abe e058 033d
00000060: f6be 363d c38b 57bd 2438 70bd 1175 c43d
00000070: 9b51 b13d 02fe c73d d494 9fbc 278a 20bc
00000080: 320d 533d 4295 d33c 58ec 6ebd 7c06 f2bd
00000090: 0912 903c bc60 67bc 5cc9 57be 8383 9fbd
000000a0: 07af 3cbf c17a 59bd c0f3 2cbd 990a c83d
000000b0: 63cb 22bd ccc5 833d db18 3b3d 1a29 c43d
000000c0: 300d 60bd e4ec 2dbd e590 053e b190 e4bc
000000d0: bac6 053d e04a 4fbc 87aa dbbc 82fc a73c
000000e0: 2617 a23c 76fa f73c 1d8d 5f3a ef13 a83c
000000f0: 7d47 9a3d 4d46 f7bc 9013 51bc af41 b63b
00000100: bb28 efbc 536c a03d 6b3f 483d dc31 51bc
00000110: b2a1 313c 86c5 2dbd a6d9 65bd 467d 443d
00000120: ebda 87bc 9e8b 8a3d 81ac 8b3d 065a 45bd
00000130: 413e 923d cae5 25bd f912 edbc 534d 253c
00000140: 48ce 99bd 3543 2abe b6cb a13d 4555 603d
00000150: fac0 233e ffdf 293e adc2 713d b9cb 6cbd
00000160: 6956 4dbc 0cd6 003c 08ba 11bd 4a78 3dbc
00000170: ab34 adbd a09d 663d 8e89 52bd 029a c5ba
00000180: 4e50 ab3b 91af cc3c 68e7 15bd fc83 cf3c
00000190: 1510 4d3c 92c8 e3bd fac6 39bd d1a0 973d
000001a0: 3f92 b33d 374d 5b3c 99a6 07be 967a 0bbb
000001b0: b77d 19bd 65dd b5bc 041d 213d f1be eabc
000001c0: e3a3 44bb afa9 dbbb dedc 0c3d d32a ab3d
000001d0: 9b56 333d 391e 0a3d 96e1 ef3c 6b9a 993c
000001e0: 8bb4 473d 895d 043e 0d15 a0bb 2a72 22bc
000001f0: 50a2 893c dde9 a6bc 581d 7f3c 24cc 94bb
00000200: 5f48 d5bc d9e6 783d 52d2 a03a a078 6e3c
00000210: e416 4ebd d72a 9f3b d006 d93c 513c a93b
00000220: 28e6 5cbd 75b7 7abd f39b 12bd 1e04 dfbd
00000230: 635f 8d3d 1d8a 6fbc b31f 95bc 60f2 793d
00000240: 2c3c bbbc 9c01 17be f1a3 b43d fa55 02be
00000250: 3656 aebd 3478 07be 876d 6c3d de78 9c3d
00000260: c62b 163d 61fa 063e e4b4 333e 1921 bcbd
00000270: a149 38be d2ee 92bc 734b 87bd ea4c 5e3d
00000280: f399 1d3d fb2a fbbb bb8b dd3d a522 b5bd
00000290: e4fb 5a3d fca9 c9bd 5807 ca3e ca8f 9cbc
000002a0: f6ab 1a3e c43d 643e 36db 443d 7499 8abd
000002b0: 4240 dfbc a92f 7f3d 5265 be39 3937 873b
000002c0: d5d4 e83d db9e d7bd 039e 263d 3492 83bd
000002d0: 1384 e9bd 41c4 683d c8b7 e4bd 36be df3d
000002e0: b3f2 863c d872 c83d f196 89bd 8aae a83d
000002f0: a486 463d 8b6e af3b 9044 33bd f466 14bd
00000300: 53cd efbd 1f20 673c 64c4 d7bd 0338 453d
00000310: 01de 84bb 2d8a 9139 906c a9bc 8fad 5cbc
00000320: 49b2 053e 7cd8 1a3d dbac 013e fd95 dfbd
00000330: f020 8ebc 8c6b 11bd 1970 11bd e031 88bc
00000340: 087e a73c 7f4f 1abd 3fab 95bd 8bf3 263d
00000350: 9813 f93c ee5f bcbd 7bbc 8a3d 93b5 5b3d
00000360: 4cc3 d0ba f168 733d d785 993d 7c89 303c
00000370: 74de 053c 9cc1 c23d f34d b2bc dfbd cebc
00000380: 810b aa3d de24 4c3e 4cec 12bd a073 f73d
00000390: acf6 0b3d 2ddf 0fbe e5df cfbd cbcf f8bd
000003a0: 9e94 6abb 66fa cc3c e9f5 36bd 6ec7 d2bc
000003b0: 80d3 553d 1f9e 833d b5a6 a63d 3c99 b63d
000003c0: 2bd3 c03d 40cc 393d e5ef 06bd 2f43 1e3d
000003d0: 7045 3f3d 5883 75bd c216 9cba f85d 3bbd
000003e0: 7250 023e 51cd c73c 8efb 083c e83a 1bbd
000003f0: abbf 113c 56e9 debc b855 24bb c133 b43d
0.08192014 -0.029704792 -0.08655725 -0.04363502 0.04097538 -0.06511482 0.07901915 -0.037373267
-0.043216933 -0.042240117 -0.03213368 0.05603348 -0.034602102 -0.08539107 0.03833561 -0.01765207
0.10058763 -0.005575827 0.0031048958 -0.018854883 0.034275994 0.074871644 -0.1667576 0.03206718
0.04461571 -0.05262352 -0.05864729 0.09592641 0.08658143 0.09765245 -0.019480146 -0.009798563
0.051526256 0.025828008 -0.058330864 -0.11817643 0.017586725 -0.014122184 -0.21072906 -0.07788756
-0.7370457 -0.053095583 -0.042224646 0.09767646 -0.039744746 0.06434211 0.045678 0.09578152
-0.054700077 -0.042462245 0.13043554 -0.027901025 0.032660224 -0.012652129 -0.026814712 0.020506147
0.019786429 0.030270796 0.00085278024 0.020517318 0.075331666 -0.03018489 -0.012761012 0.0055620293
-0.029194226 0.07833161 0.048888605 -0.012768235 0.010841774 -0.0424247 -0.05611577 0.047971033
-0.01658388 0.06764911 0.06820012 -0.048181556 0.0714078 -0.040502347 -0.02893971 0.010089236
-0.07510048 -0.166272 0.07900183 0.05476882 0.15991583 0.16589354 0.059023548 -0.057811473
-0.012532809 0.007863533 -0.035577804 -0.011564324 -0.08457311 0.056302667 -0.051400714 -0.0015075805
0.005228079 0.02498606 -0.03659764 0.02533149 0.012516041 -0.1112224 -0.045355774 0.0740372
0.087681286 0.013385109 -0.13247146 -0.0021282784 -0.037473407 -0.022200296 0.039334312 -0.028655501
-0.003000491 -0.0067035775 0.034390323 0.083577774 0.043783765 0.03372023 0.029282372 0.01875039
0.048756164 0.12926306 -0.004885322 -0.009914914 0.01680103 -0.020375187 0.015570961 -0.004540937
-0.026035486 0.06076703 0.0012269712 0.014555126 -0.0503148 0.004857402 0.026492506 0.005164661
-0.05393043 -0.061210115 -0.035793256 -0.10889457 0.06902959 -0.014620331 -0.018203592 0.061022162
-0.02285584 -0.14746708 0.08820332 -0.1272811 -0.08512537 -0.13229448 0.05772164 0.07640241
0.03666284 0.1318145 0.17549473 -0.091860004 -0.17996837 -0.017936144 -0.06606188 0.05427257
0.038476896 -0.007665036 0.10817667 -0.088444985 0.053462878 -0.09846875 0.39458728 -0.019111533
0.1510466 0.22289187 0.04806062 -0.0676755 -0.02725232 0.06230131 0.00036315114 0.004126456
0.113687195 -0.10528346 0.040678035 -0.064243704 -0.11402144 0.056827787 -0.11167866 0.10924952
0.01647315 0.0978753 -0.06718243 0.08236416 0.048468247 0.005353754 -0.04376656 -0.036230996
-0.11709084 0.014106779 -0.105355054 0.04814912 -0.0040547852 0.00027759504 -0.02068165 -0.013469114
0.13056292 0.03780411 0.12663595 -0.1091728 -0.01734969 -0.035502955 -0.035507295 -0.016625345
0.020445839 -0.03767347 -0.07308053 0.040759604 0.03040485 -0.09197985 0.06774231 0.05363996
-0.0015927344 0.05942625 0.07496231 0.010774966 0.008170713 0.09509584 -0.021765685 -0.025237022
0.083029754 0.19935939 -0.03586988 0.120826006 0.03417079 -0.14049979 -0.10150126 -0.12149008
-0.003579415 0.025021743 -0.044668112 -0.025729861 0.052203655 0.064266436 0.081372656 0.08915946
0.09415277 0.045360804 -0.032943625 0.03863829 0.04669708 -0.059939712 -0.0011908638 -0.045743912
0.12726 0.024389895 0.008360757 -0.037897974 0.008895795 -0.027210873 -0.0025075506 0.08798934

transforms.2.coupling_network.hidden.0.bias f4 [16]
00000000: 7bfb 913d 51fb 4abd 0232 2b3d ce93 8b3d
00000010: 2844 593d 42aa 023e cebb 4c3e d1b6 253e
00000020: ff7e a0bd da86 733d f736 ef3c 3212 a0bd
00000030: 994b afbc db42 a53d 2867 923d 5c20 4d3d
0.07128044 -0.04955608 0.041795738 0.06815301 0.053043514 0.1276026 0.19993517 0.1618302
-0.078367226 0.059454776 0.029201014 -0.078159705 -0.021398352 0.08069392 0.07148582 0.05007969

transforms.2.coupling_network.output.weight f4 [16, 16, 3, 3]
00000000: c48a 963d 7907 5b3b 037a 4fbd ba48 413c
00000010: ade5 0e3e 1129 20bd 1d72 963b 8a6d 70bc
00000020: bd60 b6ba af8d 12bd 5ec0 8abd abf9 8e3b
00000030: 678d f7bb ddfd a0bd 66c9 5b3c 9ed8 e3bc
00000040: b75d febc faa0 413c 3b16 18bd 60d8 80bd
00000050: b3d1 8fbd ce55 12be 5c90 a3bd 9165 ca3c
00000060: 8b4f 52bd 041b 36bd c706 723d 2a08 c13d
00000070: 51d7 d33d 0cec 8b3c 7c0b 3f3e c980 e53e
00000080: 984d 093d 765e 39bb 80eb b03d dfdc 053c
00000090: b8f4 193d fe2f babc 52be 02be 839e 473d
000000a0: 83fd 81bc c7a2 68bd 8f03 b7bd 49c6 b8bb
000000b0: 44e3 8cbb fe49 b0bc 3019 2ebe ec92 26bd
000000c0: 6692 a8bd 5840 f8bb 4f5c a23c 3ace 1abd
000000d0: 3c9d 1e3d c7f3 c33c 9a37 dbbd e6fc 2abc
000000e0: fb92 1ebc e0b7 a03e 1412 8abd 14a5 883d
000000f0: 12fa 13bd 3258 5abd 22a1 68bc e396 a6bd
00000100: ab7a 903d deee 8f3a daa5 d53e 6b9e dcbe
00000110: d480 bbbb 1447 303d c6a5 cbbc 9472 e63c
00000120: 3f64 a5bd 67c4 193d bf32 c3bc d7c3 783d
00000130: 0137 1abe 9fe5 7dbd 0b48 93bc e4a2 41bd
00000140: c672 bebb bb8f 8dbd bc75 103e a34c 083d
00000150: 0910 bbbc 3438 0cbd 16ba 513d 7a6f 483c
00000160: f28a 58bd b0ca 6b3c 66b6 40bd 7d14 1bbd
00000170: efdd a9bc 28ff 5cbd fcda 4f3d 8bcf a83c
00000180: c6ad 2d3c 1b66 03bd 8293 a73b e563 87bd
00000190: 4faf 99bd dca4 433d b2f5 c7bc fabf 98bb
000001a0: b02a 2b3c 66be 673c 23ba 18bd dd0f 89bb
000001b0: 555b 88bc d434 41bd b34a 8cbc a62b 33bd
000001c0: 8ab3 9bbd a9a5 7fbd 4dab 443b 9687 0bbc
000001d0: b66e 4abd 1fb3 35bb 4beb 113c 63f5 b1bc
000001e0: 4738 da3b 7ef4 df3c f6a6 f0bc 7837 16bc
000001f0: 931f 413c e18a 3abd b238 80bc 873e 8a3c
00000200: b6bf 353d 905d 87bd 0529 e63d 6aa9 60bd
00000210: 1bf7 7a39 9411 00bb 60cb c53d a883 7fbd
00000220: 992f 69bd 1851 9ebd 4456 08bd aa08 1f3d
00000230: 7e30 153d 3c8a 253a 06fb 833b 6bca 6e3d
00000240: 8401 35bc 11c6 b7bd a44c f2bc 0015 79bd
00000250: eaeb 77be b4c5 04bc 5e73 3ebc 3a21 483c
00000260: 4eec 36bd 56a0 fdbc 98f8 1e3e c3b2 a53d
00000270: a097 6ebc 20cd c63d e4e4 183c c77f 41bd
00000280: f319 a6bd ce3e 803b 7dc8 a8bd de23 ecbd
00000290: a1c3 febc 8f8b 09be fbbe 0cbe 5032 0a3d
000002a0: 0102 33bc c067 c03c 4a5d 59bd c98f 5fbd
000002b0: ba70 763c f01d e13d 476d c23e c806 143e
000002c0: 092e d43d 70b2 a9bc bc1f e13d 3136 2f3e
000002d0: d4ef 613c 8a7a a13d 99ec b33d a631 21be
000002e0: 542b a23c 4a69 053e fd8c 87bb 21a2 443d
000002f0: 158f 653d 656e adbd 8ef4 e9bc c365 cc3c
00000300: 49be 483e 87c3 bbbd fa69 c5bd d26e 893c
00000310: bdf9 14bd c31f af3b a097 3c3d 0a54 a6bd
00000320: 90e6 debb b519 a33e d8ab 713e 0656 b2bc
00000330: 496c 17bd 188e d7bd 7b2b 9dbc 180d 88bd
00000340: 06bd a9bd 12df 4cbd 4c7c 093e 8364 5a3e
00000350: 5182 fbbc f8f4 a6bd d4ce 993d 77b8 59bc
00000360: e579 923c 4743 5ebd ec31 33bd b9cc ae3c
00000370: 7b08 1c3d a6b2 02be c569 d53c df04 a83d
00000380: 904b 3c3d d4f8 98bd 3014 d5bc 977b 023b
00000390: bfdd 51bd cfcc fd3d 0fae aabd e5fb 253c
000003a0: 77e4 493d e147 833d be0b 2a3d fbbd 083e
000003b0: 0202 203d 47fb 4d3d 8de1 d7bd 0a46 bfbd
000003c0: dbb0 81bd 282d e6bd c429 8c3d 81c2 2e3d
000003d0: 8d90 f53e 26b5 153c 8351 b93a fa62 3d3d
000003e0: 1077 66bd 8a9f d8bc 9dec b0bc dd57 f63c
000003f0: c4ac 86bd ea19 c9bc 8845 263d 821e 803d
0.07350686 0.0033421202 -0.05065347 0.0117971245 0.13954802 -0.039101664 0.00459124 -0.014674554
-0.0013914328 -0.03577965 -0.067749724 0.004363259 -0.0075546983 -0.078609206 0.013414716 -0.027813252
-0.031050546 0.011818165 -0.037130576 -0.0629127 -0.07022419 -0.14290544 -0.07986519 0.024706634
-0.05134539 -0.044459358 0.059088495 0.09425385 0.10343803 0.01708033 0.18656725 0.44824818
0.033521265 -0.0028285063 0.08638668 0.008170336 0.037586898 -0.022727963 -0.12767914 0.048735153
-0.015867954 -0.05679586 -0.089362256 -0.005638872 -0.004299553 -0.021519657 -0.17001796 -0.04066746
-0.08231048 -0.0075760297 0.019819407 -0.03779433 0.03872417 0.023919953 -0.107039645 -0.010436272
-0.009678598 0.31390285 -0.067417294 0.06672111 -0.036127158 -0.053306766 -0.014198573 -0.08134248
0.07054647 0.0010981222 0.41728097 -0.43089613 -0.0057221446 0.043036535 -0.02485932 0.028130807
-0.08075761 0.03754082 -0.023827909 0.060733642 -0.15060045 -0.061986562 -0.017978689 -0.047274485
-0.005812022 -0.0691218 0.14107412 0.03327621 -0.022834795 -0.034233287 0.051202856 0.012233609
-0.052866884 0.014391586 -0.04704895 -0.037861336 -0.020735709 -0.053954273 0.05074595 0.020606777
0.010600513 -0.032079797 0.00511402 -0.0661085 -0.075041406 0.047764644 -0.024409149 -0.0046615573
0.010447189 0.014144516 -0.03728689 -0.0041827993 -0.016645113 -0.04716952 -0.017125463 -0.0437428
-0.07602604 -0.062413845 0.003000933 -0.008516213 -0.04942199 -0.0027725173 0.008906196 -0.021723455
0.006659541 0.027338263 -0.029376488 -0.009168498 0.011787313 -0.0455426 -0.015652034 0.016875518
0.044372283 -0.066096425 0.112382926 -0.054849066 0.00023933912 -0.0019541727 0.09657931 -0.062381417
-0.05693016 -0.07730311 -0.033285394 0.038826622 0.0364232 0.0006314849 0.004027727 0.05829851
-0.011047725 -0.08973325 -0.02957756 -0.060811043 -0.24211088 -0.008103777 -0.011624185 0.012214953
-0.04465895 -0.030960243 0.15524518 0.08090737 -0.014562517 0.09707093 0.0093319155 -0.047241
-0.08110418 0.003913737 -0.08241365 -0.115302786 -0.031099143 -0.13432144 -0.13744728 0.033739388
-0.010925771 0.023486972 -0.053067483 -0.054580484 0.015041525 0.10992038 0.37973997 0.14455712
0.10360343 -0.020714968 0.10992381 0.17110516 0.01379009 0.078847006 0.08785362 -0.15741596
0.019796051 0.13028446 -0.00413668 0.04800618 0.056044657 -0.08468322 -0.028558996 0.024950868
0.19603838 -0.09168153 -0.09639354 0.016776476 -0.03637098 0.0053443625 0.04604304 -0.08121498
-0.0068023875 0.3185555 0.2360071 -0.021769535 -0.036968503 -0.10525149 -0.019185772 -0.066431224
-0.082880065 -0.050017424 0.13426322 0.21327405 -0.030701788 -0.08152193 0.075101525 -0.013288609
0.01788039 -0.05426338 -0.04374878 0.021337854 0.038094025 -0.12763461 0.026051411 0.08204054
0.0459705 -0.07469335 -0.026010603 0.001991009 -0.051236864 0.1239258 -0.0833398 0.010130857
0.049290147 0.06410194 0.041515104 0.13353722 0.039064415 0.050288465 -0.10541067 -0.09339531
-0.06332561 -0.112390816 0.06843904 0.042665962 0.47961846 0.009137427 0.0014138672 0.04623697
-0.05626589 -0.026443262 -0.021597201 0.030071193 -0.06575921 -0.02454849 0.040593654 0.06255819

transforms.2.coupling_network.output.bias f4 [16]
00000000: 1d17 ba3d fb50 abbc 34d7 c1bc f982 cbbd
00000010: 0775 963d 3321 11bd 8018 173d f036 883d
00000020: fb6e f63c ed11 923d 06a1 863c 2de6 163c
00000030: 238e 09bd 7263 74bd 97d5 123d a967 bbbd
0.0908644 -0.020912638 -0.023662187 -0.099370904 0.0734654 -0.035432052 0.0368886 0.066511035
0.030082216 0.07132325 0.016434204 0.009210152 -0.033582818 -0.05966515 0.035848226 -0.09150631
