saved_models/20210730/model.pth (torch, 79782 bytes, 21 tensors)

transforms.0.coupling_network.input.weight f4 [16, 8, 3, 3]
0.0015360973 -0.024090637 -0.0026464718 -0.0071396683 0.023945969 -0.03945562 0.07249102 -0.2526831
0.006969055 -0.012770463 0.0013231075 -0.0098415995 0.0019077968 0.08720959 0.0075246347 -0.109379694
-0.024114773 0.059566367 0.024906125 -0.004222152 -0.002262745 -0.0034641244 0.0996802 0.00195997
-0.20484132 0.022230182 0.03699538 -0.0074971104 -0.01050629 0.0074557103 -0.0061316574 0.010617513
0.0074436264 -0.3251778 -0.0025734154 -0.039906636 0.010666247 0.08464638 -0.021568535 0.02108519
-0.32802686 0.014454251 -0.036619496 0.2604914 0.0024425918 -0.012055488 -0.009531133 0.026640344
-0.027507149 -0.19782926 -0.01688864 0.022225445 0.13317174 -0.012808287 -0.0551148 0.0394195
-0.00095460925 -0.10686567 0.013869943 -0.031147968 -0.0021029857 0.006846208 -0.021722244 -0.0039558397
0.025783569 -0.031607192 -0.25511637 0.115113385 0.023048887 0.011331986 0.026020829 -0.03118994
0.055305 -0.0058457293 0.033362262 -0.0601866 0.027901398 0.03401836 -0.040207367 0.15870968
0.05398027 -0.032965094 0.021903835 0.022120047 0.050691836 -0.011590855 0.17228372 -0.0121709155
0.1679085 -0.09314057 -0.028354617 0.10790823 -0.05341606 0.1612296 -0.011919414 0.13826759
0.100917704 0.15573972 -0.043209862 -0.0035874762 0.12331606 -0.10305828 0.14133199 0.030689778
-0.08539672 0.13088912 0.12706102 0.002492269 -0.04255686 0.10052172 0.118268445 -0.088215075
0.07355388 0.12511691 -0.017250044 -0.01880543 -0.038766854 -0.03883896 0.08491603 0.20719841
0.09545079 0.10146224 0.1263502 -0.0055076946 -0.0384061 0.006590945 0.046405684 0.09866155
0.17385174 0.2069795 0.106247105 0.039689567 -0.0087173525 -0.061265837 0.0054965834 0.100101925
0.100689664 -0.021776518 0.09295028 0.14734983 -0.09897507 -0.007072593 -0.08063087 0.008604744
0.009986733 -0.17435516 0.10571912 -0.27731553 -0.12714963 0.028224614 0.087101966 0.059517346
-0.00898336 -0.078652084 -0.13697219 0.015852218 -0.19010124 -0.17595145 0.030629339 0.0581915
0.03134168 0.060136065 -0.093267135 -0.100004934 -0.0040889946 -0.09592651 -0.0993847 -0.027607873
0.07070417 -0.0149954455 0.07900277 -0.166006 -0.0040626163 0.00581066 -0.020649236 0.024742898
-0.052948456 0.07935983 -0.029437523 0.0557329 -0.132637 -0.073997006 -0.023187425 0.010345804
-0.15380682 0.015351809 -0.035498325 -0.05003546 0.045282193 -0.22824354 -0.1742496 0.05277675
-0.19193007 -0.0060124993 -0.1123976 -0.026012389 -0.052300204 0.011211502 -0.107235864 -0.2095773
-0.012856604 -0.20754127 0.051336437 0.0034917397 -0.044475004 -0.028544212 -0.018840114 -0.06828887
-0.07682842 -0.019154895 -0.2254773 0.022337941 0.06060203 -0.059903942 -0.009468429 -0.08715567
0.016231835 -0.024440685 -0.024558224 0.007047753 -0.095871925 0.022041276 -0.012262081 0.2772484
-0.050389618 0.015616556 0.043166198 0.02480128 0.034781773 0.04819901 0.0924816 -0.070309155
0.10077222 -0.03626475 -0.00051571516 0.006463824 -0.025627973 0.0392858 -0.021479411 0.009350312
0.010782849 -0.050815914 0.006744838 -0.021026157 0.01261031 -0.04543816 -0.13792405 -0.081733555
0.017437808 0.19141507 -0.09875251 0.033139035 -0.061833344 0.05281539 0.013869054 0.0029371919
00000000: df56 c93a ba59 c5bc 6e70 2dbb e1f3 e9bb
00000010: 562a c43c 379c 21bd 2c76 943d ae5f 81be
00000020: ac5c e43b 343b 51bc 1f6c ad3a a93e 21bc
00000030: 0a0f fa3a f19a b23d 3691 f63b 7602 e0bd
00000040: 588c c5bc ddfb 733d ee07 cc3c fa59 8abb
00000050: 904a 14bb 5d06 63bb 2225 cc3d d772 003b
00000060: ecc1 51be 121c b63c 7888 173d 52aa f5bb
00000070: 9322 2cbc 084f f43b 12ec c8bb 14f5 2d3c
00000080: aae9 f33b b47d a6be bfa6 28bb 2475 23bd
00000090: 7cc1 2e3c 155b ad3d 7fb0 b0bc d9ba ac3c
000000a0: 23f3 a7be 86d1 6c3c 53fe 15bd 215f 853e
000000b0: e413 203b 6284 45bc 7828 1cbc da3c da3c
000000c0: ac56 e1bc c193 4abe 0c5a 8abc 2312 b63c
000000d0: 2c5e 083e d9d9 51bc 0ec0 61bd 5776 213d
000000e0: be3e 7aba 63dc dabd c23e 633c 062a ffbc
000000f0: 3fd2 09bb 2856 e03b d9f2 b1bc fd9f 81bb
00000100: 1038 d33c 8b76 01bd 9d9e 82be 91c0 eb3d
00000110: 05d1 bc3c cba9 393c a229 d53c 0c82 ffbc
00000120: 7f87 623d 888d bfbb dea6 083d 3986 76bd
00000130: 7991 e43c d656 0b3d 7bb0 24bd ca84 223e
00000140: 6a1a 5d3d 6806 07bd ac6f b33c 1a35 b53c
00000150: 3ea2 4f3d 92e7 3dbc 256b 303e 8568 47bc
00000160: 35f0 2b3e 7cc0 bebd f147 e8bc fdfe dc3d
00000170: ccca 5abd 5f19 253e a549 43bc 0596 0d3e
00000180: f1ad ce3d 3c7a 1f3e d3fc 30bd dd1b 6bbb
00000190: 218d fc3d 3810 d3bd 55b9 103e 2169 fb3c
000001a0: 7ae4 aebd cc07 063e 491c 023e 5655 233b
000001b0: 1a50 2ebd 55de cd3d ba36 f23d 1baa b4bd
000001c0: 6ba3 963d a61e 003e f74f 8dbc d80d 9abc
000001d0: fec9 1ebd 9a15 1fbd 75e8 ad3d d22b 543e
000001e0: b47b c33d 6fcb cf3d f261 013e e479 b4bb
000001f0: b74f 1dbd dbf8 d73b e313 3e3d 110f ca3d
00000200: 3106 323e 6ff2 533e 1598 d93d 8791 223d
00000210: 3ad3 0ebc e3f1 7abd af1c b43b 3d02 cd3d
00000220: 6236 ce3d ab64 b2bc b75c be3d e0e2 163e
00000230: 71b3 cabd 36c1 e7bb cc21 a5bd eafa 0c3c
00000240: 659f 233c 298a 32be 4483 d83d 4dfc 8dbe
00000250: 8333 02be 4e37 e73c 8462 b23d 76c8 733d
00000260: f12e 13bc 5814 a1bd 7042 0cbe 83dc 813c
00000270: e6a9 42be 9e2c 34be 61ea fa3c 365a 6e3d
00000280: 2260 003d 3c51 763d d702 bfbd 63cf ccbd
00000290: f9fc 85bb 1e75 c4bd 358a cbbd e829 e2bc
000002a0: 59cd 903d 75af 75bc 34cc a13d 7afd 29be
000002b0: b21f 85bb 5967 be3b 9628 a9bc 9eb1 ca3c
000002c0: 7be0 58bd 6887 a23d f626 f1bc 2e48 643d
000002d0: fed1 07be be8b 97bd 8ef3 bdbc 7281 293c
000002e0: 897f 1dbe 2786 7b3c b166 11bd fcf1 4cbd
000002f0: d279 393d adb8 69be 7d6e 32be 6f2c 583d
00000300: 5189 44be 8004 c5bb b730 e6bd ef17 d5bc
00000310: bd38 56bd 73b0 373c 7a9e dbbd 6f9b 56be
00000320: 81a4 52bc b385 54be 2846 523d acd5 643b
00000330: 6c2b 36bd 8dd5 e9bc 9556 9abc 09db 8bbd
00000340: 3858 9dbd baea 9cbc 85e3 66be 0ffe b63c
00000350: d639 783d d65d 75bd 7821 1bbc ac7e b2bd
00000360: a0f8 843c d537 c8bc 542e c9bc d6f0 e63b
00000370: 8058 c4bd e88f b43c e5e6 48bc 81f3 8d3e
00000380: 5865 4ebd 95dc 7f3c 0acf 303d 0e2c cb3c
00000390: 5577 0e3d 536c 453d fe66 bd3d 3ffe 8fbd
000003a0: aa61 ce3d 598a 14bd 0f31 07ba 7cce d33b
000003b0: c1f1 d1bc 26ea 203d 97f5 afbc 0d32 193c
000003c0: 8caa 303c 5924 50bd cd03 dd3b 0c3f acbc
000003d0: 799b 4e3c 5d1d 3abd f63b 0dbe ec63 a7bd
000003e0: bcd9 8e3c 5002 443e c23e cabd ccbc 073d
000003f0: f644 7dbd f354 583d 073b 633c e77d 403b

transforms.0.coupling_network.input.bias f4 [16]
0.3816457 -0.25790924 0.42365336 -0.19589712 -0.20832425 0.4123979 -0.16851038 -0.13503599
0.26259172 0.2913847 0.007648046 -0.13134943 -0.29762205 -0.22837128 -0.17579891 0.20633043
00000000: 1167 c33e ae0c 84be 18e9 d83e 4199 48be
00000010: f452 55be d125 d33e fc8d 2cbe e046 0abe
00000020: 6c72 863e 6030 953e 769c fa3b 7780 06be
00000030: eb61 98be 29da 69be a104 34be 4948 533e

transforms.0.coupling_network.hidden.0.weight f4 [16, 16, 3, 3]
0.0775057 0.03542708 -0.08415803 0.06721637 0.14942709 0.015662722 0.0010596099 0.18348318
-0.05239382 0.041607004 0.0189028 -0.0155777745 0.091178894 0.018482959 -0.049957156 -0.0040596086
-0.07082041 0.039238382 -0.060784042 -0.14968479 0.02255727 0.010280793 -0.08401849 -0.028572427
0.0873688 -0.07213066 0.07506658 0.027452389 -0.022397587 0.0022942538 0.0014390576 0.09552655
-0.024937693 0.01754259 0.10412813 0.03097766 -0.028481912 -0.024384774 0.017866213 -0.03638652
-0.006567778 -0.088694185 0.07524638 -0.08390478 0.035314154 -0.035181448 -0.020833895 -0.023832878
0.020394798 0.084301375 0.017338548 0.08010079 -0.019475173 0.030895824 -0.008018482 -0.09942847
-0.10294922 0.014008864 -0.009759429 0.034461938 0.07279753 -0.06373939 0.015164311 0.01300259
0.010721892 0.08242706 -0.048718754 0.015206429 0.04597081 -0.00036124545 -0.07118633 -0.06424805
0.009154129 -0.011049182 0.04277179 0.083450675 0.041651245 0.17831577 -0.019348027 0.059585158
0.0100626815 0.019591387 0.04934541 -0.025308507 -0.09332439 -0.14951786 -0.05651539 -0.024170095
0.15587536 0.0053882212 -0.04399932 -0.038609818 -0.051023796 -0.025859172 0.060110334 0.029433828
0.012804533 -0.14822276 0.017028157 -0.029228544 0.012687333 0.078953765 -0.060210634 0.044880282
0.11059684 0.0022788704 0.056466233 -0.028880168 0.02488758 -0.07492584 -0.04643645 0.4161043
-0.22157815 -0.010875627 -0.027980017 0.114515856 0.023267081 -0.055972684 -0.085800774 -0.01145576
0.062238537 0.111977905 0.051558405 -0.061093874 -0.016874997 -0.038546085 -0.032668203 -0.054612953
0.009428542 -0.009250823 -0.106632054 0.025062714 -0.033377483 0.0007472995 0.103581496 -0.019053934
-0.06612545 0.2513086 0.08614143 -0.019423436 0.14746769 0.016286891 0.032017007 0.006433331
0.11696639 0.1006936 0.02124996 0.0061011813 -0.17159653 -0.12363689 -0.045675013 -0.057666484
-0.058514807 0.013951015 0.019271385 0.08452114 -0.046950176 0.004746332 -0.022351269 -0.05251351
-0.09983541 0.067828886 -0.17890872 -0.02714169 0.054815546 0.04664864 0.07442224 0.09250442
-0.047616996 -0.28088984 -0.073240936 0.012321218 0.028542493 -0.058220852 0.07485072 0.03760999
-0.0014876337 0.015614149 -0.022373984 -0.009528425 0.007811439 0.06137464 0.036939573 0.0865711
-0.004967606 -0.049433127 0.0010186803 0.065182015 0.06926028 -0.074713 -0.0034454672 0.079304464
0.1041075 0.056343455 0.07056284 0.043983422 -0.04975059 -0.15918444 -0.08602915 0.01774679
-0.2019792 0.062656514 0.1768315 -0.064306594 -0.037966873 0.0698897 0.021038651 -0.030753065
0.059369802 -0.0062957667 0.038150553 0.113372006 0.059812546 0.027304575 0.05168881 -0.011461531
-0.013031177 -0.0130821075 0.03834569 0.04000294 -0.036380112 0.10006399 -0.029729875 0.141288
0.0054425364 -0.011148815 -0.07954073 0.08739783 0.097913556 0.0050971108 0.12212276 0.12585144
0.0007949882 -0.047565244 -0.07887699 0.07699284 -0.06814801 -0.028193062 0.07077588 0.037741516
0.029352106 -0.014184395 -0.009896115 -0.0019789804 -0.030455584 -0.022908881 0.078406475 0.048214626
0.06614287 -0.0475061 -0.036862932 0.06308081 -0.020019474 0.0826013 0.06468432 -0.16862555
00000000: 4fbb 9e3d fc1b 113d 0c5b acbd bca8 893d
00000010: 6a03 193e 1c4f 803c 9ce2 8a3a 04e3 3b3e
00000020: e79a 56bd 1b6c 2a3d 0bda 9a3c ec39 7fbc
00000030: 00bc ba3d 9369 973c e09f 4cbd 7706 85bb
00000040: 4b0a 91bd 6db8 203d b0f8 78bd f846 19be
00000050: 06ca b83c c570 283c e311 acbd b910 eabc
00000060: 6aee b23d 3db9 93bd 82bc 993d d5e3 e03c
00000070: 257b b7bc 315b 163b c39e bc3a 6da3 c33d
00000080: 224a ccbc 7ab5 8f3c 2141 d53d ddc4 fd3c
00000090: e652 e9bc 94c2 c7bc 2a5c 923c 080a 15bd
000000a0: 8436 d7bb 4ca5 b5bd c61a 9a3d 45d6 abbd
000000b0: 93a5 103d 6c1a 10bd d8ab aabc 2b3d c3bc
000000c0: fe12 a73c 33a6 ac3d 9209 8e3c e20b a43d
000000d0: 668a 9fbc 3d19 fd3c f35f 03bc 27a1 cbbd
000000e0: 0ad7 d2bd 6f85 653c 03e6 1fbc f627 0d3d
000000f0: df16 953d cc89 82bd bb73 783c d108 553c
00000100: e0aa 2f3c 85cf a83d 518d 47bd 6324 793c
00000110: e34b 3c3d 8b65 bdb9 23ca 91bd 7b94 83bd
00000120: 33fb 153c a107 35bc 7931 2f3d 30e8 aa3d
00000130: 7f9a 2a3d 6998 363e c17f 9ebc 910f 743d
00000140: f2dd 243c 1e7e a03c 6a1e 4a3d c953 cfbc
00000150: dc20 bfbd 361b 19be ae7c 67bd 5d00 c6bc
00000160: ca9d 1f3e ad8f b03b a238 34bd 5425 1ebd
00000170: 54fe 50bd 9dd6 d3bc 4136 763d 361f f13c
00000180: 1bca 513c b5c7 17be a27e 8b3c b370 efbc
00000190: 88de 4f3c 83b2 a13d 6d9f 76bd 63d4 373d
000001a0: 9980 e23d 1a59 153b 2349 673d 1a96 ecbc
000001b0: 0ae1 cb3c b872 99bd 2634 3ebd 9f0b d53e
000001c0: 62e5 62be b02f 32bc 5936 e5bc 4a87 ea3d
000001d0: 9b9a be3c 9d43 65bd 51b8 afbd f1b0 3bbc
000001e0: d6ed 7e3d ac54 e53d e82e 533d 923d 7abd
000001f0: 6f3d 8abc 80e2 1dbd 18cf 05bd d5b1 5fbd
00000200: 2c7a 1a3c c490 17bc e861 dabd 5250 cd3c
00000210: d4b6 08bd 6ce6 433a 8922 d43d ff16 9cbc
00000220: c86c 87bd 85ab 803e eb6a b03d e61d 9fbc
00000230: c501 173e 166c 853c 4424 033d b1ce d23b
00000240: 138c ef3d 7238 ce3d 6514 ae3c 6bec c73b
00000250: 00b7 2fbe 5635 fdbd b915 3bbd b133 6cbd
00000260: 39ad 6fbd cc92 643c 06df 9d3c 6b19 ad3d
00000270: d44e 40bd 1e87 9b3b 021a b7bc 6818 57bd
00000280: 8276 ccbd dfe9 8a3d d933 37be 4058 debc
00000290: 4486 603d a512 3f3d b06a 983d f572 bd3d
000002a0: 0a0a 43bd cbd0 8fbe 58ff 95bd efde 493c
000002b0: f2d1 e93c fd78 6ebd 564b 993d ef0c 1a3d
000002c0: b4fc c2ba 7dd2 7f3c a549 b7bc 1c1d 1cbc
000002d0: 1af7 ff3b f963 7b3d f34d 173d 304c b13d
000002e0: 4dc7 a2bb 647a 4abd 3d85 853a 267e 853d
000002f0: 55d8 8d3d 2103 99bd 59cd 61bb 616a a23d
00000300: 5036 d53d 65c8 663d 4083 903d f627 343d
00000310: 46c7 4bbd 3f01 23be 0d30 b0bd b761 913c
00000320: a3d3 4ebe 0f52 803d 5113 353e 2db3 83bd
00000330: 2783 1bbd 5522 8f3d 4059 ac3c daed fbbc
00000340: c02d 733d b84c cebb c143 1c3d 952f e83d
00000350: 00fe 743d d8ad df3c a5b7 533d 25c9 3bbc
00000360: b880 55bc 5656 56bc 5f10 1d3d 1fda 233d
00000370: 5003 15bd 59ee cc3d 118c f3bc cdad 103e
00000380: 4e57 b23b 85a9 36bc 40e6 a2bd a2fd b23d
00000390: e786 c83d aa05 a73b 7f1b fa3d 33df 003e
000003a0: c166 503a c6d3 42bd 428a a1bd 6cae 9d3d
000003b0: 2f91 8bbd 23f5 e6bc f2f2 903d d996 1a3d
000003c0: d473 f03c aa65 68bc 5123 22bc c8b1 01bb
000003d0: fd7d f9bc 68ab bbbc 9393 a03d b37c 453d
000003e0: ea75 873d c295 42bd 96fd 16bd 8330 813d
000003f0: e1ff a3bc df2a a93d 3679 843d 2dac 2cbe

transforms.0.coupling_network.hidden.0.bias f4 [16]
0.12777364 -0.053735353 0.041056145 0.201336 0.06164708 0.17069753 -0.07889226 0.0062601534
-0.08641929 0.10983517 0.16095583 0.032469258 0.11764542 0.14729902 0.23402712 0.23179488
00000000: 18d7 023e 9a19 5cbd 7d2a 283d 062b 4e3e
00000010: a681 7c3d 55cb 2e3e 4492 a1bd f921 cd3b
00000020: 99fc b0bd 43f1 e03d 9bd1 243e 7cfe 043d
00000030: 15f0 f03d 8ed5 163e cea4 6f3e a35b 6d3e

transforms.0.coupling_network.output.weight f4 [16, 16, 3, 3]
-0.08902855 0.110105805 0.04805888 -0.031273726 0.18565883 0.22287181 -0.04636105 -0.007669192
0.06702561 0.015511815 -0.06813208 0.0049326145 0.00867971 -0.20155193 -0.030733364 -0.004016175
0.1088414 0.101729125 0.04786884 0.06925695 -0.03277578 -0.21303102 -0.064485386 0.022672668
-0.0189429 -0.14589518 -0.04974125 -0.043377277 -0.052302983 0.008682606 0.021480042 0.024784068
0.0007658792 0.09685611 -0.008592108 -0.0186856 -0.002748462 0.093375735 0.04886089 -0.024903923
-0.15188397 -0.03287028 -0.07363088 0.048904005 -0.03531828 -0.03286008 0.9244064 -0.030048527
-0.02657514 -0.14819823 -0.07145523 -0.033099324 0.031855453 -0.0070237247 -0.008782512 -0.13580766
0.013326311 -0.066469654 0.16425055 -0.008144537 0.045317996 0.004189674 -0.049693808 0.054141644
0.044670656 -0.025581611 -0.07484433 0.18283843 0.00072886306 0.09646695 0.015946511 -0.020793248
-0.019283284 -0.010593981 0.05869583 0.064404316 -0.021195656 -0.08220748 0.019971183 0.06291037
-0.028956667 -0.032050643 0.014660095 -0.0004859629 0.028747797 -0.01557948 0.055087592 -0.041258194
-0.08827666 -0.12524159 -0.04918058 0.0049598757 0.015420302 0.13555177 0.020695454 0.02680507
-0.013937922 -0.0029763097 -0.057308145 0.003364011 -0.034275357 0.04596085 -0.06258111 -0.0022604156
-0.038793597 -0.0546223 -0.015262804 0.012478778 -0.003702133 0.008842893 -0.009356712 0.021823213
-0.019215945 -0.025643706 0.21707937 -0.02157666 -0.009520866 -0.0015369033 0.03331522 -0.032130726
-0.027319377 0.09774019 0.019489242 -0.008581009 -0.003209453 -0.0074607036 0.090638585 0.06431751
0.0025844916 0.18470411 -0.12850994 0.036275335 0.09853154 -0.06251616 0.06023831 -0.3533693
-0.03231921 -0.063299164 -0.1449661 0.02531545 -0.061954368 0.050196346 -0.008979883 0.061446346
0.055433046 0.007245608 0.08536363 -0.09276084 0.037699815 0.1144828 0.054245077 -0.049484376
-0.02032687 0.0491756 -0.11335326 -0.0041665793 0.029207196 0.023404736 -0.007898879 0.05417433
-0.042210482 0.09340026 0.10927773 -0.054204077 -0.005595086 -0.13350463 -0.025333636 -0.012625096
0.007091241 -0.0026621677 -0.05178653 0.043451488 -0.05452705 0.11332441 -0.016523534 -0.027677737
0.016607124 0.07140233 -0.079617016 0.004262769 -0.002495426 0.0787222 0.045577426 0.07732068
-0.12255247 -0.08323907 -0.037348464 0.002940165 -0.0773769 -0.014117818 0.10542893 0.062047366
-0.048914272 -0.21475258 -0.053330448 -0.023652256 0.06683321 -0.0009501705 -0.06661676 0.008427402
-0.114524506 -0.03399949 0.090009876 0.04415129 0.053976726 0.09622617 -0.0039588707 0.04734562
-0.04522892 -0.05905505 0.03233093 0.2846826 -0.054694362 0.045634124 -0.006416336 -0.0015982272
0.01326931 -0.034561064 0.028930895 -0.030795941 -0.03376211 -0.054383304 -0.04613012 0.016434886
-0.020509185 -0.016835175 0.061276447 0.05519827 -0.05300782 0.0012513837 0.061508704 0.016377652
-0.0017037941 -0.09616125 -0.0652133 -0.019224815 0.051798902 0.0066386475 0.010678079 0.05644235
-0.004334982 -0.047629945 0.01914407 -0.053781677 -0.053804904 0.031782858 -0.10906335 0.07943182
0.04382044 -0.18032916 -0.0054219575 0.016554072 0.0068460754 0.014662591 0.0015072767 0.01646052
00000000: 9a54 b6bd 277f e13d 63d9 443d e118 00bd
00000010: 591d 3e3e 8238 643e 16e5 3dbd d84d fbbb
00000020: b944 893d 4525 7e3c d588 8bbd c5a1 a13b
00000030: 5835 0e3c a163 4ebe 89c4 fbbc 1e9a 83bb
00000040: 3de8 de3d 5c57 d03d 1e12 443d 96d6 8d3d
00000050: e53f 06bd ce24 5abe ea10 84bd 08bc b93c
00000060: 242e 9bbc 8c65 15be 7bbd 4bbd 5fac 31bd
00000070: a73b 56bd 7d41 0e3c eaf6 af3c f507 cb3c
00000080: 48c5 483a 7f5c c63d eac5 0cbc 8b12 99bc
00000090: 8a1f 34bb c73b bf3d 5b22 483d 5003 ccbc
000000a0: 7987 1bbe fda2 06bd c9cb 96bd 914f 483d
000000b0: e7a9 10bd 4b98 06bd e6a5 6c3f 5428 f6bc
000000c0: 1cb4 d9bc 47c1 17be 1f57 92bd 2893 07bd
000000d0: dd7a 023d 4627 e6bb 86e4 0fbc 2a11 0bbe
000000e0: 9956 5a3c 3e21 88bd 4c31 283e aa70 05bc
000000f0: 5d9f 393d 8849 893b bc8b 4bbd a1c3 5d3d
00000100: 94f8 363d 8790 d1bc fc47 99bd ff39 3b3e
00000110: 2c11 3f3a 7790 c53d 42a2 823c 9a56 aabc
00000120: faf7 9dbc 6092 2dbc 0a6b 703d 69e6 833d
00000130: 83a2 adbc 655c a8bd 9b9a a33c 27d7 803d
00000140: 8836 edbc 8947 03bd e530 703c d6c8 feb9
00000150: 8080 eb3c 1341 7fbc 87a3 613d 5afe 28bd
00000160: 65ca b4bd 553f 00be 9371 49bd 7486 a23b
00000170: 6fa5 7c3c 15ce 0a3e 8389 a93c 4e96 db3c
00000180: e25b 64bc 310e 43bb f2bb 6abd bd76 5c3b
00000190: 5164 0cbd 7241 3c3d 862a 80bd 7b23 14bb
000001a0: 09e6 1ebd a2bb 5fbd d710 7abc ca73 4c3c
000001b0: 7c9f 72bb c8e1 103c e54c 19bc 98c6 b23c
000001c0: c26a 9dbc c012 d2bc 0e4a 5e3e 89c1 b0bc
000001d0: 68fd 1bbc eb71 c9ba 8a75 083d 829b 03bd
000001e0: e3cc dfbc 022c c83d e7a7 9f3c 5c97 0cbc
000001f0: b055 52bb eb78 f4bb b9a0 b93d e6b8 833d
00000200: 9360 293b 1323 3d3e 1c98 03be 7295 143d
00000210: e7ca c93d 7908 80bd 72bc 763d d2ec b4be
00000220: 2661 04bd fea2 81bd fe71 14be 5962 cf3c
00000230: ddc3 7dbd af9a 4d3d 5c20 13bc 2aaf 7b3d
00000240: c30d 633d 916c ed3b 20d3 ae3d 65f9 bdbd
00000250: 1f6b 1a3d f575 ea3d 1630 5e3d 21b0 4abd
00000260: 8984 a6bc 5b6c 493d c125 e8bd cd87 88bb
00000270: ee43 ef3c 4abb bf3c 4d6a 01bc e7e5 5d3d
00000280: e6e4 2cbd a348 bf3d 01cd df3d 1805 5ebd
00000290: fc56 b7bb 70b5 08be 7c88 cfbc 7ed9 4ebc
000002a0: a45d e83b c377 2ebb 1d1e 54bd 30fa 313d
000002b0: c257 5fbd a116 e83d 5d5c 87bc 6cbc e2bc
000002c0: aa0b 883c 633b 923d 3f0e a3bd b3ae 8b3b
000002d0: 4d8a 23bb 1b39 a13d 65af 3a3d 4e5a 9e3d
000002e0: cafc fabd 3f79 aabd b4fa 18bd c9af 403b
000002f0: c877 9ebd 6c4e 67bc 1feb d73d 6125 7e3d
00000300: 555a 48bd 1ae8 5bbe 0771 5abd 60c2 c1bc
00000310: dadf 883d dd14 79ba 5e6e 88bd 1613 0a3c
00000320: d38b eabd 0d43 0bbd 1957 b83d fcd7 343d
00000330: b316 5d3d 3a12 c53d 6ab9 81bb 7bed 413d
00000340: f641 39bd b5e3 71bd 706d 043d ebc1 913e
00000350: 3207 60bd d9ea 3a3d 2140 d2bb 9b7b d1ba
00000360: 8567 593c e78f 0dbd 7c00 ed3c c547 fcbc
00000370: 234a 0abd 07c1 5ebd f0f2 3cbd 74a2 863c
00000380: e102 a8bc ece9 89bc 03fd 7a3d 9517 623d
00000390: ba1e 59bd 7805 a43a 8df0 7b3d 6d2a 863c
000003a0: d851 dfba 30f0 c4bd 8d8e 85bd 5c7d 9dbc
000003b0: 162b 543d 0389 d93b 1cf3 2e3c 1830 673d
000003c0: 770c 8ebb 9e17 43bd 06d4 9c3c 2d4a 5cbd
000003d0: 8862 5cbd be2e 023d 9b5c dfbd 26ad a23d
000003e0: 107d 333d 35a8 38be adaa b1bb 689c 873c
000003f0: 0b55 e03b 5d3b 703c d08f c53a 36d8 863c

transforms.0.coupling_network.output.bias f4 [16]
-0.0024074703 0.07717708 -0.21914512 -0.0011481808 -0.24276544 -0.06571327 -0.035023123 -0.043508228
0.007343784 0.00380017 -0.04273737 -0.00015149957 0.030196559 -0.13675694 -0.0708454 -0.043899633
00000000: a6c6 1dbb 040f 9e3d 9467 60be 8e7e 96ba
00000010: 8197 78be ae94 86bd 6874 0fbd af35 32bd
00000020: 20a4 f03b 460c 793b 610d 2fbd dbdb 1eb9
00000030: c65e f73c 030a 0cbe 6517 91bd 1ad0 33bd

transforms.1.weight f4 [16, 16]
-0.13857177 -0.35619384 -0.14510289 0.12895828 -0.2365909 0.04298358 -0.4637054 0.08501109
0.081214145 -0.0009975819 0.41197738 0.3295663 0.5100197 -0.34003246 0.30284062 0.19072224
0.30703384 -0.12321607 0.36286247 -0.2826077 0.0009466085 0.23926349 -0.29974663 -0.013449563
-0.29407224 0.1674707 0.11087415 -0.07301103 -0.20960219 -0.18605126 -0.013179045 0.46824354
0.12143349 0.13807394 -0.30966234 0.20292991 -0.156867 0.23252751 0.13535114 -0.04226027
0.0046228427 -0.16164337 -0.23900975 0.3336423 -0.50089 0.0642674 0.4473376 0.08105109
0.07974447 0.10655694 0.0199427 -0.4153246 -0.09523607 -0.14113957 0.21979971 -0.26716363
0.48012766 0.53445274 -0.26703623 0.09163611 0.036212884 -0.14487237 0.32986447 -0.20447406
-0.15014005 -0.026588153 -0.37891763 -0.014403749 0.07978396 -0.0352553 0.18651903 -0.44549462
-0.47524253 0.15233567 -0.07844616 0.03695758 0.5303221 -0.19952308 -0.12828556 0.18276896
0.018336387 0.34597075 -0.1003392 -0.08745637 -0.112466395 -0.2906328 -0.018262604 -0.22624585
0.4524242 -0.024964811 0.3057514 -0.059631933 0.036614377 -0.18803732 -0.19376574 0.6384102
0.11839676 -0.27897257 0.06480174 -0.30698305 -0.17589521 0.38570386 -0.026653806 -0.42784482
0.13132578 -0.3854874 -0.24093018 0.2000914 0.059720896 0.18941161 -0.10163718 0.06187025
0.008786142 0.07018904 -0.17131859 -0.20243263 -0.12745242 0.28870392 -0.12659512 0.02387462
0.08485415 -0.06678853 0.16581674 -0.64304346 0.059885066 -0.11750208 0.122481085 -0.03985667
-0.4513606 0.8429117 0.30136505 0.030065442 0.10508738 0.047044832 -0.20495346 0.055820074
-0.1438848 0.4257662 0.030404223 0.18773176 0.059651487 -0.25857177 0.118054174 -0.095605165
0.04551625 0.12726878 0.29748905 0.13604026 0.06661689 0.04012208 0.13642773 0.28640807
-0.10385868 -0.18927567 -0.33408156 -0.27766988 0.3428279 -0.42165554 0.1740054 0.25258398
-0.18829972 -0.008385096 -0.40149647 -0.41485366 0.34630206 -0.3266216 0.20249338 0.41743696
-0.17289269 -0.07168545 0.008927257 0.08109187 0.0812666 0.45704997 0.46265715 0.3102707
0.1280353 -0.20662385 0.5146337 0.28629762 -0.1519453 -0.20841928 -0.3782083 -0.20338157
-0.28142968 0.023283944 -0.388649 -0.30799425 0.11196013 0.02692686 0.049274683 0.34408724
0.28149205 -0.08042711 0.45101708 -0.13322419 0.012625181 0.56550163 0.28272 -0.42220864
0.2582039 -0.109341055 0.2664343 0.20780829 0.16684389 0.22132696 0.5021573 -0.37868625
0.54458773 0.4946284 0.22458956 -0.03045445 0.39239195 0.19538103 -0.2228257 -0.04870883
-0.032360572 0.26020685 0.10959687 0.06853858 0.22853084 0.0075305197 -0.0817183 -0.09715819
-0.036232293 0.08497685 0.019295413 -0.09742071 0.023270251 -0.3570136 -0.05549206 -0.30052394
0.03651349 -0.4525728 -0.14058098 -0.072350055 0.05629911 -0.66210735 0.17688905 -0.37994722
-0.21911082 -0.29091084 -0.045754638 0.04764931 0.8317627 0.14404647 0.13708776 -0.2350624
0.030802626 0.101780534 -0.024748895 0.2239925 0.1980463 0.08260908 -0.07211915 -0.2128473
00000000: c2e5 0dbe 0a5f b6be da95 14be a40d 043e
00000010: e344 72be 8d0f 303d cb6a edbe 4b1a ae3d
00000020: 9a53 a63d 4bc1 82ba b3ee d23e eabc a83e
00000030: a790 023f bc18 aebe ed0d 9b3e b14c 433e
00000040: 8a33 9d3e b558 fcbd 1cc9 b93e f5b1 90be
00000050: d225 783a 7d01 753e 6478 99be 8e5b 5cbc
00000060: a390 96be 707d 2b3e fd11 e33d cf86 95bd
00000070: f5a1 56be 3984 3ebe ecec 57bc 9ebd ef3e
00000080: 1fb2 f83d 4163 0d3e 108c 9ebe dccc 4f3e
00000090: bea1 20be b11b 6e3e 7d99 0a3e 1b19 2dbd
000000a0: 377b 973b d785 25be f9be 74be 2ad3 aa3e
000000b0: 543a 00bf a09e 833d 6f09 e53e 1dfe a53d
000000c0: 1251 a33d 863a da3d e05e a33c 6da5 d4be
000000d0: 210b c3bd e486 10be 2d13 613e acc9 88be
000000e0: 4bd3 f53e e5d1 083f f9b8 88be b6ab bb3d
000000f0: f653 143d 6c59 14be ffe3 a83e a661 51be
00000100: 50be 19be 66cf d9bc 7e01 c2be b4fd 6bbc
00000110: c665 a33d dd67 10bd d8fe 3e3e df17 e4be
00000120: fd52 f3be e2fd 1b3e 61a8 a0bd d560 173d
00000130: 30c3 073f c74f 4cbe 4a5d 03be c927 3b3e
00000140: 3136 963c 1423 b13e a37e cdbd 531c b3bd
00000150: c854 e6bd d3cd 94be 759b 95bc feac 67be
00000160: 25a4 e73e 0183 ccbc 738b 9c3e 9d40 74bd
00000170: f5f8 153d db8c 40be 876a 46be da6e 233f
00000180: 007a f23d 7ed5 8ebe c6b6 843d e22c 9dbe
00000190: e01d 34be fa7a c53e 1559 dabc 7a0e dbbe
000001a0: 447a 063e 9b5e c5be 67b6 76be c3e4 4c3e
000001b0: e69d 743d 1ef5 413e 2727 d0bd a96b 7d3d
000001c0: c0f3 0f3c 45bf 8f3d 246e 2fbe 804a 4fbe
000001d0: e382 02be 00d1 933e 27a2 01be b594 c33c
000001e0: 03c8 ad3d 6dc8 88bd ddcb 293e 7f9e 24bf
000001f0: 0b4a 753d eea4 f0bd 5dd7 fa3d bf40 23bd
00000200: bd18 e7be 10c9 573f 854c 9a3e cd4b f63c
00000210: 0d38 d73d 15b2 403d 52df 51be 97a3 643d
00000220: 8956 13be 07fe d93e 4712 f93c c13c 403e
00000230: 1e55 743d 8563 84be 63c6 f13d a4cc c3bd
00000240: 3f6f 3a3d bf52 023e 7c50 983e 234e 0b3e
00000250: 706e 883d 0d57 243d b6b3 0b3e 14a4 923e
00000260: dcb3 d4bd 7bd1 41be bd0c abbe bf2a 8ebe
00000270: 2387 af3e 3ce3 d7be 792e 323e b052 813e
00000280: a4d1 40be a461 09bc f290 cdbe b367 d4be
00000290: 814e b13e f23a a7be 6d5a 4f3e 4cba d53e
000002a0: c80a 31be d2cf 92bd a143 123c 7f13 a63d
000002b0: 1a6f a63d 7402 ea3e 66e1 ec3e cddb 9e3e
000002c0: b01b 033e 3495 53be 09bf 033f 9a95 923e
000002d0: 8c97 1bbe dd6b 55be 85a4 c1be 4243 50be
000002e0: 8d17 90be f8bd be3c 00fd c6be 6cb1 9dbe
000002f0: 5a4b e53d b895 dc3c 40d4 493d 342c b03e
00000300: ba1f 903e f8b6 a4bd b6eb e63e ec6b 08be
00000310: d9d9 4e3c b7c4 103f adc0 903e bb2b d8be
00000320: 4d33 843e 34ee dfbd 146a 883e b2cb 543e
00000330: 20d9 2a3e 89a3 623e 618d 003f 2ae3 c1be
00000340: 1a6a 0b3f ef3f fd3e cefa 653e 9c7b f9bc
00000350: 99e7 c83e f711 483e 6c2c 64be e982 47bd
00000360: 858c 04bd d539 853e 5374 e03d f45d 8c3d
00000370: fd03 6a3e 94c2 f63b ed5b a7bd e0fa c6bd
00000380: 5068 14bd 5808 ae3d 6a11 9e3c 8284 c7bd
00000390: 41a1 be3c 7dca b6be a44b 63bd 46de 99be
000003a0: 2b8f 153d 9fb7 e7be 76f4 0fbe 442c 94bd
000003b0: e599 663d de7f 29bf 6722 353e 7188 c2be
000003c0: 965e 60be 44f2 94be 3769 3bbd ec2b 433d
000003d0: 66ee 543f eb80 133e bc60 0c3e 33b4 70be
000003e0: ca55 fc3c 5072 d03d 32be cabc 4a5e 653e
000003f0: a6cc 4a3e f32e a93d 34b3 93bd a5f4 59be

transforms.2.coupling_network.input.weight f4 [16, 8, 3, 3]
0.045665845 0.051126346 -0.0032704358 0.13845937 0.038217206 0.022841128 0.07973261 0.083639786
0.03559523 -0.05589885 0.086972386 0.06834549 0.06389679 0.05240603 -0.02248417 -0.10126672
-0.01044303 0.087339155 0.047342088 0.072034724 -0.03578739 0.022761988 -0.016397957 0.011894804
-0.010642189 0.13781637 0.0108710155 0.07308935 0.106033534 0.06748193 0.16022612 -0.022337316
0.02054151 -0.007146354 0.058887612 0.13744313 -0.009267828 -0.07695133 0.010562881 0.1920777
0.030240078 -0.07200201 -0.04897931 0.12517186 -0.012027245 0.034245256 0.146212 0.047941443
0.062514134 -0.048516117 0.00262598 0.027222876 -0.12421184 0.13047498 -0.030986357 -0.050448466
-0.077657394 0.12066686 0.14708742 -0.13650206 -0.17670897 0.11429428 0.008638503 0.0045440616
-0.09007004 -0.03087698 0.026717938 -0.11551292 -0.08517366 -0.068678424 0.10949067 -0.015587762
-0.030181197 0.10152303 0.016831566 0.20716615 0.22917168 -0.046246916 0.012291377 -0.19793531
0.017907832 0.09613174 -0.037473407 -0.06178091 0.13693322 0.0139625715 -0.055650406 -0.15455757
0.21004637 0.0064860727 0.03812856 -0.051868983 -0.07145083 0.111939415 0.065845594 -0.005102595
-0.05895168 0.13883598 -0.040308047 -0.02516936 0.042112302 0.019208504 -0.04081133 0.021894298
0.011215854 -0.21653253 -0.036852572 -0.007887272 0.016325986 0.04129033 -0.003849338 0.06968298
0.08135099 -0.041902225 -0.13513823 0.036098555 0.03424764 0.018562803 0.1784995 0.015025218
0.22581428 0.16859227 0.012346147 0.054453507 0.14136739 -0.015707998 0.03529537 0.029473383
0.022065997 0.10726901 0.09527654 0.023631942 -0.15212487 0.10415759 -0.02045646 -0.013708196
-0.0305026 -0.0040591303 -0.077740975 -0.1179335 0.023664508 -0.14199424 0.016140753 -0.037568443
-0.08178981 0.051380873 0.09845934 0.0571114 -0.6112896 -0.11756871 0.037495214 -0.18574682
-0.06617525 0.044609014 0.02333824 -0.07900882 0.033995643 -0.03156649 0.20032127 0.00867146
0.19369242 0.028477827 0.019320497 0.084055655 -0.02110504 0.044689476 -0.1770611 0.043939915
0.013288966 0.051236007 0.057867788 -0.010720979 -0.0044100503 0.050870888 -0.038337264 -0.0055360105
0.10730259 -0.043198876 0.007134259 -0.038519807 -0.0426117 0.0033632913 -0.020628711 0.024243815
0.20912851 0.014631555 0.050151214 -0.04295057 -0.04114537 0.03534422 -0.0017680274 -0.07654943
-0.008827222 -0.025634658 -0.043723878 0.0048527545 0.18254092 0.0775504 -0.062505856 0.080430806
0.02231145 0.047925852 0.36668244 -0.19200213 -0.015011462 -0.14094688 -0.0029999875 0.012249213
0.0436511 0.07340653 -0.012222186 0.50112927 0.008772921 0.0023461955 -0.08824727 -0.030517278
-0.12646902 -0.06823186 0.07140624 0.17873026 0.095227085 -0.14180735 0.06796844 0.1825071
-0.023008004 -0.15836957 0.13375486 -0.0052773557 0.16646238 0.09221402 0.17805688 -0.06418317
-0.104551055 0.07210719 -0.059909917 0.04658597 -0.06641108 0.19097379 0.053169698 0.08821738
-0.007972945 -0.03243078 0.013431371 0.09832378 -0.036181 0.008088589 0.02383717 0.09820013
0.10401169 -0.05946567 0.090975 0.02787343 -0.10712315 -0.034166407 -0.028470984 0.07391871
00000000: 1c0c 3b3d dc69 513d cf54 56bb 4bc8 0d3e
00000010: a589 1c3d 511d bb3c da4a a33d 564b ab3d
00000020: 4ecc 113d 31f6 64bd 941e b23d b8f8 8b3d
00000030: 52dc 823d b5a7 563d b930 b8bc ed64 cfbd
00000040: 3e19 2bbc dfde b23d c7e9 413d f186 933d
00000050: cc95 12bd 5977 ba3c 0255 86bc 6de2 423c
00000060: 935c 2ebc bc1f 0d3e 581c 323c deaf 953d
00000070: 1c28 d93d f733 8a3d 5112 243e bffc b6bc
00000080: ab46 a83c f62b eabb 2334 713d e4bd 0c3e
00000090: 17d8 17bc a998 9dbd ef0f 2d3c 04b0 443e
000000a0: 0aba f73c ca75 93bd 879e 48bd 0d2d 003e
000000b0: ec0d 45bc c144 0c3d 99b8 153e 3f5e 443d
000000c0: 6907 803d d6b8 46bd a218 2c3b 8202 df3c
000000d0: c762 febd 3c9b 053e 1ad7 fdbc 0da3 4ebd
000000e0: d70a 9fbd 3020 f73d 169e 163e 32c7 0bbe
000000f0: 32f3 34be 1f13 ea3d 8288 0d3c 5ae6 943b
00000100: a476 b8bd b8f1 fcbc 94df da3c 0a92 ecbd
00000110: 876f aebd 46a7 8cbd a53c e03d d063 7fbc
00000120: 8f3e f7bc 4eeb cf3d 5ae2 893c 5d23 543e
00000130: fbab 6a3e 686d 3dbd c661 493c 8eaf 4abe
00000140: 72b3 923c b8e0 c43d b77d 19bd fb0d 7dbd
00000150: 3938 0c3e 45c3 643c aef1 63bd 5744 1ebe
00000160: 6516 573e 1f89 d43b b12c 1c3d 9274 54bd
00000170: d054 92bd 7e40 e53d 0eda 863d ab33 a7bb
00000180: 5177 71bd 052b 0e3e 0d1a 25bd f92f cebc
00000190: f37d 2c3d 275b 9d3c c829 27bd ac5b b33c
000001a0: b4c2 373c b4ba 5dbe b9f2 16bd 9e39 01bc
000001b0: 13be 853c 0d20 293d 2d45 7cbb f3b5 8e3d
000001c0: 599b a63d aba1 2bbd ad61 0abe 14dc 133d
000001d0: 4147 0c3d 0511 983c 93c8 363e 552c 763c
000001e0: dc3b 673e 74a3 2c3e 7e47 4a3c a40a 5f3d
000001f0: 9dc2 103e 0fae 80bc e191 103d 2a72 f13c
00000200: c0c3 b43c dbaf db3d 5920 c33d c697 c13c
00000210: 9fc6 1bbe 9350 d53d 4e94 a7bc 5798 60bc
00000220: 97e0 f9bc 7402 85bb a936 9fbd 1e87 f1bd
00000230: 12dc c13c f066 11be 9d39 843c 5ee1 19bd
00000240: 6a81 a7bd c074 523d 0da5 c93d a5ed 693d
00000250: 7a7d 1cbf ddc7 f0bd 9594 193d 6a34 3ebe
00000260: e486 87bd f1b7 363d d62f bf3c 60cf a1bd
00000270: 043f 0b3d dd4b 01bd 0521 4d3e bd12 0e3c
00000280: 4e57 463e 554a e93c 0546 9e3c 5f25 ac3d
00000290: 7ae4 acbc 500c 373d 814f 35be 57fa 333d
000002a0: f7b9 593c d9dc 513d c606 6d3d 0ca7 2fbc
000002b0: 2f82 90bb fe5d 503d 8907 1dbd 6c67 b5bb
000002c0: 76c1 db3d 4ef1 30bd 81c6 e93b f2c6 1dbd
000002d0: 9b89 2ebd aa6a 5c3b 8bfd a8bc f79a c63c
000002e0: c925 563e 31b9 6f3c 5c6b 4d3d f0ec 2fbd
000002f0: 0c88 28bd 1ac5 103d 28bd e7ba f3c5 9cbd
00000300: 0da0 10bc c6ff d1bc cf17 33bd db03 9f3b
00000310: 02ec 3a3e bed2 9e3d 1203 80bd e8b8 a43d
00000320: 81c6 b63c e64d 443d cdbd bb3e 359c 44be
00000330: a3f2 75bc 6154 10be 709b 44bb ecb0 483c
00000340: 7fcb 323d 2a56 963d 903f 48bc 024a 003f
00000350: 4cbc 0f3c a1c2 193b fcba b4bd 5fff f9bc
00000360: 1881 01be 25bd 8bbd 6f3d 923d 1105 373e
00000370: 6b06 c33d f235 11be 0a33 8b3d 24e3 3a3e
00000380: 487b bcbc a22b 22be 09f7 083e abed acbb
00000390: 1d75 2a3e b4da bc3d 8b54 363e 7772 83bd
000003a0: dd1e d6bd efac 933d 1a64 75bd eed0 3e3d
000003b0: 8802 88bd a28e 433e 78c8 593d 50ab b43d
000003c0: f5a0 02bc 23d6 04bd 410f 5c3c fa5d c93d
000003d0: 8732 14bd 0086 043c 2b46 c33c 261d c93d
000003e0: 1504 d53d 4692 73bd 1a51 ba3d d256 e43c
000003f0: 6263 dbbd 13f2 0bbd fb3b e9bc b162 973d

transforms.2.coupling_network.input.bias f4 [16]
-0.08825662 -0.23564519 0.39983118 0.12670325 0.28156814 0.36525214 -0.30579022 0.13179359
0.002737521 0.47730383 -0.14713287 0.25984702 0.13572222 0.23832916 -0.11912228 -0.094055176
00000000: e3bf b4bd f94c 71be acb6 cc3e 7fbe 013e
00000010: b329 903e 5402 bb3e 8990 9cbe e6f4 063e
00000020: fb67 333b 2b61 f43e 00aa 16be ab0a 853e
00000030: c4fa 0a3e 8f0c 743e 62f6 f3bd 00a0 c0bd

transforms.2.coupling_network.hidden.0.weight f4 [16, 16, 3, 3]
0.085402444 -0.022257062 -0.084278 -0.028585253 0.02916866 -0.05525797 0.0057629 -0.06694228
-0.003805341 -0.08147403 -0.036488175 0.008441817 -0.006280232 -0.14042133 -0.012235694 0.007991626
0.072984815 -0.027630173 -0.068828866 -0.06252074 0.018475724 0.17355996 -0.43590802 -0.031903822
-0.06384923 0.0002736723 -0.0029545857 0.05591803 0.1268691 0.058419235 0.048980128 -0.015984856
0.11090592 0.062392045 -0.032105453 -0.09268314 0.01235611 0.016243186 -0.23362632 -0.08557388
-0.74004704 -0.17383444 -0.04016832 0.12776451 -0.030184187 0.04487914 0.06985452 0.16371927
-0.011962252 -0.11576686 0.16104637 0.02628907 0.011872547 -0.029037915 -0.062390476 0.036376555
0.0002013026 -0.029087752 0.043257754 0.021303099 0.024645213 0.015205143 0.01971793 -0.013187974
-0.04614974 0.07912021 0.028771324 0.014171541 0.0369754 -0.07472448 -0.10735904 0.011144966
0.003937683 0.09082569 0.09518618 -0.05520018 0.041193508 -0.14647856 -0.028900497 0.031125864
0.010023054 -0.05011329 -0.09722706 0.010966449 0.11749227 0.06303833 0.087447524 -0.04563452
-0.034072082 -0.040071815 0.015571592 -0.009942027 -0.122778304 0.0544265 -0.045999117 0.033877086
0.027443994 0.07558423 0.009950326 0.07754475 0.040264845 -0.02906405 -0.124178015 0.105489284
0.06293404 0.006418654 -0.12666535 -0.03509056 -0.025761133 0.01467812 0.011100825 -0.04278778
-0.028509904 0.015469399 0.020378051 0.06838874 0.07169553 0.010446127 0.05134346 -0.0029458734
0.020945115 0.13296768 -0.0056486093 -0.04591538 0.028209336 0.04437874 -0.033478808 0.055741414
-0.058004547 0.077225305 0.022013163 0.01512326 0.019373644 -0.0088036405 0.007014252 0.03330375
-0.027419778 -0.06976539 -0.0044480227 -0.10035834 -0.013432484 -0.019780716 -0.06530894 0.034189638
-0.054630484 -0.07817288 0.012063339 -0.08697807 -0.08033815 -0.10761018 0.06337315 0.06514794
0.033379104 0.17555414 0.14385027 -0.11610324 -0.15717426 -0.030929096 -0.14615265 0.018186886
-0.006608242 -0.04281229 0.065896146 -0.08158011 -0.0048543923 -0.08476532 0.3772452 0.026826603
0.013787365 0.21997099 0.018051038 -0.1473302 -0.055395804 0.025757277 -0.048891943 -0.030136708
0.16550346 -0.05771412 0.082550734 -0.0327847 -0.13845535 0.11612711 0.006924229 -0.031290762
0.055641003 0.119652115 -0.04372754 0.028113049 0.05817606 -0.01391619 0.046216797 -0.0011135306
-0.113942005 -0.031391047 -0.095265225 0.045111604 -0.01891756 -0.025329918 -0.09291803 -0.025259245
0.086655386 0.11704579 0.15070039 -0.14896613 -0.09591481 0.015249833 -0.07781279 -0.021342937
0.05525026 0.017349655 -0.0639803 0.05631548 0.05431456 -0.078442 0.013326336 0.09660783
-0.03538922 0.013434426 0.09060997 0.013124109 0.05274037 0.143104 0.0038615756 0.028017925
0.035043865 0.19663474 -0.064530194 0.04870805 0.10166423 -0.11835208 -0.09308062 -0.06077253
0.0894814 0.052074835 0.015950574 0.023747843 0.006138273 0.07263765 0.081976235 0.11388045
0.096009806 0.09681862 0.041902598 0.033175517 0.07536573 -0.029774874 -0.008118213 -0.032066513
0.16621336 0.033994418 0.021909704 -0.035532836 0.001823471 -0.046312165 -0.031012788 0.06992326
00000000: 7ae7 ae3d 7154 b6bc f299 acbd 9f2b eabc
00000010: 1df3 ee3c 2e56 62bd b6d6 bc3b 0919 89bd
00000020: 0763 79bb dbdb a6bd a074 15bd 8c4f 0a3c
00000030: 68ca cdbb 9cca 0fbe 3878 48bc 4fef 023c
00000040: 1079 953d ac58 e2bc 26f6 8cbd e00a 80bd
00000050: 675a 973c b4b9 313e 562f dfbe 95ad 02bd
00000060: 63c3 82bd ad7b 8f39 b9a1 41bb 4e0a 653d
00000070: f9e9 013e 0249 6f3d 639f 483d acf2 82bc
00000080: a522 e33d cd8e 7f3d 0281 03bd a8d0 bdbd
00000090: 4871 4a3c 6e10 853c bd3b 6fbe 5c41 afbd
000000a0: b973 3dbf a801 32be 8987 24bd b3d4 023e
000000b0: d444 f7bc 30d3 373d e30f 8f3d 06a6 273e
000000c0: 52fd 43bc 2d17 edbd 57e9 243e 2d5c d73c
000000d0: 1285 423c ece0 edbc 288d 7fbd 95ff 143d
000000e0: c114 5339 7049 eebc 0b2f 313d d683 ae3c
000000f0: c2e4 c93c fe1e 793c 7f87 a13c 5f12 58bc
00000100: 8307 3dbd c709 a23d d7b1 eb3c c02f 683c
00000110: 8473 173d 2609 99bd 0edf dbbd 6099 363c
00000120: ae07 813b d202 ba3d f9f0 c23d 9519 62bd
00000130: 86ba 283d 7afe 15be bcc0 ecbc abfb fe3c
00000140: bc37 243c 9843 4dbd fb1e c7bd 9fac 333c
00000150: ca9f f03d 3d1a 813d b017 b33d 43eb 3abd
00000160: 2b8f 0bbd 5822 24bd fe1f 7f3c e2e3 22bc
00000170: 3173 fbbd 52ee 5e3d 9269 3cbd b3c2 0a3d
00000180: 3ad2 e03c e8cb 9a3d b106 233c c8cf 9e3d
00000190: c0ec 243d bb17 eebc 0b51 febd c40a d83d
000001a0: 90e3 803d 9353 d23b 90b4 01be 1ebb 0fbd
000001b0: 0309 d3bc 7f7c 703c 3ce0 353c 3d42 2fbd
000001c0: 9a8d e9bc 5d73 7d3c dfef a63c 650f 8c3d
000001d0: 1bd5 923d 3b26 2b3c 854d 523d 8e0f 41bb
000001e0: 1795 ab3c ae28 083e f817 b9bb c411 3cbd
000001f0: 4417 e73c 7bc6 353d 1321 09bd 1c51 643d
00000200: 2d96 6dbd 4d28 9e3d f354 b43c 8dc7 773c
00000210: 7ab5 9e3c 253d 10bc cfd7 e53b 8369 083d
00000220: 719f e0bc 28e1 8ebd b8c0 91bb ac88 cdbd
00000230: ec13 5cbc 2b0b a2bc b2c0 85bd 6f0a 0c3d
00000240: 37c4 5fbd 1a19 a0bd 50a5 453c 8f21 b2bd
00000250: 5488 a4bd ba62 dcbd c8c9 813d 486c 853d
00000260: 87b8 083d 77c4 333e 7c4d 133e 89c7 edbd
00000270: 4af2 20be 045f fdbc 0aa9 15be aafc 943c
00000280: f489 d8bb f15b 2fbd 8ff4 863d 7913 a7bd
00000290: 9811 9fbb 7199 adbd 4826 c13e 77c3 db3c
000002a0: 66e4 613c 1340 613e c5df 933c badd 16be
000002b0: b6e6 62bd ed00 d33c eb42 48bd 42e1 f6bc
000002c0: bd79 293e a465 6cbd 5c10 a93d 4049 06bd
000002d0: 3dc7 0dbe 0dd4 ed3d a5e4 e23b be2a 00bd
000002e0: d2e7 633d 2b0c f53d a61b 33bd 564d e63c
000002f0: 054a 6e3d bb00 64bc d34d 3d3d e3f3 91ba
00000300: 6d5a e9bd e693 00bd 6a1a c3bd f2c6 383d
00000310: 00f9 9abc b080 cfbc cf4b bebd 7aec cebc
00000320: 6178 b13d b4b5 ef3d 3451 1a3e 948a 18be
00000330: fc6e c4bd 70da 793c 505c 9fbd 62d7 aebc
00000340: 194e 623d dd20 8e3c 1b08 83bd 10ab 663d
00000350: f278 5e3d 33a6 a0bd b456 5a3c 53da c53d
00000360: 49f4 10bd 111c 5c3c b891 b93d 8106 573c
00000370: 4906 583d db89 123e 7d12 7d3b d985 e53c
00000380: 288a 0f3d 9e5a 493e 6828 84bd 1882 473d
00000390: 5635 d03d 9362 f2bd 0da1 bebd 9eec 78bd
000003a0: 0642 b73d 6c4c 553d c7aa 823c d68a c23c
000003b0: 9123 c93b 0cc3 943d 28e3 a73d 273a e93d
000003c0: caa0 c43d d748 c63d 0fa2 2b3d 0de3 073d
000003d0: 5959 9a3d 70ea f3bc 4102 05bc 2d58 03bd
000003e0: d633 2a3e bb3d 0b3d fb7b b33c e18a 11bd
000003f0: 8901 ef3a d3b1 3dbd 880e febc ed33 8f3d

transforms.2.coupling_network.hidden.0.bias f4 [16]
0.108709805 -0.05106592 0.027324153 -0.017823558 0.1119093 0.22682741 0.24658798 0.21615072
-0.15184186 0.08613955 0.09071325 -0.20555584 -0.011588419 0.17446555 0.19603102 0.16425306
00000000: 3fa3 de3d 802a 51bd e7d6 df3c b602 92bc
00000010: b430 e53d 7245 683e 8f81 7c3e 9d56 5d3e
00000020: 6f7c 1bbe ef69 b03d dec7 b93d 3b7d 52be
00000030: 5add 3dbc 19a7 323e 5bbc 483e f431 283e

transforms.2.coupling_network.output.weight f4 [16, 16, 3, 3]
-0.031238616 0.048677262 -0.03524625 0.019436676 0.20368358 -0.08761736 -0.030910872 0.0026097838
0.012094225 -0.10030397 -0.083935976 0.0006039363 -0.018151173 0.049408205 0.008078605 -0.05323262
-0.0065572965 -0.006137604 0.006426401 -0.0016952985 -0.007504849 -0.07485077 0.06811577 -0.024601145
-0.05587079 -0.09329045 0.060671143 0.10287023 0.31485808 0.0086673545 0.22913294 0.3800159
-0.0143244555 0.0026399747 0.010234469 -0.009621082 -0.050241333 -0.036565855 -0.06562579 0.33969867
-0.009936817 -0.047291785 -0.08593456 0.007079322 -0.029306475 -0.18454668 -0.35522768 -0.06150002
-0.08988679 -0.074970774 -0.060938384 -0.028577061 -0.00716371 0.02240774 -0.0920488 -0.025269043
0.036616527 0.47163036 0.0123225665 0.03827144 -0.032720987 -0.08454512 0.018987395 -0.028477916
-0.02850583 0.024631312 0.6494469 -0.36214003 -0.027477501 0.03440778 0.026043676 -0.02111134
-0.048904587 0.112070605 -0.022219146 0.0675717 -0.11731604 -0.08155898 0.0052364627 -0.011439078
-0.030066675 -0.14846197 0.08557093 0.064271145 -0.09261477 -0.09709499 0.020794705 0.01944984
-0.0952799 0.0064426125 -0.03253346 -0.026940819 -0.015283568 -0.06107052 0.077338286 0.0051837484
-0.046553317 -0.0858593 0.041606147 -0.025366917 -0.0777394 0.024060821 -0.019018015 -0.006190125
-0.011271714 0.01738127 -0.007008783 0.010974415 0.0019080373 0.0018317505 0.073410414 -0.0737344
-0.1584521 -0.02157637 -0.03381557 0.00036868776 0.0017876233 -0.033364873 0.026276303 0.064537905
-0.06361639 -0.0051737097 0.017448355 -0.0072892304 0.0029376757 -0.00576885 -0.025121108 0.036888734
0.029864691 -0.04219331 0.15934609 -0.01785132 0.019571034 0.024759518 0.09574753 -0.059368942
0.010244536 -0.021144206 -0.13959947 0.015497582 0.0291868 -0.00030635708 -0.0011735406 0.105646744
0.0071668997 -0.04405587 -0.0005004174 0.0892143 -0.47322562 -0.03926411 -0.0013768986 -0.04588138
-0.0068279086 -0.055794373 0.06855881 0.089864135 -0.047946855 0.109036334 -0.08076433 -0.0012598123
0.009811647 0.0010211581 -0.042025667 -0.010291549 0.014311729 -0.025902266 0.035991717 0.036343936
-0.07868466 0.095402285 -0.04758049 -0.03201993 0.16638213 -0.025382701 0.48212475 -0.069783285
0.12033118 -0.09545441 0.08846761 0.14273614 -0.056514848 0.086253196 0.060716216 -0.24523774
-0.085706264 0.12201536 0.2644519 0.12169671 0.00061849796 -0.008534083 -0.028141053 -0.0517815
0.01634321 -0.0895039 -0.15087995 -0.12705433 -0.11179258 0.045963656 0.14935075 0.03368078
0.05021406 0.5343458 0.19189881 -0.061063677 -0.034528587 -0.09808989 -0.02181225 0.028357312
-0.03560183 -0.07548703 0.17092173 0.17067654 -0.022240615 0.051369105 0.113455355 -0.043323148
0.013999402 0.019459225 -0.026576912 -0.04549892 0.19808105 -0.038761828 0.0070427433 0.041198287
-0.017580027 -0.045949914 -0.083843194 0.047251407 -0.07054106 0.31373096 0.009410038 -0.07385358
0.06361521 0.093332894 -0.041516438 -0.0023808586 0.007287241 0.09672595 -0.03047746 -0.0027029326
-0.04534187 -0.1056563 0.10316223 0.070891224 0.8389833 0.0027613796 0.06754399 0.031660188
0.016056469 0.018522542 0.0054008164 -0.013468781 -0.012932171 0.04012424 0.050122645 0.12929705
00000000: 20e8 ffbc cf61 473d 5f5e 10bd aa39 9f3c
00000010: 6e92 503e bb70 b3bd cc38 fdbc e808 2b3b
00000020: db26 463c 2b6c cdbd a0e6 abbd 7b51 1e3a
00000030: c5b1 94bc 4260 4a3d 205c 043c 730a 5abd
00000040: 97de d6bb f41d c9bb 8f94 d23b c734 deba
00000050: 3deb f5bb 5c4b 99bd 4880 8b3d 5788 c9bc
00000060: c5d8 64bd 100f bfbd 4e82 783d a1ad d23d
00000070: 1435 a13e 8501 0e3c d3a1 6a3e 7291 c23e
00000080: 1fb1 6abc 6d03 2d3b 79ae 273c bea1 1dbc
00000090: dbc9 4dbd 14c6 15bd d066 86bd fcec ad3e
000000a0: 08ce 22bc 08b5 41bd 75fe afbd a8f9 e73b
000000b0: 2214 f0bc cef9 3cbe 67e0 b5be 72e7 7bbd
000000c0: 9116 b8bd 478a 99bd 879a 79bd 711a eabc
000000d0: 8ebd eabb 7090 b73c 1584 bcbd 0601 cfbc
000000e0: 36fb 153d 8979 f13e 97e4 493c 83c2 1c3d
000000f0: 7106 06bd fe25 adbd 748b 9b3c 854a e9bc
00000100: 0f85 e9bc 9bc7 c93c 2742 263f 6b6a b9be
00000110: 7f18 e1bc 2cef 0c3d 8c59 d53c b0f1 acbc
00000120: 2d50 48bd 4685 e53d ed04 b6bc 0863 8a3d
00000130: 6443 f0bd 6508 a7bd a296 ab3b f86a 3bbc
00000140: 634e f6bc 6a06 18be d03f af3d 97a0 833d
00000150: d0ac bdbd bdd9 c6bd a859 aa3c 4555 9f3c
00000160: 1c22 c3bd 8d1c d33b ce41 05bd feb2 dcbc
00000170: ee67 7abc 1525 7abd 8963 9e3d 6fdc a93b
00000180: b1ae 3ebd 00d7 afbd 356b 2a3d 48ce cfbc
00000190: d635 9fbd 331b c53c abcb 9bbc 88d6 cabb
000001a0: ffac 38bc 2a63 8e3c efa9 e5bb 08ce 333c
000001b0: 1c17 fa3a 5917 f03a 3358 963d 1002 97bd
000001c0: 4441 22be edc0 b0bc 3282 0abd 6f4c c139
000001d0: af4e ea3a 9ba9 08bd 6741 d73c 732c 843d
000001e0: 4f49 82bd 3988 a9bb daef 8e3c 7fda eebb
000001f0: 0586 403b 9f08 bdbb c8ca cdbc a418 173d
00000200: cca6 f43c e4d2 2cbd 9f2b 233e ee3c 92bc
00000210: 6f53 a03c 79d4 ca3c 4817 c43d d92c 73bd
00000220: b3d8 273c 9d36 adbc 2af3 0ebe 92e9 7d3c
00000230: 2819 ef3c 8d9e a0b9 7dd1 99ba 525d d83d
00000240: 50d8 ea3b ee73 34bd 712e 03ba fdb5 b63d
00000250: a14a f2be 67d3 20bd 0d79 b4ba 1dee 3bbd
00000260: a6bc dfbb a488 64bd 9068 8c3d b00a b83d
00000270: ec63 44bd 714e df3d c567 a5bd 4920 a5ba
00000280: 08c1 203c 61d8 853a 1b23 2cbd e39d 28bc
00000290: be7b 6a3c fd30 d4bc 0d6c 133d 61dd 143d
000002a0: 6c25 a1bd 4662 c33d c3e3 42bd 5527 03bd
000002b0: 1460 2a3e 62ef cfbc 0ed9 f63e 8aea 8ebd
000002c0: 3270 f63d 9a7d c3bd 822e b53d 6c29 123e
000002d0: 1d7c 67bd 84a5 b03d 91b1 783d 9a1f 7bbe
000002e0: c486 afbd 30e3 f93d 3d66 873e 203c f93d
000002f0: b222 223a 8ad2 0bbc 1188 e6bc d718 54bd
00000300: 32e2 853c d24d b7bd 4680 1abe 881a 02be
00000310: 82f3 e4bd 6344 3c3d 67ef 183e dcf4 093d
00000320: 42ad 4d3d e3ca 083f 1f81 443e e81d 7abd
00000330: d96d 0dbd 5ae3 c8bd 9baf b2bc 984d e83c
00000340: 39d3 11bd f298 9abd 1b06 2f3e d5c5 2e3e
00000350: f331 b6bc 6968 523d 485b e83d 9d73 31bd
00000360: bf5d 653c f468 9f3c d3b7 d9bc 135d 3abd
00000370: c2d5 4a3e b9c4 1ebd d0c6 e63b 89bf 283d
00000380: fd03 90bc fa35 3cbd fbb5 abbd b18a 413d
00000390: d577 90bd 58a1 a03e 8f2c 1a3c 8c40 97bd
000003a0: b148 823d 5125 bf3d 240d 2abd 2e08 1cbb
000003b0: cfc9 ee3b 4118 c63d deab f9bc af23 31bb
000003c0: 66b8 39bd 5562 d8bd b846 d33d 6b2f 913d
000003d0: 9cc7 563f 43f8 343b 8154 8a3d 1dae 013d
000003e0: db88 833c 96bc 973c 55f9 b03b 29ac 5cbc
000003f0: 75e1 53bc 5159 243d 674d 4d3d 7266 043e

transforms.2.coupling_network.output.bias f4 [16]
0.08171066 -0.013730381 0.018806145 -0.027308548 0.103707835 -0.035785634 0.053878378 0.059281934
0.03399076 0.051617835 0.033743877 0.0059229624 -0.088974856 -0.09567886 -0.0036131323 -0.08180291
00000000: eb57 a73d 64f5 60bc 580f 9a3c 2db6 dfbc
00000010: c664 d43d f593 12bd 93af 5c3d 9dd1 723d
00000020: e539 0b3d 396d 533d 0537 0a3d 6915 c23b
00000030: 7338 b6bd 47f3 c3bd 4dca 6cbb 4988 a7bd
